Classifier_Model/ClasifierWithEfficientNetV2S/lightning_logs/version_13/checkpoints/epoch=8-step=36.ckpt (torch, 419582 bytes, 12 tensors)

model.0.weight f4 [32, 8, 3]
0.15606079 0.16942465 -0.047820672 0.18751076 -0.04472433 0.041190356 -0.09937887 0.11987856
0.17994419 -0.14975122 0.17742392 0.03820373 0.15080872 0.02764465 0.09842625 -0.0288205
0.15735641 0.030171365 -0.0952933 0.05203089 -0.09404747 -0.023938224 -0.08290672 0.13541004
-0.16112952 -0.094103344 -0.05763951 -0.122734234 0.019265875 -0.20160916 0.18434638 -0.17339697
0.15758944 0.033970162 -0.06628004 0.12613851 0.031812906 0.16492483 0.022314787 -0.06437528
0.054844826 -0.055354267 0.08590719 0.18224657 0.11799592 -0.089237474 0.117833674 0.036523163
0.10366139 -0.124414705 -0.20206423 -0.07886551 -0.15656789 0.1674918 0.05879414 0.08455098
0.06455654 -0.0035509318 0.15974924 -0.14503299 0.012852415 -0.13932294 0.06294209 -0.07029675
0.06254697 -0.042527527 0.16929892 -0.12098478 -0.12173924 -0.121746585 0.18359801 0.068024606
0.19641861 -0.16845882 -0.20246588 -0.15969935 -0.13731208 0.08267847 0.073091924 0.16961175
-0.10541489 -0.13915384 0.108303815 -0.0825079 0.12388781 -0.048438787 0.11676839 -0.15859793
-0.103011206 0.062232643 0.04315339 -0.052043244 0.12167218 0.13876548 -0.1480254 -0.108975396
0.18690872 -0.06887813 -0.07236536 -0.19750944 -0.116895825 0.05099097 -0.026942998 -0.14817086
0.004788071 -0.13943344 -0.17317826 -0.11240354 -0.17865193 -0.12997362 0.20404431 0.03855394
0.06290284 -0.19038339 -0.1340634 -0.067943916 0.03191912 -0.17961319 -0.08795159 -0.12220272
0.0005656779 -0.07595526 -0.014144942 -0.1383206 -0.14010984 -0.1190864 -0.06987117 -0.1611113
0.17115194 -0.04051131 0.17562777 0.063601434 -0.17285171 0.1412611 -0.0561637 -0.0782461
-0.16943744 -0.2029322 0.05840209 -0.04458967 0.07947025 -0.16751723 0.15154773 -0.14983809
-0.035246804 0.04263535 0.10537946 0.16479155 0.18594879 -0.16185457 0.051371366 -0.087799095
-0.022368908 -0.15278491 0.18592826 -0.14981702 0.10909441 0.07173732 0.06633136 -0.110358946
0.18553895 0.04485637 0.026258543 -0.17988539 0.08568898 -0.030622825 -0.093514234 0.17533174
0.045509234 -0.11293708 -0.10331518 -0.009748101 0.11397502 -0.05216062 -0.11646812 -0.069900855
-0.15249601 0.0727973 0.15800029 -0.19217071 0.047407985 0.10544887 0.03701371 -0.072693646
0.10654101 0.10726994 0.07632759 -0.035868987 -0.054052338 0.021837384 -0.036059365 -0.060829207
0.13047758 0.17542422 -0.020207748 -0.045702755 0.0029786378 -0.012187898 0.049073756 0.05720246
-0.18539715 -0.07532951 0.17189896 0.07951757 -0.010152638 -0.123067625 -0.124884196 -0.18284765
-0.0665368 0.06893358 0.13015398 0.094243586 -0.18043433 -0.12275261 -0.032214195 0.1974594
0.029528081 -0.052862182 0.08444926 -0.07774712 -0.13212052 0.14898762 -0.092815615 -0.04092011
-0.20306358 0.1366143 0.15465152 0.07439268 -0.14233051 -0.20145828 -0.16578534 0.15221542
0.09800118 0.17177138 0.10693449 0.051662236 -0.0019989163 -0.15523764 -0.1748879 -0.19092725
0.083560675 -0.10021842 -0.04108052 -0.117474526 -0.037196234 -0.1436697 -0.13337792 0.06771019
-0.060664967 0.12601465 -0.06548482 -0.14973879 -0.03601545 -0.09894866 -0.062450066 -0.1943253
00000000: 66ce 1f3e a87d 2d3e 9cdf 43bd d202 403e
00000010: dc30 37bd 38b7 283d 2687 cbbd e482 f53d
00000020: 4a43 383e 6258 19be 9eae 353e 847b 1c3d
00000030: 9a6d 1a3e 0877 e23c b493 c93d f818 ecbc
00000040: 0a22 213e f029 f73c 2229 c3bd 581e 553d
00000050: f69b c0bd 181a c4bc 00cb a9bd eea8 0a3e
00000060: 23ff 24be 41b9 c0bd 6817 6cbd 165c fbbd
00000070: 78d3 9d3c a272 4ebe 4cc5 3c3e fa8e 31be
00000080: 205f 213e 4c24 0b3d d4bd 87bd 742a 013e
00000090: 404e 023d 0ee2 283e 80cd b63c 30d7 83bd
000000a0: f8a4 603d 28bb 62bd 1cf0 af3d d89e 3a3e
000000b0: d8a7 f13d 23c2 b6bd c852 f13d 5099 153d
000000c0: 6c4c d43d 23cd febd ede9 4ebe 3e84 a1bd
000000d0: 5553 20be f882 2b3e 20d2 703d 1029 ad3d
000000e0: 3836 843d c0b6 68bb 4e95 233e 8783 14be
000000f0: f092 523c acaa 0ebe c8e7 803d bef7 8fbd
00000100: a018 803d 5831 2ebd b25c 2d3e dec6 f7bd
00000110: 6c52 f9bd 4656 f9bd 1e01 3c3e 7c50 8b3d
00000120: f621 493e 7880 2cbe 3753 4fbe 3a88 23be
00000130: 8a9b 0cbe 5453 a93d 38b1 953d b4ae 2d3e
00000140: c3e3 d7bd 587e 0ebe 64ce dd3d e7f9 a8bd
00000150: e4b8 fd3d c067 46bd 4424 ef3d 7f67 22be
00000160: 8af7 d2bd a8e7 7e3d 9cc1 303d 4c2b 55bd
00000170: 442f f93d 8a18 0e3e f893 17be 7e2e dfbd
00000180: 0065 3f3e fa0f 8dbd 4a34 94bd ea3f 4abe
00000190: 1467 efbd e8db 503d 90b7 dcbc 1aba 17be
000001a0: 40e5 9c3b a4c7 0ebe a455 31be d433 e6bd
000001b0: 88f0 36be ce17 05be fef0 503e bcea 1d3d
000001c0: 34d3 803d ddf3 42be ea47 09be 2e26 8bbd
000001d0: a0bd 023d 85ec 37be f71f b4bd 6b45 fabd
000001e0: 004a 143a 6e8e 9bbd 30c0 67bc eaa3 0dbe
000001f0: f478 0fbe 92e3 f3bd 9e18 8fbd 5cfa 24be
00000200: 7442 2f3e 30ef 25bd c4d7 333e 7841 823d
00000210: 0a00 31be c0a6 103e e80b 66bd 7e3f a0bd
00000220: 0281 2dbe 75cd 4fbe 0837 6f3d a8a3 36bd
00000230: 4cc1 a23d a389 2bbe 542f 1b3e 286f 19be
00000240: f45e 10bd 68a2 2e3d 30d1 d73d 1ebf 283e
00000250: 5c69 3e3e 34bd 25be c86a 523d 03d0 b3bd
00000260: 003f b7bc a673 1cbe fa63 3e3e a269 19be
00000270: e46c df3d 04eb 923d bcd8 873d df03 e2bd
00000280: ecfd 3d3e 50bb 373d 281c d73c e033 38be
00000290: b47d af3d b8dc fabc 6484 bfbd 2a8a 333e
000002a0: e467 3a3d 8e4b e7bd e996 d3bd 80b6 1fbc
000002b0: bc6b e93d 60a6 55bd d686 eebd 2e28 8fbd
000002c0: ea27 1cbe c016 953d d4ca 213e 66c8 44be
000002d0: e02e 423d 94f5 d73d b09b 173d 68e0 94bd
000002e0: 2c32 da3d 58b0 db3d a451 9c3d 5ceb 12bd
000002f0: fc65 5dbd 50e4 b23c fcb2 13bd 0c28 79bd
00000300: ea9b 053e 68a2 333e b88a a5bc d032 3bbd
00000310: 4035 433b c0af 47bc 9001 493d 204d 6a3d
00000320: c0d8 3dbe 5c46 9abd 4806 303e 1cda a23d
00000330: 4057 26bc e10a fcbd 49c3 ffbd 6a3c 3bbe
00000340: 7244 88bd 0c2d 8d3d 1647 053e c802 c13d
00000350: c7c3 38be b865 fbbd 08f3 03bd cc32 4a3e
00000360: e0e4 f13c 0486 58bd bcf3 ac3d e239 9fbd
00000370: 9a4a 07be 3690 183e 1d16 bebd d89b 27bd
00000380: e6ef 4fbe 9ee4 0b3e f85c 1e3e 305b 983d
00000390: 17bf 11be 144b 4ebe a2c3 29be 5cde 1b3e
000003a0: d8b4 c83d d6e4 2f3e 7800 db3d c89b 533d
000003b0: 4000 03bb 9ef6 1ebe d015 33be 6f82 43be
000003c0: dc21 ab3d 513f cdbd 0c44 28bd 7c96 f0bd
000003d0: 145b 18bd 261e 13be 3994 08be a4ab 8a3d
000003e0: d47b 78bd fc09 013e e81c 86bd 2055 19be
000003f0: f084 13bd 98a5 cabd a4cb 7fbd 36fd 46be

model.0.bias f4 [32]
-0.13137978 0.20174529 0.07802305 0.08190728 -0.122127086 -0.08948723 -0.030813381 -0.03733021
-0.13987574 0.016812464 0.020278338 -0.025846407 0.02829788 -0.08090474 0.05312566 0.07698088
-0.107520156 -0.20240523 0.106845126 0.04869189 -0.103815086 0.19671325 -0.092314735 0.13793431
0.10355801 -0.17113934 0.13164587 -0.18768664 -0.11308778 -0.03403054 -0.13758917 0.19941193
00000000: 6c88 06be 5196 4e3e 8dca 9f3d 01bf a73d
00000010: c41d fabd 1545 b7bd 586c fcbc 90e7 18bd
00000020: 963b 0fbe 4bba 893c c21e a63c d8bb d3bc
00000030: f5d0 e73c 62b1 a5bd 4b9a 593d 27a8 9d3d
00000040: 8733 dcbd 5143 4fbe 9ed1 da3d 2671 473d
00000050: 019d d4bd 336f 493e 820f bdbd a73e 0d3e
00000060: 3916 d43d 273f 2fbe 2dce 063e ed30 40be
00000070: 919a e7bd 9c63 0bbd 2de4 0cbe a432 4c3e

model.2.weight f4 [64, 32, 3]
-0.020471573 0.040538013 -0.09113245 0.058753714 -0.031719238 -0.07763569 0.014923818 0.049445182
0.08832422 -0.062338766 -0.050225187 0.01962275 0.027685478 0.039240032 0.05601935 -0.023142956
0.0567026 0.07524951 -0.026660815 0.07261281 0.04986544 0.09002414 -0.057999216 -0.05039917
-0.029510118 0.0051772296 0.061257556 -0.05826343 0.05109778 -0.03657715 0.061656654 -0.0048456267
-0.08941525 -0.056159236 -0.073867634 0.05061896 -0.06843755 -0.008503631 0.022020489 -0.0559703
0.029441848 -0.0996558 -0.07302628 -0.09248084 -0.030871466 -0.037180945 0.014614612 -0.018872753
0.04797755 0.09357004 0.036618963 -0.04020914 -0.09556946 0.036967084 -0.05056746 0.05193697
0.06822696 0.039367437 0.09576595 0.09693819 0.02161061 -0.07436618 0.09118648 -0.048428025
-0.048209388 0.08540337 0.07907875 0.030838192 0.006397642 -0.08585114 -0.010594465 0.09789042
0.025991008 0.008738354 -0.021193296 -0.035597444 0.060831323 0.0062940195 0.06639895 -0.01806485
0.04459186 0.04212816 0.016275242 0.06413306 0.06395678 0.09460372 0.07846287 -0.026096933
-0.08640782 0.018658727 -0.0008908212 -0.02662038 -0.017090775 0.0048002675 0.07446754 0.03181696
-0.036241665 -0.041970473 -0.025273763 -0.039447203 0.09177665 0.0540568 0.09215959 0.00032598723
0.020582989 0.035391573 -0.09660715 0.00911384 -0.0068269297 -0.057221517 -0.0791948 0.09035294
0.08298321 0.047302574 0.09739271 -0.04141759 -0.017628439 0.0386426 -0.016863368 -0.020028137
-0.08436058 0.027420133 -0.06167889 0.0037116192 0.09950803 -0.031416263 -0.03216912 0.061575375
-0.03752345 -0.008764826 0.09529929 -0.04184277 -0.073016256 -0.05711839 -0.028296247 -0.048428327
-0.052963253 0.041227415 0.017344227 -0.03266612 -0.07929317 -0.0321352 -0.043074142 -0.03321288
-0.09207255 0.02198714 -0.07498741 -0.07948586 -0.083388105 0.042599037 -0.06144404 -0.042126153
0.08000045 0.05419135 0.058521524 -0.096908584 -0.07318869 -0.03852956 0.08431324 0.010441091
-0.07633185 0.000639195 -0.079268634 -0.022361726 -0.028064527 0.08835131 0.03161243 -0.017796613
0.017241266 -0.029461753 0.040100288 0.040372074 0.027408376 -0.039781444 0.08707444 -0.014734635
-0.039734412 0.06392291 0.08318637 0.10156807 0.030236736 -0.034792334 0.05183652 0.08756462
-0.10010597 -0.012644157 -0.06960282 0.019020267 0.042211324 -0.021084689 -0.008538123 0.045939334
-0.017153546 -0.08570964 0.081663534 -0.05136932 -0.011212386 0.0096271485 -0.0061336085 -0.09600837
0.04682608 -0.04635981 -0.052935474 0.0243842 -0.053262323 -0.04716897 -0.03438981 -0.03834243
-0.042624947 -0.027524702 0.026523456 -0.08259046 -0.06177616 0.001489237 0.01419358 0.056368113
-0.07169289 0.032577902 0.05801104 0.05667101 -0.095062815 -0.038947314 -0.08772905 -0.06458604
0.056846827 -0.015239812 0.043346927 -0.059911083 0.015509345 -0.061733056 0.05102001 -0.04463981
-0.025592998 -0.08855225 0.00033716857 0.09690592 0.0495387 -0.054454297 0.0013726056 -0.011190951
-0.08216754 0.08002597 0.0016453117 0.021493971 -0.041215625 -0.047756795 0.01682897 0.037733465
0.022892319 -0.049188312 0.09909184 -0.015023984 -0.06250435 -0.047735725 0.10047203 4.917383e-06
00000000: 00b4 a7bc 300b 263d a6a3 babd bca7 703d
00000010: 08ec 01bd 76ff 9ebd 0883 743c 0887 4a3d
00000020: 54e3 b43d ef56 7fbd edb8 4dbd e4bf a03c
00000030: a8cc e23c 28ba 203d 8c74 653d 4c96 bdbc
00000040: fc40 683d 6a1c 9a3d c867 dabc 06b6 943d
00000050: b43f 4c3d 945e b83d 9690 6dbd 5c6f 4ebd
00000060: 34bf f1bc c0a5 a93b 34e9 7a3d a2a5 6ebd
00000070: e84b 513d ecd1 15bd b08b 7c3d 10c8 9ebb
00000080: 581f b7bd 3a07 66bd ea47 97bd d455 4f3d
00000090: fc28 8cbd d052 0bbc 5064 b43c 1d41 65bd
000000a0: 0830 f13c 5718 ccbd cd8e 95bd 9866 bdbd
000000b0: 28e6 fcbc 0c4b 18bd 2072 6f3c 089b 9abc
000000c0: 1c84 443d a6a1 bf3d c4fd 153d 57b2 24bd
000000d0: ecb9 c3bd cc6a 173d d31f 4fbd dcbb 543d
000000e0: 94ba 8b3d c03f 213d f020 c43d 8887 c63d
000000f0: bc08 b13c 4c4d 98bd fabf ba3d 775c 46bd
00000100: 3577 45bd f6e7 ae3d 0af4 a13d 60a0 fc3c
00000110: 50a3 d13b b9d2 afbd 6894 2dbc c67a c83d
00000120: 18eb d43c 502b 0f3c 909d adbc a0ce 11bd
00000130: 442a 793d 103e ce3b 2cfc 873d bcfc 93bc
00000140: f4a5 363d 948e 2c3d a853 853c 3258 833d
00000150: c6fb 823d 98bf c13d 24b1 a03d 3cc9 d5bc
00000160: 95f6 b0bd 30da 983c 0086 69ba fc12 dabc
00000170: f401 8cbc 904b 9d3b 7082 983d 8052 023d
00000180: 2472 14bd 3be9 2bbd ec0a cfbc 6493 21bd
00000190: 65f5 bb3d aa6a 5d3d 2bbe bc3d 44e9 aa39
000001a0: a89d a83c c1f6 103d f8d9 c5bd 3752 153c
000001b0: 70b4 dfbb 1c61 6abd e230 a2bd f60a b93d
000001c0: 1af3 a93d 58c0 413d d475 c73d 7ea5 29bd
000001d0: 8469 90bc b447 1e3d 0c25 8abc 0c12 a4bc
000001e0: 3dc5 acbd 30a0 e03c 01a3 7cbd a33e 733b
000001f0: deca cb3d 57ae 00bd c4c3 03bd 7636 7c3d
00000200: 30b2 19bd 589a 0fbc 462c c33d 5363 2bbd
00000210: 8c89 95bd f9f4 69bd 88cd e7bc c85c 46bd
00000220: ffef 58bd 14de 283d 7b15 8e3c e9cc 05bd
00000230: 7564 a2bd 33a0 03bd 836e 30bd 3b0a 08bd
00000240: 8890 bcbd 601e b43c 0093 99bd 7cc9 a2bd
00000250: 62c7 aabd 547c 2e3d bfac 7bbd 798c 2cbd
00000260: 47d7 a33d c0f7 5d3d 44b4 6f3d 0278 c6bd
00000270: f4e3 95bd 2cd1 1dbd 6cac ac3d 1c11 2b3c
00000280: df53 9cbd a68f 273a 9857 a2bd f02f b7bc
00000290: 94e7 e5bc 88f1 b43d 097c 013d 34ca 91bc
000002a0: 8e3d 8d3c c659 f1bc 3340 243d 305d 253d
000002b0: 8887 e03c def1 22bd 1654 b23d 8a69 71bc
000002c0: 8dc0 22bd 04ea 823d 9e5d aa3d ec02 d03d
000002d0: 08b3 f73c 6882 0ebd 8852 543d 1455 b33d
000002e0: 5c04 cdbd 7029 4fbc ec8b 8ebd 64d0 9b3c
000002f0: c8e5 2c3d ccb9 acbc 7ce3 0bbc e22a 3c3d
00000300: 9885 8cbc 8988 afbd 363f a73d a368 52bd
00000310: 28b4 37bc 30bb 1d3c 70fc c8bb 09a0 c4bd
00000320: b4cc 3f3d c9e3 3dbd ded2 58bd 60c1 c73c
00000330: 9829 5abd 4034 41bd 54dc 0cbd f40c 1dbd
00000340: 7f97 2ebd 7c7b e1bc b847 d93c 3025 a9bd
00000350: 0009 7dbd 8032 c33a 308c 683c 40e2 663d
00000360: b9d3 92bd 6870 053d fc9c 6d3d dc1f 683d
00000370: 4bb0 c2bd 3887 1fbd 4aab b3bd b045 84bd
00000380: 38d8 683d 68b0 79bc 8c8c 313d 5365 75bd
00000390: e81a 7e3c cddb 7cbd 5cfa 503d 3cd8 36bd
000003a0: 68a8 d1bc e25a b5bd 00c6 b039 9c76 c63d
000003b0: 18e9 4a3d 780b 5fbd 00e9 b33a 405a 37bc
000003c0: 7547 a8bd a8e4 a33d 80a7 d73a 2014 b03c
000003d0: b7d1 28bd a19c 43bd e8dc 893c 688e 1a3d
000003e0: ac88 bb3c af79 49bd aaf0 ca3d 2827 76bc
000003f0: 4802 80bd 8986 43bd 48c4 cd3d 0000 a536

model.2.bias f4 [64]
-0.085213296 0.07902703 -0.080071874 -0.07833811 0.013811456 -0.010748312 0.0039867903 0.008027896
0.101164855 -0.09909488 -0.061363988 0.018827058 -0.090859435 -0.08063194 0.07820993 0.039519295
-0.031658314 0.026927624 0.017840689 -0.0100485105 0.084751956 -3.2104712e-05 0.07240316 -0.079444125
-0.041468643 0.017274717 0.05451879 -0.041530754 0.07363857 -0.084672265 -0.03893178 0.07673449
-0.07626149 -0.09572023 -0.025761105 -0.08503144 0.030351527 -0.017944299 -0.03004273 0.056439377
0.0059404103 -0.092015 -0.096720636 0.06410504 0.04400069 0.056084577 -0.08668168 -0.019722797
0.08720515 0.082441755 0.06936893 0.094731756 -0.031982593 -0.079011515 0.05737473 0.065069325
-0.03082189 -0.0095293475 -0.004914999 -0.090536855 -0.042268515 -0.03234075 0.03810373 -0.029779091
00000000: 4f84 aebd ecd8 a13d b9fc a3bd bb6f a0bd
00000010: 7249 623c b019 30bc 9fa3 823b 7087 033c
00000020: 852f cf3d 42f2 cabd ce58 7bbd 343b 9a3c
00000030: 8314 babd 5c22 a5bd 872c a03d fcde 213d
00000040: 26ac 01bd 5297 dc3c a326 923c 82a2 24bc
00000050: 6f92 ad3d 2ca8 06b8 1c48 943d 9ab3 a2bd
00000060: 06db 29bd b583 8d3c 184f 5f3d 271c 2abd
00000070: d2cf 963d a768 adbd ee76 1fbd f926 9d3d
00000080: fc2e 9cbd f808 c4bd f408 d3bc f724 aebd
00000090: c4a3 f83c ecff 92bc 2c1c f6bc fa2c 673d
000000a0: c6a7 c23b 5c72 bcbd 7815 c6bd 8149 833d
000000b0: 113a 343d f1b8 653d 2a86 b1bd b491 a1bc
000000c0: 9d98 b23d 39d7 a83d 4c11 8e3d b902 c23d
000000d0: 2e00 03bd cad0 a1bd c401 6b3d 1143 853d
000000e0: 307e fcbc fb20 1cbc 000e a1bb 636b b9bd
000000f0: c021 2dbd bc77 04bd a812 1c3d 48f3 f3bc

model.5.weight f4 [96, 64, 3]
0.032571338 0.06498408 -0.015384033 -0.017590992 -0.04532912 -0.0055077597 -0.0660438 0.04878089
0.06225431 0.019247912 0.068254784 0.036351822 0.04783885 0.066657186 -0.049618464 -0.0056619644
0.02711276 -0.0193173 -0.051193655 -0.022660524 -0.035775512 -0.025312021 -0.05497812 -0.021769546
0.041351624 -0.031675316 0.030741416 -0.059349883 -0.045476176 0.0074800104 0.06683324 -0.066649035
0.031413347 0.012621999 -0.058969535 -0.05239947 0.03636056 -0.036060516 0.05057527 -0.04990759
0.054519057 -0.036817674 0.029234633 0.021593206 -0.056629617 -0.037848216 -0.017481707 0.00022898614
0.035642043 -0.02966594 0.0106181875 -0.039148133 -0.034304366 0.04709556 -0.019765802 -0.063236795
0.0030314624 -0.010288045 0.020516671 -0.0368148 0.003108412 -0.03560379 -0.043616146 0.016497277
0.022306398 0.013351284 0.06666316 0.0066901445 0.0061369985 -0.00943505 -0.06977284 0.028226472
0.05625938 0.007151462 -0.056284223 0.06479952 0.016167648 0.05220017 0.031344235 0.011383511
-0.021263245 0.014816403 0.023221157 -0.0043751746 -0.046096936 -0.03792763 -0.06614627 -0.02822591
-0.01163435 0.05902484 -0.038604274 -0.071012124 0.03955622 0.0622243 -0.056289874 -0.0007207468
0.02294454 0.046526127 -0.012955379 0.032869957 0.05545008 0.042232633 0.03516242 0.043889023
-0.0646708 0.015344746 0.05565448 -0.0571806 -0.06326097 -0.059596837 0.022158429 0.0669774
-0.0065458715 -0.028688874 0.004270971 -0.059505522 0.012493007 -0.04744731 -0.048574924 -0.052644625
-0.02043175 0.04703278 0.014658287 0.05022466 -0.06962569 -0.05877354 0.044218898 0.056848317
0.061288074 -0.0670249 0.032326087 -0.07116358 -0.021343496 0.0014619753 0.033748157 -0.022046275
-0.06240184 -0.07012924 -0.028941266 0.05499901 0.031312928 0.035697103 -0.058367178 -0.06484608
0.06677474 0.047140144 -0.031106234 0.0060683116 0.05199202 0.06496419 -0.05806948 -0.0357688
0.028044842 0.05514002 0.012555577 -0.0044538826 0.0027954653 0.06567378 -0.056661826 0.03287808
-0.051668543 0.006861761 -0.068174236 0.04674221 -0.040210042 0.004794061 -0.045261104 0.006609164
-0.035143435 -0.03690831 -0.031275313 0.044778258 0.010085553 -0.018588532 0.061467007 0.014142863
-0.02335482 -0.0032633245 -0.028217427 -0.028629806 -0.02253656 0.017198779 -0.0642613 -0.056203008
0.048445478 -0.017284606 -0.0026645958 0.025205068 -0.032280613 0.05055712 -0.016336158 0.0043976232
-0.05005235 0.02934663 -0.051295064 0.043894283 -0.010213831 -0.026354576 -0.024158608 0.027534075
0.07068348 0.01960703 0.044235364 -0.06083304 -0.017029544 -0.04086865 -0.05179534 0.012391612
-0.022561587 0.016336739 -0.028694497 -0.065804794 -0.03713966 -0.06936652 0.015632413 -0.05417691
0.055480354 0.031239064 -0.040488664 -0.020624451 -0.064659625 0.05199244 -0.03227261 -0.015160788
0.00533136 0.035034336 -0.02151515 0.035382614 0.03711731 -0.008916996 0.047851324 -0.063286
-0.03929696 -0.005663529 -0.007346222 0.025605137 0.052126367 -0.052111752 0.03787049 0.01731611
0.059936345 0.038519144 -0.01568653 -0.010232185 -0.04802447 0.015925167 0.05647588 0.024834167
0.058352236 0.02882499 0.013886849 -0.015623604 -0.06234771 -0.013527819 0.06126272 0.06275212
00000000: 8669 053d 6016 853d 500d 7cbc fc1a 90bc
00000010: 07ab 39bd 707a b4bb f941 87bd 78ce 473d
00000020: 60fe 7e3d ccad 9d3c 2ac9 8b3d a6e5 143d
00000030: acf2 433d 9083 883d bb3c 4bbd 0088 b9bb
00000040: 941b de3c 503f 9ebc 70b0 51bd 90a2 b9bc
00000050: 5889 12bd 285b cfbc bd30 61bd 0c56 b2bc
00000060: 5260 293d fabd 01bd 6cd5 fb3c dd18 73bd
00000070: 3a45 3abd e01a f53b dedf 883d 4a7f 88bd
00000080: 48ab 003d 80cc 4e3c 0a8a 71bd d4a0 56bd
00000090: d0ee 143d 31b4 13bd 0428 4f3d e76b 4cbd
000000a0: 604f 5f3d 21ce 16bd 787d ef3c 3ce4 b03c
000000b0: 75f4 67bd bb06 1bbd cc35 8fbc 001c 7039
000000c0: 64fd 113d fc05 f3bc e8f7 2d3c cb59 20bd
000000d0: bc82 0cbd 46e7 403d e4eb a1bc 4b82 81bd
000000e0: 80ab 463b 308f 28bc 9412 a83c 1ecb 16bd
000000f0: 80b6 4b3b 48d5 11bd d8a6 32bd 4c25 873c
00000100: e8bb b63c 58bf 5a3c b286 883d 0039 db3b
00000110: e018 c93b 7895 1abc 10e5 8ebd 343b e73c
00000120: 3c70 663d d056 ea3b 498a 66bd 9cb5 843d
00000130: 0472 843c d8cf 553d d062 003d e881 3a3c
00000140: 4230 aebc 80c0 723c 4c3a be3c a05d 8fbb
00000150: 24d0 3cbd 015a 1bbd b277 87bd 063a e7bc
00000160: 009e 3ebc 08c4 713d 841f 1ebd ce6e 91bd
00000170: b405 223d e8de 7e3d 3690 66bd 80f0 3cba
00000180: 30f6 bb3c 2e92 3e3d cc42 54bc a6a2 063d
00000190: a01f 633d 20fc 2c3d 7806 103d fac4 333d
000001a0: 2072 84bd 8868 7b3c f4f5 633d 3436 6abd
000001b0: f88e 81bd d01b 74bd 9885 b53c 722b 893d
000001c0: c07e d6bb ee04 ebbc 80f3 8b3b 10bc 73bd
000001d0: 78af 4c3c 1c58 42bd 80f6 46bd e4a1 57bd
000001e0: 7c60 a7bc 72a5 403d 5029 703c 60b8 4d3d
000001f0: ea97 8ebd 86bc 70bd e01e 353d c8d9 683d
00000200: 3409 7b3d 5a44 89bd 5c68 043d 36be 91bd
00000210: 8ed8 aebc c09f bf3a 823b 0a3d 649a b4bc
00000220: 1299 7fbd eb9f 8fbd 3c16 edbc a446 613d
00000230: fc41 003d 2037 123d 6c12 6fbd 06ce 84bd
00000240: 32c1 883d 0616 413d 80d2 febc b0d8 c63b
00000250: 96f5 543d f20b 853d 43da 6dbd 4e82 12bd
00000260: 4cbe e53c 80da 613d e8b5 4d3c e0f1 91bb
00000270: 2034 373b fa7f 863d 3b16 68bd 2aab 063d
00000280: 65a2 53bd a0d8 e03b ef9e 8bbd c274 3f3d
00000290: 49b3 24bd 8017 9d3b b563 39bd b091 d83b
000002a0: 90f2 0fbd 2b2d 17bd 8b1a 00bd 6869 373d
000002b0: e03d 253c fa46 98bc d4c4 7b3d 78b7 673c
000002c0: 9c52 bfbc 80dd 55bb 3c28 e7bc 0e89 eabc
000002d0: 989e b8bc 74e4 8c3c 6e9b 83bd 2035 66bd
000002e0: c46e 463d 7298 8dbc 80a0 2ebb dc7a ce3c
000002f0: ad38 04bd fc14 4f3d 68d3 85bc f019 903b
00000300: b103 4dbd 5868 f03c c61a 52bd 7eca 333d
00000310: ea57 27bc 8de5 d7bc 46e8 c5bc 248f e13c
00000320: 80c2 903d ec9e a03c 2430 353d 112c 79bd
00000330: 8b81 8bbc e365 27bd 5a27 54bd 3006 4b3c
00000340: 14d3 b8bc a0d4 853c b910 ebbc aac4 86bd
00000350: c21f 18bd 0910 8ebd 8c0f 803c 9ce8 5dbd
00000360: 5e3f 633d 11e9 ff3c 71d7 25bd 9cf4 a8bc
00000370: 446c 84bd 06f6 543d 4930 04bd f464 78bc
00000380: b0b2 ae3b 2a80 0f3d 8a40 b0bc 5ced 103d
00000390: 5208 183d 9818 12bc c0ff 433d 179c 81bd
000003a0: d9f5 20bd 2095 b9bb 94b8 f0bb ddc1 d13c
000003b0: 7582 553d 2273 55bd 161e 1b3d 84da 8d3c
000003c0: d07f 753d 40c6 1d3d 0a81 80bc e5a4 27bc
000003d0: 4fb5 44bd 7f75 823c 4153 673d 0671 cb3c
000003e0: c102 6f3d 6322 ec3c ab85 633c 25fa 7fbc
000003f0: 5060 7fbd c9a3 5dbc 9eee 7a3d 2f84 803d

model.5.bias f4 [96]
-0.010227814 0.062328197 0.025568876 -0.05095452 -0.020363517 -0.027455505 -0.040117163 -0.05993787
0.035745926 0.055627912 -0.05710534 0.07210523 0.033500858 0.062772855 -0.056886896 0.021454122
0.049826875 0.04020031 -0.021484014 0.047286093 0.037029114 -0.045876138 0.037988167 -0.03443294
0.056958914 -0.022544295 -0.043290965 0.032670833 -0.041583672 -0.02944795 0.046685252 0.06533009
0.023184825 0.06383432 0.027825251 -0.011078028 -0.024095245 -0.01893469 0.0015701354 -0.008299582
0.015186407 0.018581837 -0.04666476 -0.04078451 0.059895873 -0.030981116 0.037562508 0.06800776
-0.06554708 0.011712753 0.01807338 -0.04477653 -0.01800059 -0.03444656 -0.07160788 -0.025028758
0.066007204 0.06859817 -0.04252536 -0.022999164 -0.03739182 0.048465975 -0.05926608 -0.02455832
-0.02307538 -0.029118955 0.061927557 -0.062704414 -0.05713175 -0.059454482 -0.032620955 0.039185848
0.009922326 -0.003263004 0.05650687 0.04970917 0.016847447 0.013713324 -0.028870504 -0.06973071
0.012788843 0.062083658 0.05242888 -0.0067291707 -0.0019318312 0.06971496 -0.07209125 0.063358314
0.07052995 0.045508552 0.02886662 0.0029761717 0.025002385 -0.03746707 -0.010958124 -0.04632888
00000000: 9092 27bc da4b 7f3d d275 d13c b0b5 50bd
00000010: 64d1 a6bc 5eea e0bc e551 24bd 6981 75bd
00000020: 526a 123d 18da 633d 4ae7 69bd e8ab 933d
00000030: 3238 093d 0e8f 803d 3c02 69bd 8ec0 af3c
00000040: 4417 4c3d 15a9 243d 3eff afbc 10af 413d
00000050: d7ab 173d 9ee8 3bbd 7b99 1b3d 8e09 0dbd
00000060: c04d 693d d0ae b8bc de51 31bd dad1 053d
00000070: a453 2abd d43c f1bc 0939 3f3d c8cb 853d
00000080: 1aee bd3c 91bb 823d c8f1 e33c 9e80 35bc
00000090: 6463 c5bc ec1c 9bbc 00cd cd3a f8fa 07bc
000000a0: 68d0 783c f038 983c 8c23 3fbd a90d 27bd
000000b0: 6055 753d 1ccc fdbc 25db 193d a747 8b3d
000000c0: 8c3d 86bd d9e6 3f3c a00e 943c 9867 37bd
000000d0: f975 93bc d617 0dbd 27a7 92bd 1c09 cdbc
000000e0: c92e 873d 337d 8c3d 122f 2ebd be68 bcbc
000000f0: 2a28 19bd 4284 463d fdc0 72bd 882e c9bc
00000100: 9408 bdbc e08a eebc c0a7 7d3d 2c6b 80bd
00000110: fb02 6abd 8b86 73bd 8d9d 05bd 5781 203d
00000120: 4091 223c 1fd8 55bb bf73 673d d89b 4b3d
00000130: a803 8a3c daad 603c d681 ecbc f9ce 8ebd
00000140: 4c88 513c 6f4b 7e3d aabf 563d 6080 dcbb
00000150: 8035 fdba b8c6 8e3d 94a4 93bd 01c2 813d
00000160: 0272 903d 2d67 3a3d b179 ec3c e00b 433b
00000170: cdd1 cc3c 1277 19bd b489 33bc 5ac3 3dbd

model.8.weight f4 [128, 96, 3]
0.007125739 -0.015744727 0.05255769 0.021570846 0.027347974 -0.03925836 -0.000682749 0.051623907
0.024090845 -0.05141586 -0.02431139 0.0338743 0.031411048 0.008268174 -0.016051423 0.03438588
0.016304795 0.005971875 0.018161159 -0.033766728 -0.04082317 0.038036842 -0.032162286 -0.04281047
-0.04765674 0.046662487 0.024083873 0.025508463 0.04249398 -0.055346932 -0.047670648 0.022362474
0.05085509 0.026586955 0.005497894 0.057224113 -0.0257799 0.050685138 0.04815913 -0.04593021
-0.0051759533 0.048888672 0.054585416 -0.011711873 0.051554512 -0.047795452 0.015947225 0.010584497
0.016843367 0.031916436 0.010138202 0.030302092 0.04632166 0.03339649 0.03767671 0.058636863
0.04621992 0.0035415778 -0.04135551 0.025657643 0.005974919 0.053813595 -0.016976826 0.0019263439
-0.05501372 -0.028217709 0.04240931 -0.03812033 -0.030235656 0.0024452843 0.0027232766 0.04213826
-0.038450237 0.010644185 -0.03695746 0.029428575 0.022602115 -0.008645862 0.04215205 0.041173946
-0.033533685 -0.05114841 0.028955871 -0.048272353 0.0073700137 0.0049239583 0.020803127 0.029454399
-0.031408295 0.0036731996 -0.0346931 0.041637737 0.017329518 0.051438116 0.046511546 0.026353575
0.037261482 5.6547193e-05 -0.044027697 -0.024237279 -0.023176324 -0.025687005 -0.029805394 -0.05752016
0.010975633 -0.03738838 -0.0513803 0.01830581 -0.05519495 0.012775641 -0.0034332052 0.031101305
0.048816 0.02904119 -0.047278795 -0.0056323 0.026906949 -0.046275068 -0.05696691 -0.052829087
-0.04392395 0.025533143 -0.0174868 0.02388766 -0.031382278 -0.014908217 -0.008785568 0.056648638
0.0077873133 -0.048172977 0.045471605 0.0032926165 0.05318866 -0.00050478475 -0.047704667 0.009762075
-0.032276604 -0.040509887 0.006176638 0.02218397 -0.030659694 -0.016850566 -0.022978613 0.04446669
0.014638398 -0.012752961 -0.01888349 -0.02142509 -0.0020245719 0.01421823 -0.022745263 -0.024512704
-0.043582432 0.053034943 -0.024282992 0.0518529 -0.0059211696 -0.013481037 -0.020983968 -0.00074696913
-0.002468899 0.014974233 -0.027896164 0.050747257 0.013545211 -0.009536244 -0.04019496 0.014512043
-0.003171925 -0.008890264 -0.053773936 0.022571309 0.0069656484 0.035786953 -0.033066746 0.035572197
0.04515634 0.01335891 0.044384185 -0.056383062 0.038273115 -0.018530566 0.020741124 0.04306903
0.007903962 -0.0009818908 0.025917437 0.056577455 -0.042070057 0.054908413 0.009312216 0.031091746
-0.0018807128 -0.012182638 -0.009303417 -0.012989722 -0.050924942 0.042107936 0.029316869 -0.058382906
0.028713267 -0.044409756 -0.024483457 0.050613265 -0.005207911 0.0376199 0.034038078 0.0055237673
-0.05650083 0.041292895 -0.0246482 -0.038594633 -0.019181795 0.04743967 -0.016139885 0.024871966
0.006354619 -0.028281638 0.008740101 0.046412252 0.04802528 -0.00015101579 0.005411781 0.03538054
-0.021612428 -0.011298189 0.030700488 0.0414488 0.0072772987 -0.0058087483 -0.05048072 -0.004526999
-0.039106347 -0.011449817 -0.0009869909 0.022565372 0.05051097 0.0039094873 0.009029303 -0.02636661
-0.042891994 -0.052629787 0.012659546 0.0083547 0.05192685 0.033950537 0.002110438 -0.018846266
0.040786505 -0.05115417 -0.0017786734 0.020734783 -0.05769761 0.04545022 -0.014972463 0.050453167
00000000: 087f e93b 16fb 80bc bb46 573d 58b5 b03c
00000010: dc08 e03c 60cd 20bd 83fa 32ba 9773 533d
00000020: 2a5a c53c 7099 52bd ae28 c7bc c7bf 0a3d
00000030: dfa8 003d 3c77 073c 467e 83bc 35d8 0c3d
00000040: a291 853c b8af c33b b6c6 943c fb4e 0abd
00000050: 3236 27bd 85cc 1b3d 9abc 03bd 085a 2fbd
00000060: b733 43bd 2a21 3f3d 8b4b c53c 20f7 d03c
00000070: 2b0e 2e3d 77b3 62bd 4c42 43bd 8231 b73c
00000080: 6d4d 503d e3cc d93c ad27 b43b d563 6a3d
00000090: 5e30 d3bc 389b 4f3d 8242 453d 5121 3cbd
000000a0: 0b9b a9bb 7d3f 483d f594 5f3d 28e3 3fbc
000000b0: d32a 533d 2ac5 43bd c1a3 823c 996a 2d3c
000000c0: 1afb 893c cfba 023d b41a 263c 183c f83c
000000d0: c8bb 3d3d c2ca 083d e552 1a3d 352d 703d
000000e0: 1951 3d3d d119 683b 6564 29bd fa2f d23c
000000f0: 41c9 c33b a56b 5c3d fc12 8bbc 607d fc3a
00000100: 1156 61bd d328 e7bc 62b5 2d3d 1024 1cbd
00000110: c4b0 f7bc 1041 203b 0079 323b 2b99 2c3d
00000120: ff7d 1dbd f364 2e3c b560 17bd 3214 f13c
00000130: 1228 b93c 60a7 0dbc a1a7 2c3d 03a6 283d
00000140: 9e5a 09bd ff80 51bd dd34 ed3c 3bb9 45bd
00000150: 2880 f13b 2859 a13b 526b aa3c 5a4a f13c
00000160: fca5 00bd 10ba 703b 5a1a 0ebd 558c 2a3d
00000170: a2f6 8d3c c6b0 523d e482 3e3d 74e3 d73c
00000180: 7f9f 183d 162d 6d38 6356 34bd 428d c6bc
00000190: 46dc bdbc 8e6d d2bc 712a f4bc 429a 6bbd
000001a0: 24d3 333c 8f24 19bd 2674 52bd 11f6 953c
000001b0: 1a14 62bd ec50 513c a0ff 60bb 2ac8 fe3c
000001c0: 49f3 473d cae7 ed3c 69a7 41bd 288f b8bb
000001d0: f66b dc3c ed8a 3dbd 2256 69bd 5063 58bd
000001e0: 9ae9 33bd e22a d13c 7a40 8fbc 0eb0 c33c
000001f0: b48a 00bd 9841 74bc 58f1 0fbc 6708 683d
00000200: b82c ff3b 0751 45bd 6f40 3a3d f0c8 573b
00000210: 5adc 593d 8853 04ba f865 43bd 1cf1 1f3c
00000220: 7934 04bd b2ed 25bd 6565 ca3b 28bb b53c
00000230: 0a2a fbbc 330a 8abc a53d bcbc b422 363d
00000240: e4d5 6f3c ccf1 50bc 8cb1 9abc ac83 afbc
00000250: aeae 04bb 94f3 683c 4654 babc dece c8bc
00000260: 7e83 32bd 2b3b 593d 20ed c6bc b563 543d
00000270: 5f06 c2bb 91df 5cbc 92e6 abbc 40d0 43ba
00000280: 40cd 21bb 7c56 753c 7f86 e4bc 5bdc 4f3d
00000290: bcec 5d3c e83d 1cbc 78a3 24bd ecc3 6d3c
000002a0: 12e0 4fbb 78a8 11bc 0f42 5cbd 77e7 b83c
000002b0: 1840 e43b 5795 123d ff70 07bd 27b4 113d
000002c0: dbf5 383d 54df 5a3c 31cc 353d edf1 66bd
000002d0: 45c4 1c3d 6acd 97bc 4ae9 a93c 2769 303d
000002e0: 9f7f 013c cab2 80ba ce50 d43c c3bd 673d
000002f0: a751 2cbd a5e7 603d 4492 183c 1eb4 fe3c
00000300: 4082 f6ba b099 47bc 5c6d 18bc d8d2 54bc
00000310: ac96 50bd 5f79 2c3d ee29 f03c ea22 6fbd
00000320: 1638 eb3c 01e7 35bd 8891 c8bc db4f 4f3d
00000330: 20a7 aabb 5317 1a3d 836b 0b3d b800 b53b
00000340: 6a6d 67bd bd22 293d 06eb c9bc 6815 1ebd
00000350: 2423 9dbc 1950 423d cb37 84bc 4bc0 cb3c
00000360: 683a d03b e5ae e7bc a432 0f3c c61a 3e3d
00000370: 28b6 443d fe59 1eb9 4f55 b13b 2feb 103d
00000380: 8c0c b1bc 0a1c 39bc 977f fb3c 38c6 293d
00000390: 6876 ee3b 5057 bebb dfc4 4ebd 3857 94bb
000003a0: fa2d 20bd 0398 3bbc eb5d 81ba 04db b83c
000003b0: 97e4 4e3d 281b 803b a4ef 133c cafe d7bc
000003c0: 84af 2fbd 5592 57bd fc69 4f3c 27e2 083c
000003d0: 40b1 543d b80f 0b3d 464f 0a3b 7c63 9abc
000003e0: c00f 273d 0987 51bd 6022 e9ba fedb a93c
000003f0: 5454 6cbd 032a 3a3d 104f 75bc fba7 4e3d

model.8.bias f4 [128]
-0.0061319433 -0.025446398 -0.0389214 -0.045991167 0.029161822 -0.014040737 -0.029852543 1.34296715e-05
-0.052220754 0.03879192 0.042571668 0.001714427 0.05216844 -0.048469845 0.0006379171 0.054079473
-0.047521003 -0.028470434 -0.04168671 -0.02989108 0.05613139 -0.009867955 -0.0023382488 -0.024808962
-0.03096737 0.015583647 -0.040739276 0.005017612 0.034506924 -0.023858517 0.004280868 0.033295006
0.048937578 -0.011054281 0.041596882 0.044207353 -0.054878626 -0.04784726 0.026722077 0.034691058
0.03825429 0.025484953 -0.0254757 -0.020123988 0.009246986 0.043504737 -0.0055196537 -0.0492736
-0.033059113 -0.03927867 -0.024000676 0.047770083 0.011847873 0.022805512 -0.032918435 0.05120708
0.044689074 0.058390293 0.007472474 0.0057239714 0.030523079 -0.018555798 -0.03176336 0.024188
-0.04670434 0.035793897 0.0026345626 0.0076235984 0.004993458 0.022365747 -0.004933387 0.0009504743
0.048715033 -0.0025469284 0.049770884 0.034681574 0.028618636 0.010320883 0.025297673 -0.025208134
0.032032687 0.034727782 -0.05203616 0.03378498 0.026585463 -0.014893884 -0.011267811 -0.05473829
0.017916774 -0.051932026 0.034058984 -0.047505483 -0.030549377 0.012412038 0.05080566 -0.048611283
0.011554825 0.0036903955 -0.051882632 0.024875825 -0.03706737 -0.02611798 -0.05097988 -0.019933991
0.005168136 -0.012622539 0.027420087 0.011183799 0.020578284 -0.052158333 -0.04499346 0.019321885
-0.0023882985 0.041549865 0.019600783 -0.03675083 -0.0354735 -0.009186771 -0.010981552 0.02499827
-0.05668146 -0.052419603 -0.0065231808 -0.019727021 -0.023340082 0.009814932 -0.023197204 0.046346307
00000000: 78ee c8bb f774 d0bc 0c6c 1fbd 3c61 3cbd
00000010: c6e4 ee3c 1f0b 66bc 528d f4bc 0050 6137
00000020: 6ee5 55bd 47e4 1e3d a15f 2e3d a0b6 e03a
00000030: 93ae 553d 5188 46bd e439 273a 7082 5d3d
00000040: 62a5 42bd d43a e9bc afbf 2abd 23de f4bc
00000050: 07ea 653d 34ad 21bc 4e3d 19bb 2a3c cbbc
00000060: 48af fdbc 8e52 7f3c 3ade 26bd c86a a43b
00000070: 2257 0d3d f072 c3bc 8646 8c3b 5860 083d
00000080: c572 483d 041d 35bc 7e61 2a3d c512 353d
00000090: 69c8 60bd 7dfb 43bd 42e8 da3c 3618 0e3d
000000a0: 88b0 1c3d d2c5 d03c 6ab2 d0bc 10db a4bc
000000b0: ac80 173c 0632 323d 36de b4bb 1dd3 49bd
000000c0: fe68 07bd ace2 20bd 119d c4bc 90aa 433d
000000d0: 951d 423c a0d2 ba3c 7bd5 06bd 84be 513d
000000e0: e40b 373d a92a 6f3d a8db f43b 2790 bb3b
000000f0: 890b fa3c 5402 98bc 4c1a 02bd ea25 c63c
00000100: 0d4d 3fbd 9f9c 123d a0a8 2c3b 61cf f93b
00000110: 29a0 a33b 5f38 b73c 40a8 a1bb 4029 793a
00000120: 6a89 473d 5eea 26bb 8edc 4b3d 440e 0e3d
00000130: a171 ea3c ec18 293c 113d cf3c 4a81 cebc
00000140: b534 033d b83e 0e3d de23 55bd 1f62 0a3d
00000150: c2c9 d93c 7a05 74bc a09c 38bc 4235 60bd
00000160: 33c6 923c adb6 54bd 6f81 0b3d 1c95 42bd
00000170: b042 fabc dc5b 4b3c 9919 503d a01c 47bd
00000180: 7350 3d3c 90da 713b e282 54bd 63c8 cb3c
00000190: f4d3 17bd 60f5 d5bc 47d0 50bd 9c4c a3bc
000001a0: 7859 a93b c4ce 4ebc 17a0 e03c 413c 373c
000001b0: ca93 a83c faa3 55bd 104b 38bd ee48 9e3c
000001c0: 0085 1cbb 3130 2a3d d291 a03c 0a88 16bd
000001d0: a94c 11bd 1c84 16bc f8eb 33bc 2cc9 cc3c
000001e0: d22a 68bd f0b5 56bd 68c0 d5bb 909a a1bc
000001f0: b333 bfbc cfce 203c 1008 bebc a0d5 3d3d

model.13.weight f4 [150, 256]
-0.019121937 0.029656203 0.04319314 -0.024860658 0.042169318 -0.03332957 -0.0563151 -0.055268116
-0.016041763 -0.03754951 -0.024314495 -0.0124033075 -0.021542266 0.033408247 0.013986096 -0.010468677
-0.04368776 0.0146311745 0.033310715 0.022925235 0.009026804 -0.028590864 0.052810825 -0.04934285
0.0044149943 0.02129762 0.016983442 0.0135486275 -0.0019428368 -0.02071376 0.061862405 0.051970858
0.02954425 0.014797315 0.005824782 -0.013155498 0.009388156 -0.014827564 0.05597207 0.033829495
-0.007535758 0.02694757 0.02836205 0.014610708 -0.057989854 0.024162455 -0.028281815 -0.0024005324
0.033599503 -0.015254721 -0.013674207 -0.04129279 0.04849486 0.05810333 -0.060071878 -0.0072501376
0.009315046 0.04149936 0.0051501617 -0.0048811883 -0.007567391 -0.042870633 -0.0020737736 0.010113655
0.0032697204 -0.022021573 0.05133968 0.0019842684 -0.055378646 0.01723547 0.01928632 0.041088752
-0.049580738 0.03126447 0.044031233 -0.0042392537 0.0061825365 -0.033468813 0.049326852 -0.005606752
-0.047916997 0.04536551 -0.059946332 0.033928625 -0.023621209 -0.041322567 -0.032848094 -0.028402029
-0.030427478 -0.025532395 -0.037009828 0.0623464 0.0008450996 0.029124463 -0.008046426 -0.034674868
-0.03261677 -0.014401615 -0.0155646205 -0.057999775 0.05865813 -0.057653714 -0.041262746 0.012431937
0.04656743 -0.052307278 0.040741134 -0.033265844 -0.006082568 0.04907294 -0.023453698 -0.01011152
-0.037637766 -0.009979769 0.030934097 -0.016848773 0.023955122 0.058482967 -0.02556914 -0.014967327
0.032322504 0.030864177 0.06160184 -0.05865781 -0.028119229 -0.00022806227 0.040421106 0.054532476
-0.02461055 -0.016096272 0.041551113 0.04131872 -0.029451922 0.016624697 0.0007605252 0.051419254
-0.030259449 0.050478026 -0.025207141 -0.03942061 -0.00789278 -0.030717663 0.03798928 -0.018680573
0.062402695 0.040231936 -0.0046873176 0.027249249 -0.037817392 -0.045542646 -0.046554383 -0.02356427
0.041012276 -0.049391296 0.029405996 0.0472517 -0.014740893 0.055333473 0.041453015 0.028620116
0.036465917 -0.034985006 -0.055637013 0.0041843955 0.051435433 0.057117417 -0.055553053 0.01440383
0.037219815 0.041990183 0.00030442633 -0.040960446 0.027248502 -0.013443746 -0.0048301294 0.008951873
-0.006004915 0.018920012 0.046668164 -0.030446298 0.027027618 -0.032395307 -0.05754161 0.003747411
0.042075507 0.011875764 0.040447637 -0.03744954 0.031345043 -0.036226004 0.006064214 0.049492314
-0.0028597692 0.05081544 0.050515324 0.05913876 0.041497566 0.060564443 0.022699412 0.008875716
0.05676014 -0.006982453 0.0124061555 -0.042892255 0.018154763 0.02719494 0.024979629 0.028015569
-0.051215462 0.0070042983 -0.014816955 0.043763578 0.05584336 -0.040873468 0.058819287 -0.004076071
-0.021131823 0.025517385 0.028410807 -0.008383788 -0.054220527 0.02279798 0.035461947 0.031742416
-0.0020688549 -0.03874825 0.04299781 0.026348384 -0.018210948 0.051283777 -0.0032755584 -0.059285797
-0.009870075 -0.033024892 0.024284974 -0.041772395 0.059677817 0.012575224 -0.033906236 -0.041890074
0.02410245 0.030247487 -0.050670706 -0.039601386 -0.043097623 -0.045802586 -0.034823466 -0.02968883
0.009050821 -0.034890953 0.0035827612 -0.052369576 -0.039808385 0.027725115 -0.057759173 -0.045326676
00000000: 9ca5 9cbc 91f1 f23c 4aeb 303d 94a8 cbbc
00000010: bcb9 2c3d 9684 08bd aaaa 66bd d260 62bd
00000020: 046a 83bc 84cd 19bd 312f c7bc 3e37 4bbc
00000030: 6879 b0bc 16d7 083d f025 653c d084 2bbc
00000040: f0f1 32bd 98b7 6f3c d170 083d b4cd bb3c
00000050: 29e5 133c 6337 eabc 2a50 583d ba1b 4abd
00000060: a8ab 903b 5978 ae3c dc20 8b3c 10fb 5d3c
00000070: c9a6 feba e7af a9bc 6f63 7d3d 65df 543d
00000080: c806 f23c 7070 723c d0dd be3b 288a 57bc
00000090: c8d0 193c 50ef 72bc f842 653d cc90 0a3d
000000a0: 85ee f6bb 26c1 dc3c 8857 e83c c061 6f3c
000000b0: c586 6dbd 57f0 c53c 44af e7bc 4052 1dbb
000000c0: a29f 093d f0ee 79bc c809 60bc a122 29bd
000000d0: 8ca2 463d c2fd 6d3d ee0d 76bd 9092 edbb
000000e0: 229e 183c 3cfb 293d b0c2 a83b 60f2 9fbb
000000f0: e0f7 f7bb 1e99 2fbd 26e8 07bb beb3 253c
00000100: ce48 563b 9666 b4bc 8e49 523d 800a 023b
00000110: b8d4 62bd 6631 8d3c 58fe 9d3c ae4c 283d
00000120: 2c15 4bbd 2c0f 003d 185a 343d 70e9 8abb
00000130: e096 ca3b 9816 09bd f40a 4a3d d8b8 b7bb
00000140: 9d44 44bd 2fd1 393d 498a 75bd bef8 0a3d
00000150: 4481 c1bc da41 29bd b98b 06bd 5fab e8bc
00000160: 0c43 f9bc 5029 d1bc 9e97 17bd f05e 7f3d
00000170: ad89 5d3a 6d96 ee3c 28d5 03bc 3c07 0ebd
00000180: 2a99 05bd c0f4 6bbc c002 7fbc 2c91 6dbd
00000190: 8243 703d 4d26 6cbd 2003 29bd 53af 4b3c
000001a0: 7dbd 3e3d 2840 56bd 2de0 263d c441 08bd
000001b0: 4750 c7bb b500 493d f821 c0bc caaa 25bc
000001c0: 0f2a 1abd 2f82 23bc 8169 fd3c 7006 8abc
000001d0: 883d c43c d68b 6f3d 6076 d1bc 8539 75bc
000001e0: 9a64 043d dfd6 fc3c 3652 7c3d 2c43 70bd
000001f0: 4c5a e6bc 0024 6fb9 9a90 253d 725d 5f3d
00000200: 109c c9bc 54dc 83bc 8031 2a3d d13d 293d
00000210: 2845 f1bc 8430 883c fb5d 473a ff9c 523d
00000220: aae2 f7bc 0cc2 4e3d 357f cebc 8177 21bd
00000230: b850 01bc 9ca3 fbbc a69a 1b3d 0008 99bc
00000240: f899 7f3d 3eca 243d 1298 99bb d139 df3c
00000250: 69e6 1abd ed8a 3abd cfaf 3ebd db09 c1bc
00000260: 7dfc 273d 874e 4abd d8e4 f03c 008b 413d
00000270: c983 71bc 5aa5 623d a3ca 293d bc74 ea3c
00000280: 495d 153d 704c 0fbd a3e3 63bd 411d 893b
00000290: f6ad 523d f4f3 693d 998b 63bd 0bfe 6b3c
000002a0: ce73 183d e6fd 2b3d 699b 9f39 24c6 27bd
000002b0: 4038 df3c 2843 5cbc 1046 9ebb e0aa 123c
000002c0: e1c4 c4bb 24fe 9a3c 1e27 3f3d 846a f9bc
000002d0: 0669 dd3c f1b0 04bd c0b0 6bbd 2097 753b
000002e0: 5e57 2c3d 9092 423c 6cac 253d b064 19bd
000002f0: a963 003d b861 14bd 50b6 c63b 74b8 4a3d
00000300: f76a 3bbb da23 503d 28e9 4e3d 7c3b 723d
00000310: 5af9 293d 6c12 783d 1ef4 b93c 736b 113c
00000320: 527d 683d 10cd e4bb 3043 4b3c caaf 2fbd
00000330: 4cb9 943c ecc7 de3c 14a2 cc3c e880 e53c
00000340: 4ec7 51bd 5084 e53b d0c2 72bc 7041 333d
00000350: 02bc 643d f06a 27bd 7eec 703d 9090 85bb
00000360: a51c adbc d609 d13c c8bd e83c 285c 09bc
00000370: 5816 5ebd d4c2 ba3c 8c40 113d 5604 023d
00000380: a095 07bb 7cb6 1ebd 791e 303d 91d8 d73c
00000390: 202f 95bc f00e 523d c0aa 56bb aad5 72bd
000003a0: 18b6 21bc 1c45 07bd 48f1 c63c 8819 2bbd
000003b0: ba70 743d 5008 4e3c 44e1 0abd ed94 2bbd
000003c0: 8072 c53c 94c9 f73c 168c 4fbd 1035 22bd
000003d0: 2287 30bd 7e9b 3bbd 0da3 0ebd fd35 f3bc
000003e0: e549 143c d1e9 0ebd c2cc 6a3b 7b81 56bd
000003f0: 1e0e 23bd c81f e33c e294 6cbd 77a8 39bd

model.13.bias f4 [150]
0.022715284 -0.007214094 0.044370912 0.0085573895 0.018987546 0.04445623 0.008329223 0.005429563
0.04325016 -0.047454145 -0.026190577 -0.022007784 -0.024281844 0.052071314 -0.0037029514 -0.008033251
0.01574022 0.027814656 0.043715145 0.039800603 -0.0068973154 -0.051754076 -0.020993713 -0.050895
-0.03275254 -0.016427407 -0.000779363 -0.049501486 -0.05121257 -0.053470932 0.056702293 0.0048239133
-0.048828084 0.05740672 0.06211727 -0.054374512 -0.04070991 0.06030675 0.023006223 0.039483916
0.06135474 -0.019056644 -0.034412574 -0.022389095 0.04178418 -0.03866314 -0.008031069 0.030976828
0.057626266 0.04588059 -0.007975849 -0.026139975 0.018647876 -0.012991536 0.03785139 0.011152881
-0.042481046 -0.004037458 0.039910585 0.048710763 0.049372483 -0.0069763265 0.0380487 0.006721742
-0.045896865 0.019714488 -0.056935985 -0.054995447 -0.018314078 -0.008560446 -0.03187211 -0.036943406
-0.03662478 0.052022792 0.03703888 0.011204996 0.023792082 -0.05014239 -0.04094116 -0.050402485
0.05286499 -0.045904618 -0.02977232 -0.015689414 -0.0015993955 -0.047883064 -0.028454492 0.025748346
0.031627603 0.020835938 0.0072998735 -0.010518957 0.024305152 -0.031232806 -0.04031513 -0.06082569
0.0527241 0.020628825 0.0548318 -0.015956378 -0.022158047 0.043022964 -0.050759442 -0.03348447
0.038059484 0.023429833 -0.056515507 0.019990498 -0.049804736 -0.027139347 0.027205868 -0.0027865367
0.031811528 -0.018734762 0.032016627 -0.039009586 0.027631778 0.007975246 -0.05430064 -0.031239351
-0.007175312 0.04214038 0.03973225 -0.01085223 0.021109812 -0.060965326 -0.009246405 -0.0330803
-0.04369216 -0.034263663 -0.018697293 -0.016249282 -0.042037997 0.024725687 0.04032941 -0.008777751
0.027586823 0.019079793 -0.061471637 -0.0025339324 -0.009288487 -0.047394466 -0.059721816 0.0326783
-0.028297465 0.024420638 -0.056384575 0.00988313 -0.054169353 0.018815665
00000000: 6715 ba3c 3564 ecbb 46be 353d 4b34 0c3c
00000010: c58b 9b3c bc17 363d 4b77 083c 7aea b13b
00000020: 1427 313d 475f 42bd 9f8d d6bc ab49 b4bc
00000030: b8ea c6bc bb48 553d 37ad 72bb e69d 03bc
00000040: a2f1 803c 90db e33c a70e 333d f505 233d
00000050: e002 e2bb 15fc 53bd 02fb abbc 4777 50bd
00000060: 8727 06bd c592 86bc 2a4e 4cba 12c2 4abd
00000070: 46c4 51bd 5604 5bbd aa40 683d eb11 9e3b
00000080: f5ff 47bd 4f23 6b3d ae6e 7e3d cfb7 5ebd
00000090: 6fbf 26bd 3604 773d 8c77 bc3c e3b9 213d
000000a0: 1c4f 7b3d ae1c 9cbc 33f4 0cbd 5669 b7bc
000000b0: e325 2b3d 3e5d 1ebd bf94 03bc 1ec3 fd3c
000000c0: 8509 6c3d 49ed 3b3d 23ad 02bc 8023 d6bc
000000d0: 6ec3 983c 74da 54bc 0f0a 1b3d 93ba 363c
000000e0: 9b00 2ebd a74c 84bb 4879 233d f084 473d
000000f0: cd3a 4a3d ab99 e4bb f4d8 1b3d 0f42 dc3b
00000100: 5afe 3bbd 4780 a13c b535 69bd e842 61bd
00000110: 6807 96bc 1d41 0cbc 548c 02bd f851 17bd
00000120: de03 16bd da15 553d 15b6 173d 2995 373c
00000130: 9de7 c23c 1b62 4dbd ebb1 27bd d672 4ebd
00000140: f688 583d 7b06 3cbd 15e5 f3bc 1687 80bc
00000150: cfa2 d1ba 0821 44bd 6519 e9bc 32ee d23c
00000160: f28b 013d 21b0 aa3c c733 ef3b b457 2cbc
00000170: 991b c73c f1db ffbc 7a21 25bd 5c24 79bd
00000180: 3af5 573d c8fd a83c 4f97 603d f3b6 82bc
00000190: cb84 b5bc d938 303d 22e9 4fbd 0327 09bd
000001a0: 43e4 1b3d ecef bf3c ce7c 67bd 1dc3 a33c
000001b0: 0d00 4cbd 5653 debc d7de de3c 549e 36bb
000001c0: ce4c 023d a579 99bc de23 033d 84c8 1fbd
000001d0: 0a5c e23c 9baa 023c 596a 5ebd abe9 ffbc
000001e0: e11e ebbb 649b 2c3d 49be 223d 8dcd 31bc
000001f0: 7cee ac3c c7b6 79bd 3c7e 17bc 357f 07bd
00000200: 8df6 32bd 0e58 0cbd 112b 99bc 371d 85bc
00000210: 0930 2cbd 868d ca3c 7430 253d 8ed0 0fbc
00000220: c3fd e13c 3a4d 9c3c afc9 7bbd 5510 26bb
00000230: bd2e 18bc b320 42bd dd9e 74bd aed9 053d
00000240: 16d0 e7bc ca0d c83c 83f3 66bd daec 213c
00000250: afe0 5dbd 4f23 9a3c

model.15.weight f4 [2, 150]
-0.018866494 -0.038273662 0.022235857 -0.046960864 -0.016029397 0.05862999 -0.014054341 -0.01845889
-0.07538329 -0.0014919376 -0.028323617 -0.05150809 0.031801187 -0.063577056 0.013876346 -0.006637645
0.041925523 0.023592312 0.04145114 -0.05897334 0.06261218 0.031833667 -0.08075544 0.012175063
-0.035167996 -0.029686779 0.02616741 -0.03087819 -0.012784108 0.016544385 -0.054422863 0.062889256
0.004911045 0.041023877 -0.020794332 -0.04027597 -0.06798318 -0.027605707 0.026145631 -0.05399655
0.06795013 -0.021216657 0.005445296 0.0060203457 0.077645525 -0.08127031 -0.009569681 0.077278584
-0.03516814 -0.07761803 -0.07865032 -0.04278573 -0.050669227 0.019235507 -0.056298543 0.038105633
0.05734023 -0.034370054 -0.010132285 -0.012251088 0.03694138 -0.051292177 0.018040553 -0.01500103
-0.06289021 0.0489496 -0.056365106 -0.024632797 0.0068728146 -0.024092764 0.046948615 0.06260078
0.03074835 0.020748418 -0.0722807 -0.05220798 -0.07182695 0.036036536 0.042499438 -0.04253104
0.0046174866 0.0045893504 -0.02265192 -0.016806584 0.029614456 0.04165559 -0.03228769 -0.039717104
-0.009078165 -0.016869657 0.029357202 0.055068787 -0.06382445 -0.03352737 -0.010082947 -0.0112374835
0.0022463317 -0.048089832 0.021784188 0.06846562 0.07608553 0.05868575 -0.039961632 -0.0022470236
0.023843909 -0.04933989 -0.07096316 0.0506957 -0.025755484 0.07412805 -0.022719024 0.039014045
-0.058433 0.06600875 0.07447651 -0.05212791 -0.04479049 0.04175771 -0.00044125892 0.07482249
0.04443577 -0.04478892 0.023918452 -0.061888367 -0.0145385405 0.048955705 0.075054035 -0.0271978
0.07315413 0.009049589 0.056007456 -0.017683249 -0.054102186 -0.031608574 0.009900275 -0.06337353
0.036193434 -0.012548898 -0.06550831 -0.05806169 -0.08017387 -0.026348718 -0.06398789 -0.040957745
0.06216455 -0.053872485 -0.02514652 0.05518777 0.04523984 0.03035624 -0.0624363 -0.024824219
0.025704762 0.04810398 0.0176425 0.07822165 -0.025978927 0.0749303 -0.041833844 0.012453626
0.072623886 -0.062346485 -0.04828464 -0.035180595 -0.06476787 0.040840127 -0.07436311 0.0761849
0.034636214 -0.009054597 -0.071609184 -0.010212586 0.04937924 0.038810022 -0.03713408 -0.00874364
-0.06217021 -0.019008402 -0.010762871 0.034116004 -0.052450713 0.052156135 -0.026931308 0.07396446
-0.07619755 0.040231798 -0.04751899 0.02776522 -0.0666083 -0.06353737 -0.0018199759 -0.041148685
0.031723436 -0.032183032 0.014142686 0.049129806 -0.029926611 -0.019684875 -0.026530178 0.013726805
0.06372806 0.01167716 -0.00022331343 -0.057672437 -0.0059284186 0.046798114 -0.07274091 0.077421375
0.008643391 0.06701677 0.06543903 0.054921065 0.02639471 -0.0048459247 -0.0020214282 0.0636941
-0.07935724 -0.063838646 -0.05515536 -0.046467595 0.065714374 -0.05523769 0.023038464 -0.078791544
0.04953243 0.041180644 0.070829496 0.07930406 -0.03215148 -0.041747496 -0.05301124 -0.06469961
0.041081283 0.0035788796 -0.050785694 0.058641892 0.011460261 0.057207864 0.0026480823 -0.046789963
0.008723264 -0.07455489 0.002954624 0.03573727 0.07519505 0.06705595 0.024331305 0.0693813
-0.06723907 0.011633786 -0.05845796 0.016714951 -0.064798646 -0.08073902 -0.013090168 -0.019572446
00000000: e88d 9abc d8c4 1cbd f927 b63c 095a 40bd
00000010: 1550 83bc 0026 703d 2e44 66bc 1937 97bc
00000020: 8e62 9abd 1e8d c3ba ee06 e8bc 26fa 52bd
00000030: f641 023d b034 82bd 9d59 633c 9a80 d9bb
00000040: 19ba 2b3d aa44 c13c acc8 293d 078e 71bd
00000050: d13a 803d 0564 023d 1c63 a5bd ea79 473c
00000060: 510c 10bd b031 f3bc 095d d63c 42f4 fcbc
00000070: 6f74 51bc 1788 873c 82ea 5ebd 15cc 803d
00000080: d5ec a03b a708 283d e058 aabc 6af8 24bd
00000090: c43a 8bbd 5d25 e2bc 5d2f d63c 7d2b 5dbd
000000a0: 7029 8b3d 8ece adbc 746e b23b 5246 c53b
000000b0: 9e04 9f3d 0c71 a6bd 27ca 1cbc 3c44 9e3d
000000c0: 780c 10bd 34f6 9ebd 6b13 a1bd 1740 2fbd
000000d0: 898a 4fbd c893 9d3c 4d99 66bd a714 1c3d
000000e0: 97dd 6a3d 9dc7 0cbd e201 26bc cab8 48bc
000000f0: d84f 173d bf17 52bd c8c9 933c e1c6 75bc
00000100: 95cc 80bd 607f 483d 19df 66bd b8ca c9bc
00000110: 5935 e13b 305e c5bc 314d 403d d634 803d
00000120: f7e3 fb3c 96f8 a93c e707 94bd 09d8 55bd
00000130: 021a 93bd 0c9b 133d e413 2e3d 0735 2ebd
00000140: 494e 973b 4362 963b 8590 b9bc f6ad 89bc
00000150: 049a f23c 0d9f 2a3d 1940 04bd 67ae 22bd
00000160: 95bc 14bc 3c32 8abc 847e f03c cf8f 613d
00000170: 65b6 82bd ff53 09bd f232 25bc 6c1d 38bc
00000180: 3137 133b d8f9 44bd c174 b23c b437 8c3d
00000190: bbd2 9b3d 7860 703d cfae 23bd cd42 13bb
000001a0: 4d54 c33c a018 4abd 2255 91bd 4ba6 4f3d
000001b0: 2afd d2bc 72d0 973d 3f1d babc 31cd 1f3d
000001c0: 7157 6fbd 982f 873d 2487 983d 1384 55bd
000001d0: 3c76 37bd 220a 2b3d c558 e7b9 893c 993d
000001e0: 4802 363d 9674 37bd a1f0 c33c a87e 7dbd
000001f0: 0f33 6ebc c785 483d eeb5 993d eccd debc
00000200: d5d1 953d ba44 143c 1368 653d 76dc 90bc
00000210: 419a 5dbd fe77 01bd c334 223c fbc9 81bd
00000220: 913f 143d e599 4dbc 3929 86bd 18d2 6dbd
00000230: 3332 a4bd 44d9 d7bc 150c 83bd 4fc3 27bd
00000240: 41a0 7e3d 65a9 5cbd 1300 cebc 920c 623d
00000250: 694d 393d a6ad f83c 35bd 7fbd 295c cbbc
00000260: cb92 d23c ae08 453d 0187 903c ac32 a03d
00000270: c2d1 d4bc 0f75 993d f759 2bbd 4b0a 4c3c
00000280: d5bb 943d 075f 7fbd 1dc6 45bd 8719 10bd
00000290: 04a5 84bd fa47 273d b04b 98bd d406 9c3d
000002a0: b4de 0d3d bb59 14bc d6a7 92bd b152 27bc
000002b0: e341 4a3d 42f7 1e3d e819 18bd 7c41 0fbc
000002c0: 31a6 7ebd 82b7 9bbc c156 30bc 39bd 0b3d
000002d0: 8fd6 56bd aca1 553d 0c9f dcbc ae7a 973d
000002e0: 760d 9cbd 19ca 243d 46a3 42bd e373 e33c
000002f0: ef69 88bd e11f 82bd 428c eeba 868b 28bd
00000300: 6ff0 013d 5bd2 03bd b9b6 673c 563c 493d
00000310: a728 f5bc 2d42 a1bc d155 d9bc 65e6 603c
00000320: db83 823d 8f51 3f3c 3e29 6ab9 ef39 6cbd
00000330: 2e43 c2bb 61af 3f3d 30f9 94bd 198f 9e3d
00000340: 029d 0d3c 1740 893d e604 863d e9f4 603d
00000350: b839 d83c 90ca 9ebb f079 04bb 0d72 823d
00000360: 0c86 a2bd d6bd 82bd 96ea 61bd ce54 3ebd
00000370: 4295 863d eb40 62bd 29bb bc3c 765d a1bd
00000380: 84e2 4a3d 09ad 283d 0e0f 913d 2b6a a23d
00000390: 45b1 03bd 6cff 2abd 5022 59bd 3b81 84bd
000003a0: d944 283d a38b 6a3b a904 50bd 7b32 703d
000003b0: d2c3 3b3c cb52 6a3d 738b 2d3b d5a6 3fbd
000003c0: 05ec 0e3c 3cb0 98bd 5da2 413b 3e61 123d
000003d0: ddff 993d a154 893d 7252 c73c c817 8e3d
000003e0: a3b4 89bd a39b 3e3c 9d71 6fbd cbed 883c
000003f0: 27b5 84bd 805a a5bd 2578 56bc 6556 a0bc

model.15.bias f4 [2]
-0.001489795 0.02900673
00000000: 3a45 c3ba 869f ed3c
