Classifier_Model/ClasifierWithEfficientNetV2S/lightning_logs/version_11/checkpoints/epoch=4999-step=20000.ckpt (torch, 419582 bytes, 12 tensors)

model.0.weight f4 [32, 8, 3]
000000 66 ce 1f 3e a8 7d 2d 3e 9c df 43 bd d2 02 40 3e
       0.15606079 0.16942465 -0.047820672 0.18751076
000010 dc 30 37 bd 38 b7 28 3d 26 87 cb bd e4 82 f5 3d
       -0.04472433 0.041190356 -0.09937887 0.11987856
000020 4a 43 38 3e 62 58 19 be 9e ae 35 3e 84 7b 1c 3d
       0.17994419 -0.14975122 0.17742392 0.03820373
000030 9a 6d 1a 3e 08 77 e2 3c b4 93 c9 3d f8 18 ec bc
       0.15080872 0.02764465 0.09842625 -0.0288205
000040 0a 22 21 3e f0 29 f7 3c 22 29 c3 bd 58 1e 55 3d
       0.15735641 0.030171365 -0.0952933 0.05203089
000050 f6 9b c0 bd 18 1a c4 bc 00 cb a9 bd ee a8 0a 3e
       -0.09404747 -0.023938224 -0.08290672 0.13541004
000060 23 ff 24 be 41 b9 c0 bd 68 17 6c bd 16 5c fb bd
       -0.16112952 -0.094103344 -0.05763951 -0.122734234
000070 78 d3 9d 3c a2 72 4e be 4c c5 3c 3e fa 8e 31 be
       0.019265875 -0.20160916 0.18434638 -0.17339697
000080 20 5f 21 3e 4c 24 0b 3d d4 bd 87 bd 74 2a 01 3e
       0.15758944 0.033970162 -0.06628004 0.12613851
000090 40 4e 02 3d 0e e2 28 3e 80 cd b6 3c 30 d7 83 bd
       0.031812906 0.16492483 0.022314787 -0.06437528
0000a0 f8 a4 60 3d 28 bb 62 bd 1c f0 af 3d d8 9e 3a 3e
       0.054844826 -0.055354267 0.08590719 0.18224657
0000b0 d8 a7 f1 3d 23 c2 b6 bd c8 52 f1 3d 50 99 15 3d
       0.11799592 -0.089237474 0.117833674 0.036523163
0000c0 6c 4c d4 3d 23 cd fe bd ed e9 4e be 3e 84 a1 bd
       0.10366139 -0.124414705 -0.20206423 -0.07886551
0000d0 55 53 20 be f8 82 2b 3e 20 d2 70 3d 10 29 ad 3d
       -0.15656789 0.1674918 0.05879414 0.08455098
0000e0 38 36 84 3d c0 b6 68 bb 4e 95 23 3e 87 83 14 be
       0.06455654 -0.0035509318 0.15974924 -0.14503299
0000f0 f0 92 52 3c ac aa 0e be c8 e7 80 3d be f7 8f bd
       0.012852415 -0.13932294 0.06294209 -0.07029675
000100 a0 18 80 3d 58 31 2e bd b2 5c 2d 3e de c6 f7 bd
       0.06254697 -0.042527527 0.16929892 -0.12098478
000110 6c 52 f9 bd 46 56 f9 bd 1e 01 3c 3e 7c 50 8b 3d
       -0.12173924 -0.121746585 0.18359801 0.068024606
000120 f6 21 49 3e 78 80 2c be 37 53 4f be 3a 88 23 be
       0.19641861 -0.16845882 -0.20246588 -0.15969935
000130 8a 9b 0c be 54 53 a9 3d 38 b1 95 3d b4 ae 2d 3e
       -0.13731208 0.08267847 0.073091924 0.16961175
000140 c3 e3 d7 bd 58 7e 0e be 64 ce dd 3d e7 f9 a8 bd
       -0.10541489 -0.13915384 0.108303815 -0.0825079
000150 e4 b8 fd 3d c0 67 46 bd 44 24 ef 3d 7f 67 22 be
       0.12388781 -0.048438787 0.11676839 -0.15859793
000160 8a f7 d2 bd a8 e7 7e 3d 9c c1 30 3d 4c 2b 55 bd
       -0.103011206 0.062232643 0.04315339 -0.052043244
000170 44 2f f9 3d 8a 18 0e 3e f8 93 17 be 7e 2e df bd
       0.12167218 0.13876548 -0.1480254 -0.108975396
000180 00 65 3f 3e fa 0f 8d bd 4a 34 94 bd ea 3f 4a be
       0.18690872 -0.06887813 -0.07236536 -0.19750944
000190 14 67 ef bd e8 db 50 3d 90 b7 dc bc 1a ba 17 be
       -0.116895825 0.05099097 -0.026942998 -0.14817086
0001a0 40 e5 9c 3b a4 c7 0e be a4 55 31 be d4 33 e6 bd
       0.004788071 -0.13943344 -0.17317826 -0.11240354
0001b0 88 f0 36 be ce 17 05 be fe f0 50 3e bc ea 1d 3d
       -0.17865193 -0.12997362 0.20404431 0.03855394
0001c0 34 d3 80 3d dd f3 42 be ea 47 09 be 2e 26 8b bd
       0.06290284 -0.19038339 -0.1340634 -0.067943916
0001d0 a0 bd 02 3d 85 ec 37 be f7 1f b4 bd 6b 45 fa bd
       0.03191912 -0.17961319 -0.08795159 -0.12220272
0001e0 00 4a 14 3a 6e 8e 9b bd 30 c0 67 bc ea a3 0d be
       0.0005656779 -0.07595526 -0.014144942 -0.1383206
0001f0 f4 78 0f be 92 e3 f3 bd 9e 18 8f bd 5c fa 24 be
       -0.14010984 -0.1190864 -0.06987117 -0.1611113
000200 74 42 2f 3e 30 ef 25 bd c4 d7 33 3e 78 41 82 3d
       0.17115194 -0.04051131 0.17562777 0.063601434
000210 0a 00 31 be c0 a6 10 3e e8 0b 66 bd 7e 3f a0 bd
       -0.17285171 0.1412611 -0.0561637 -0.0782461
000220 02 81 2d be 75 cd 4f be 08 37 6f 3d a8 a3 36 bd
       -0.16943744 -0.2029322 0.05840209 -0.04458967
000230 4c c1 a2 3d a3 89 2b be 54 2f 1b 3e 28 6f 19 be
       0.07947025 -0.16751723 0.15154773 -0.14983809
000240 f4 5e 10 bd 68 a2 2e 3d 30 d1 d7 3d 1e bf 28 3e
       -0.035246804 0.04263535 0.10537946 0.16479155
000250 5c 69 3e 3e 34 bd 25 be c8 6a 52 3d 03 d0 b3 bd
       0.18594879 -0.16185457 0.051371366 -0.087799095
000260 00 3f b7 bc a6 73 1c be fa 63 3e 3e a2 69 19 be
       -0.022368908 -0.15278491 0.18592826 -0.14981702
000270 e4 6c df 3d 04 eb 92 3d bc d8 87 3d df 03 e2 bd
       0.10909441 0.07173732 0.06633136 -0.110358946
000280 ec fd 3d 3e 50 bb 37 3d 28 1c d7 3c e0 33 38 be
       0.18553895 0.04485637 0.026258543 -0.17988539
000290 b4 7d af 3d b8 dc fa bc 64 84 bf bd 2a 8a 33 3e
       0.08568898 -0.030622825 -0.093514234 0.17533174
0002a0 e4 67 3a 3d 8e 4b e7 bd e9 96 d3 bd 80 b6 1f bc
       0.045509234 -0.11293708 -0.10331518 -0.009748101
0002b0 bc 6b e9 3d 60 a6 55 bd d6 86 ee bd 2e 28 8f bd
       0.11397502 -0.05216062 -0.11646812 -0.069900855
0002c0 ea 27 1c be c0 16 95 3d d4 ca 21 3e 66 c8 44 be
       -0.15249601 0.0727973 0.15800029 -0.19217071
0002d0 e0 2e 42 3d 94 f5 d7 3d b0 9b 17 3d 68 e0 94 bd
       0.047407985 0.10544887 0.03701371 -0.072693646
0002e0 2c 32 da 3d 58 b0 db 3d a4 51 9c 3d 5c eb 12 bd
       0.10654101 0.10726994 0.07632759 -0.035868987
0002f0 fc 65 5d bd 50 e4 b2 3c fc b2 13 bd 0c 28 79 bd
       -0.054052338 0.021837384 -0.036059365 -0.060829207
000300 ea 9b 05 3e 68 a2 33 3e b8 8a a5 bc d0 32 3b bd
       0.13047758 0.17542422 -0.020207748 -0.045702755
000310 40 35 43 3b c0 af 47 bc 90 01 49 3d 20 4d 6a 3d
       0.0029786378 -0.012187898 0.049073756 0.05720246
000320 c0 d8 3d be 5c 46 9a bd 48 06 30 3e 1c da a2 3d
       -0.18539715 -0.07532951 0.17189896 0.07951757
000330 40 57 26 bc e1 0a fc bd 49 c3 ff bd 6a 3c 3b be
       -0.010152638 -0.123067625 -0.124884196 -0.18284765
000340 72 44 88 bd 0c 2d 8d 3d 16 47 05 3e c8 02 c1 3d
       -0.0665368 0.06893358 0.13015398 0.094243586
000350 c7 c3 38 be b8 65 fb bd 08 f3 03 bd cc 32 4a 3e
       -0.18043433 -0.12275261 -0.032214195 0.1974594
000360 e0 e4 f1 3c 04 86 58 bd bc f3 ac 3d e2 39 9f bd
       0.029528081 -0.052862182 0.08444926 -0.07774712
000370 9a 4a 07 be 36 90 18 3e 1d 16 be bd d8 9b 27 bd
       -0.13212052 0.14898762 -0.092815615 -0.04092011
000380 e6 ef 4f be 9e e4 0b 3e f8 5c 1e 3e 30 5b 98 3d
       -0.20306358 0.1366143 0.15465152 0.07439268
000390 17 bf 11 be 14 4b 4e be a2 c3 29 be 5c de 1b 3e
       -0.14233051 -0.20145828 -0.16578534 0.15221542
0003a0 d8 b4 c8 3d d6 e4 2f 3e 78 00 db 3d c8 9b 53 3d
       0.09800118 0.17177138 0.10693449 0.051662236
0003b0 40 00 03 bb 9e f6 1e be d0 15 33 be 6f 82 43 be
       -0.0019989163 -0.15523764 -0.1748879 -0.19092725
0003c0 dc 21 ab 3d 51 3f cd bd 0c 44 28 bd 7c 96 f0 bd
       0.083560675 -0.10021842 -0.04108052 -0.117474526
0003d0 14 5b 18 bd 26 1e 13 be 39 94 08 be a4 ab 8a 3d
       -0.037196234 -0.1436697 -0.13337792 0.06771019
0003e0 d4 7b 78 bd fc 09 01 3e e8 1c 86 bd 20 55 19 be
       -0.060664967 0.12601465 -0.06548482 -0.14973879
0003f0 f0 84 13 bd 98 a5 ca bd a4 cb 7f bd 36 fd 46 be
       -0.03601545 -0.09894866 -0.062450066 -0.1943253

model.0.bias f4 [32]
000000 6c 88 06 be 9f 91 4e 3e 91 81 9d 3d 93 a4 ac 3d
       -0.13137978 0.20172738 0.076907285 0.084298275
000010 c4 1d fa bd 15 45 b7 bd 58 6c fc bc 90 e7 18 bd
       -0.122127086 -0.08948723 -0.030813381 -0.03733021
000020 96 3b 0f be 04 bb 70 3c 71 69 98 3c d8 bb d3 bc
       -0.13987574 0.0146930255 0.018604966 -0.025846407
000030 c3 93 f1 3c 62 b1 a5 bd fe 2f 59 3d b4 2d 9b 3d
       0.029489404 -0.08090474 0.053024285 0.075770766
000040 87 33 dc bd 51 43 4f be f5 29 dd 3d 72 67 4b 3d
       -0.107520156 -0.20240523 0.10799018 0.0496592
000050 01 9d d4 bd de b2 49 3e 82 0f bd bd d0 36 0c 3e
       -0.103815086 0.19697139 -0.092314735 0.13692784
000060 c3 30 da 3d 27 3f 2f be cc 28 06 3e ed 30 40 be
       0.10653832 -0.17113934 0.131015 -0.18768664
000070 91 9a e7 bd 9c 63 0b bd 2d e4 0c be b5 5c 4c 3e
       -0.11308778 -0.03403054 -0.13758917 0.1995724

model.2.weight f4 [64, 32, 3]
000000 00 b4 a7 bc 30 0b 26 3d a6 a3 ba bd bc a7 70 3d
       -0.020471573 0.040538013 -0.09113245 0.058753714
000010 08 ec 01 bd 76 ff 9e bd 08 83 74 3c 08 87 4a 3d
       -0.031719238 -0.07763569 0.014923818 0.049445182
000020 54 e3 b4 3d ef 56 7f bd ed b8 4d bd e4 bf a0 3c
       0.08832422 -0.062338766 -0.050225187 0.01962275
000030 a8 cc e2 3c 28 ba 20 3d 8c 74 65 3d 4c 96 bd bc
       0.027685478 0.039240032 0.05601935 -0.023142956
000040 fc 40 68 3d 6a 1c 9a 3d c8 67 da bc 06 b6 94 3d
       0.0567026 0.07524951 -0.026660815 0.07261281
000050 b4 3f 4c 3d 94 5e b8 3d 96 90 6d bd 5c 6f 4e bd
       0.04986544 0.09002414 -0.057999216 -0.05039917
000060 34 bf f1 bc c0 a5 a9 3b 34 e9 7a 3d a2 a5 6e bd
       -0.029510118 0.0051772296 0.061257556 -0.05826343
000070 e8 4b 51 3d ec d1 15 bd b0 8b 7c 3d 10 c8 9e bb
       0.05109778 -0.03657715 0.061656654 -0.0048456267
000080 58 1f b7 bd 3a 07 66 bd ea 47 97 bd d4 55 4f 3d
       -0.08941525 -0.056159236 -0.073867634 0.05061896
000090 fc 28 8c bd d0 52 0b bc 50 64 b4 3c 1d 41 65 bd
       -0.06843755 -0.008503631 0.022020489 -0.0559703
0000a0 08 30 f1 3c 57 18 cc bd cd 8e 95 bd 98 66 bd bd
       0.029441848 -0.0996558 -0.07302628 -0.09248084
0000b0 28 e6 fc bc 0c 4b 18 bd 20 72 6f 3c 08 9b 9a bc
       -0.030871466 -0.037180945 0.014614612 -0.018872753
0000c0 1c 84 44 3d a6 a1 bf 3d c4 fd 15 3d 57 b2 24 bd
       0.04797755 0.09357004 0.036618963 -0.04020914
0000d0 ec b9 c3 bd cc 6a 17 3d d3 1f 4f bd dc bb 54 3d
       -0.09556946 0.036967084 -0.05056746 0.05193697
0000e0 94 ba 8b 3d c0 3f 21 3d f0 20 c4 3d 88 87 c6 3d
       0.06822696 0.039367437 0.09576595 0.09693819
0000f0 bc 08 b1 3c 4c 4d 98 bd fa bf ba 3d 77 5c 46 bd
       0.02161061 -0.07436618 0.09118648 -0.048428025
000100 35 77 45 bd f6 e7 ae 3d 0a f4 a1 3d 60 a0 fc 3c
       -0.048209388 0.08540337 0.07907875 0.030838192
000110 50 a3 d1 3b b9 d2 af bd 68 94 2d bc c6 7a c8 3d
       0.006397642 -0.08585114 -0.010594465 0.09789042
000120 18 eb d4 3c 50 2b 0f 3c 90 9d ad bc a0 ce 11 bd
       0.025991008 0.008738354 -0.021193296 -0.035597444
000130 44 2a 79 3d 10 3e ce 3b 2c fc 87 3d bc fc 93 bc
       0.060831323 0.0062940195 0.06639895 -0.01806485
000140 f4 a5 36 3d 94 8e 2c 3d a8 53 85 3c 32 58 83 3d
       0.04459186 0.04212816 0.016275242 0.06413306
000150 c6 fb 82 3d 98 bf c1 3d 24 b1 a0 3d 3c c9 d5 bc
       0.06395678 0.09460372 0.07846287 -0.026096933
000160 95 f6 b0 bd 30 da 98 3c 00 86 69 ba fc 12 da bc
       -0.08640782 0.018658727 -0.0008908212 -0.02662038
000170 f4 01 8c bc 90 4b 9d 3b 70 82 98 3d 80 52 02 3d
       -0.017090775 0.0048002675 0.07446754 0.03181696
000180 24 72 14 bd 3b e9 2b bd ec 0a cf bc b4 ef 1e bd
       -0.036241665 -0.041970473 -0.025273763 -0.038802817
000190 99 47 bd 3d 5e 0e 60 3d 83 40 bd 3d 50 86 16 3a
       0.09242172 0.0547012 0.0924082 0.000574206
0001a0 3b a6 aa 3c 49 0e 12 3d d5 4e c5 bd 4e b0 19 3c
       0.020831218 0.035658155 -0.09634177 0.009380413
0001b0 70 b4 df bb 1c 61 6a bd e2 30 a2 bd f6 0a b9 3d
       -0.0068269297 -0.057221517 -0.0791948 0.09035294
0001c0 1a f3 a9 3d 58 c0 41 3d d4 75 c7 3d 7e a5 29 bd
       0.08298321 0.047302574 0.09739271 -0.04141759
0001d0 84 69 90 bc b4 47 1e 3d 0c 25 8a bc 0c 12 a4 bc
       -0.017628439 0.0386426 -0.016863368 -0.020028137
0001e0 3d c5 ac bd 30 a0 e0 3c 01 a3 7c bd 43 86 76 3b
       -0.08436058 0.027420133 -0.06167889 0.0037616647
0001f0 71 cd cb 3d 15 6e 00 bd 4c 7d 03 bd ec 7c 7c 3d
       0.09951294 -0.031354982 -0.032101914 0.061642572
000200 b9 6b 19 bd 58 9a 0f bc 46 2c c3 3d 53 63 2b bd
       -0.037456248 -0.008764826 0.09529929 -0.04184277
000210 e0 4e 95 bd 66 95 69 bd cf 0b e7 bc c8 5c 46 bd
       -0.07290435 -0.057027243 -0.028203873 -0.048428327
000220 ff ef 58 bd 14 de 28 3d d9 79 8f 3c ca 1a 05 bd
       -0.052963253 0.041227415 0.017514156 -0.03249625
000230 bc 0e a2 bd 2e a0 02 bd 7f 6e 2f bd 3b 0a 07 bd
       -0.079129666 -0.03189104 -0.042829987 -0.03296874
000240 88 90 bc bd 60 1e b4 3c 00 93 99 bd 7c c9 a2 bd
       -0.09207255 0.02198714 -0.07498741 -0.07948586
000250 62 c7 aa bd 54 7c 2e 3d 20 45 7a bd e1 24 2b bd
       -0.083388105 0.042599037 -0.06110108 -0.041783217
000260 12 8b a4 3d 38 9d 5e 3d be 59 70 3d 74 28 c6 bd
       0.08034338 0.054349154 0.058679335 -0.096756846
000270 f4 e3 95 bd 2c d1 1d bd 6c ac ac 3d ef 5f 35 3c
       -0.07318869 -0.03852956 0.08431324 0.011070236
000280 fb 09 9b bd 46 3e a6 3a 98 57 a2 bd f0 2f b7 bc
       -0.07570263 0.0012683354 -0.079268634 -0.022361726
000290 94 e7 e5 bc f0 d7 b5 3d 0e 49 03 3d 0c 30 8e bc
       -0.028064527 0.088790774 0.032052092 -0.017356895
0002a0 0d fe 8f 3c 54 99 ee bc 14 a0 25 3d 30 5d 25 3d
       0.017577196 -0.029125847 0.040435866 0.040372074
0002b0 88 87 e0 3c de f1 22 bd 9c 30 b3 3d b7 87 6a bc
       0.027408376 -0.039781444 0.08749506 -0.0143145835
0002c0 0a 08 21 bd 04 ea 82 3d 9e 5d aa 3d ec 02 d0 3d
       -0.039314307 0.06392291 0.08318637 0.10156807
0002d0 08 b3 f7 3c 68 82 0e bd 88 52 54 3d 14 55 b3 3d
       0.030236736 -0.034792334 0.05183652 0.08756462
0002e0 5c 04 cd bd 70 29 4f bc ec 8b 8e bd 64 d0 9b 3c
       -0.10010597 -0.012644157 -0.06960282 0.019020267
0002f0 c8 e5 2c 3d 6e 7f a7 bc b0 6d 01 bc 2a c8 3e 3d
       0.042211324 -0.020446505 -0.007899687 0.04657761
000300 98 85 8c bc 89 88 af bd 36 3f a7 3d a3 68 52 bd
       -0.017153546 -0.08570964 0.081663534 -0.05136932
000310 28 b4 37 bc 30 bb 1d 3c 70 fc c8 bb 09 a0 c4 bd
       -0.011212386 0.0096271485 -0.0061336085 -0.09600837
000320 b4 cc 3f 3d c9 e3 3d bd de d2 58 bd 60 c1 c7 3c
       0.04682608 -0.04635981 -0.052935474 0.0243842
000330 98 29 5a bd 40 34 41 bd 54 dc 0c bd f4 0c 1d bd
       -0.053262323 -0.04716897 -0.03438981 -0.03834243
000340 7f 97 2e bd 7c 7b e1 bc b8 47 d9 3c 30 25 a9 bd
       -0.042624947 -0.027524702 0.026523456 -0.08259046
000350 00 09 7d bd 80 32 c3 3a 30 8c 68 3c 40 e2 66 3d
       -0.06177616 0.001489237 0.01419358 0.056368113
000360 b9 d3 92 bd 68 70 05 3d fc 9c 6d 3d dc 1f 68 3d
       -0.07169289 0.032577902 0.05801104 0.05667101
000370 4b b0 c2 bd 38 87 1f bd 4a ab b3 bd b0 45 84 bd
       -0.095062815 -0.038947314 -0.08772905 -0.06458604
000380 38 d8 68 3d 68 b0 79 bc 8c 8c 31 3d 53 65 75 bd
       0.056846827 -0.015239812 0.043346927 -0.059911083
000390 e8 1a 7e 3c cd db 7c bd 5c fa 50 3d 3c d8 36 bd
       0.015509345 -0.061733056 0.05102001 -0.04463981
0003a0 68 a8 d1 bc e2 5a b5 bd 00 c6 b0 39 9c 76 c6 3d
       -0.025592998 -0.08855225 0.00033716857 0.09690592
0003b0 18 e9 4a 3d 78 0b 5f bd 00 e9 b3 3a 40 5a 37 bc
       0.0495387 -0.054454297 0.0013726056 -0.011190951
0003c0 75 47 a8 bd a8 e4 a3 3d 80 a7 d7 3a 20 14 b0 3c
       -0.08216754 0.08002597 0.0016453117 0.021493971
0003d0 b7 d1 28 bd a1 9c 43 bd e8 dc 89 3c 68 8e 1a 3d
       -0.041215625 -0.047756795 0.01682897 0.037733465
0003e0 ac 88 bb 3c af 79 49 bd aa f0 ca 3d 28 27 76 bc
       0.022892319 -0.049188312 0.09909184 -0.015023984
0003f0 48 02 80 bd 89 86 43 bd 48 c4 cd 3d 00 00 a5 36
       -0.06250435 -0.047735725 0.10047203 4.917383e-06

model.2.bias f4 [64]
000000 4f 84 ae bd 24 67 a8 3d b9 fc a3 bd bb 6f a0 bd
       -0.085213296 0.082227975 -0.080071874 -0.07833811
000010 fd 9a 7b 3c b0 19 30 bc c0 26 84 ba 4f d4 b7 3b
       0.015356776 -0.010748312 -0.0010082349 0.005610026
000020 5b f8 da 3d 42 f2 ca bd ce 58 7b bd 34 3b 9a 3c
       0.10691901 -0.09909488 -0.061363988 0.018827058
000030 83 14 ba bd 5c 22 a5 bd 3b fe a2 3d fc de 21 3d
       -0.090859435 -0.08063194 0.07958647 0.039519295
000040 26 ac 01 bd 99 e8 c6 3c 66 31 3f 3c a5 57 14 bc
       -0.031658314 0.024280833 0.011669492 -0.009054099
000050 32 68 b2 3d a0 01 4e bb 52 5c 9a 3d 9a b3 a2 bd
       0.0871128 -0.0031434074 0.0753714 -0.079444125
000060 06 db 29 bd 83 64 87 3c 18 4f 5f 3d 10 89 32 bd
       -0.041468643 0.01652742 0.05451879 -0.043587744
000070 87 f4 a0 3d a7 68 ad bd ee 76 1f bd e0 f9 a3 3d
       0.0785914 -0.084672265 -0.03893178 0.08006644
000080 89 51 98 bd f8 08 c4 bd f4 08 d3 bc f7 24 ae bd
       -0.074374266 -0.09572023 -0.025761105 -0.08503144
000090 9e fb c6 3c ec ff 92 bc 2c 1c f6 bc ba 6c 61 3d
       0.024289902 -0.017944299 -0.03004273 0.05503533
0000a0 27 09 9d 3b 5c 72 bc bd bb 8a c8 bd a2 64 88 3d
       0.004792351 -0.092015 -0.09792086 0.06659819
0000b0 67 59 17 3d ff 0f 6a 3d 2a 86 b1 bd b4 91 a1 bc
       0.036950495 0.05714416 -0.08668168 -0.019722797
0000c0 6d ab b5 3d 72 0e b7 3d 31 14 8c 3d fb ef bc 3d
       0.088705875 0.08938302 0.06839789 0.0922546
0000d0 2e 00 03 bd ca d0 a1 bd c4 01 6b 3d e6 a5 79 3d
       -0.031982593 -0.079011515 0.05737473 0.06094923
0000e0 30 7e fc bc 57 c0 cc bb 00 0e a1 bb 63 6b b9 bd
       -0.03082189 -0.0062485146 -0.004914999 -0.090536855
0000f0 ca fc 1e bd bc 77 04 bd e6 e6 26 3d 48 f3 f3 bc
       -0.038815297 -0.03234075 0.040747546 -0.029779091

model.5.weight f4 [96, 64, 3]
000000 86 69 05 3d 60 16 85 3d 50 0d 7c bc fc 1a 90 bc
       0.032571338 0.06498408 -0.015384033 -0.017590992
000010 07 ab 39 bd 70 7a b4 bb f9 41 87 bd 78 ce 47 3d
       -0.04532912 -0.0055077597 -0.0660438 0.04878089
000020 60 fe 7e 3d cc ad 9d 3c 2a c9 8b 3d a6 e5 14 3d
       0.06225431 0.019247912 0.068254784 0.036351822
000030 ac f2 43 3d 90 83 88 3d bb 3c 4b bd 00 88 b9 bb
       0.04783885 0.066657186 -0.049618464 -0.0056619644
000040 94 1b de 3c 50 3f 9e bc 70 b0 51 bd 90 a2 b9 bc
       0.02711276 -0.0193173 -0.051193655 -0.022660524
000050 58 89 12 bd 28 5b cf bc bd 30 61 bd 0c 56 b2 bc
       -0.035775512 -0.025312021 -0.05497812 -0.021769546
000060 52 60 29 3d fa bd 01 bd 6c d5 fb 3c dd 18 73 bd
       0.041351624 -0.031675316 0.030741416 -0.059349883
000070 3a 45 3a bd e0 1a f5 3b de df 88 3d 4a 7f 88 bd
       -0.045476176 0.0074800104 0.06683324 -0.066649035
000080 48 ab 00 3d 80 cc 4e 3c 0a 8a 71 bd d4 a0 56 bd
       0.031413347 0.012621999 -0.058969535 -0.05239947
000090 d0 ee 14 3d 31 b4 13 bd 04 28 4f 3d e7 6b 4c bd
       0.03636056 -0.036060516 0.05057527 -0.04990759
0000a0 60 4f 5f 3d 21 ce 16 bd 78 7d ef 3c 3c e4 b0 3c
       0.054519057 -0.036817674 0.029234633 0.021593206
0000b0 75 f4 67 bd bb 06 1b bd cc 35 8f bc 00 1c 70 39
       -0.056629617 -0.037848216 -0.017481707 0.00022898614
0000c0 64 fd 11 3d fc 05 f3 bc e8 f7 2d 3c cb 59 20 bd
       0.035642043 -0.02966594 0.0106181875 -0.039148133
0000d0 bc 82 0c bd 46 e7 40 3d e4 eb a1 bc 4b 82 81 bd
       -0.034304366 0.04709556 -0.019765802 -0.063236795
0000e0 80 ab 46 3b 30 8f 28 bc 94 12 a8 3c 1e cb 16 bd
       0.0030314624 -0.010288045 0.020516671 -0.0368148
0000f0 80 b6 4b 3b 48 d5 11 bd d8 a6 32 bd 4c 25 87 3c
       0.003108412 -0.03560379 -0.043616146 0.016497277
000100 e8 bb b6 3c 58 bf 5a 3c b2 86 88 3d 00 39 db 3b
       0.022306398 0.013351284 0.06666316 0.0066901445
000110 e0 18 c9 3b 78 95 1a bc 10 e5 8e bd 34 3b e7 3c
       0.0061369985 -0.00943505 -0.06977284 0.028226472
000120 3c 70 66 3d d0 56 ea 3b 49 8a 66 bd 9c b5 84 3d
       0.05625938 0.007151462 -0.056284223 0.06479952
000130 04 72 84 3c d8 cf 55 3d d0 62 00 3d e8 81 3a 3c
       0.016167648 0.05220017 0.031344235 0.011383511
000140 42 30 ae bc 80 c0 72 3c 4c 3a be 3c a0 5d 8f bb
       -0.021263245 0.014816403 0.023221157 -0.0043751746
000150 24 d0 3c bd 01 5a 1b bd b2 77 87 bd 06 3a e7 bc
       -0.046096936 -0.03792763 -0.06614627 -0.02822591
000160 00 9e 3e bc 08 c4 71 3d 84 1f 1e bd ce 6e 91 bd
       -0.01163435 0.05902484 -0.038604274 -0.071012124
000170 b4 05 22 3d e8 de 7e 3d 36 90 66 bd 80 f0 3c ba
       0.03955622 0.0622243 -0.056289874 -0.0007207468
000180 30 f6 bb 3c 2e 92 3e 3d cc 42 54 bc a6 a2 06 3d
       0.02294454 0.046526127 -0.012955379 0.032869957
000190 a0 1f 63 3d 20 fc 2c 3d 78 06 10 3d fa c4 33 3d
       0.05545008 0.042232633 0.03516242 0.043889023
0001a0 20 72 84 bd 88 68 7b 3c f4 f5 63 3d 34 36 6a bd
       -0.0646708 0.015344746 0.05565448 -0.0571806
0001b0 f8 8e 81 bd d0 1b 74 bd 98 85 b5 3c 72 2b 89 3d
       -0.06326097 -0.059596837 0.022158429 0.0669774
0001c0 c0 7e d6 bb ee 04 eb bc 80 f3 8b 3b 10 bc 73 bd
       -0.0065458715 -0.028688874 0.004270971 -0.059505522
0001d0 78 af 4c 3c 1c 58 42 bd 80 f6 46 bd e4 a1 57 bd
       0.012493007 -0.04744731 -0.048574924 -0.052644625
0001e0 7c 60 a7 bc 72 a5 40 3d 50 29 70 3c 60 b8 4d 3d
       -0.02043175 0.04703278 0.014658287 0.05022466
0001f0 ea 97 8e bd 86 bc 70 bd e0 1e 35 3d c8 d9 68 3d
       -0.06962569 -0.05877354 0.044218898 0.056848317
000200 34 09 7b 3d 5a 44 89 bd 5c 68 04 3d 36 be 91 bd
       0.061288074 -0.0670249 0.032326087 -0.07116358
000210 8e d8 ae bc c0 9f bf 3a 82 3b 0a 3d 64 9a b4 bc
       -0.021343496 0.0014619753 0.033748157 -0.022046275
000220 12 99 7f bd eb 9f 8f bd 3c 16 ed bc a4 46 61 3d
       -0.06240184 -0.07012924 -0.028941266 0.05499901
000230 fc 41 00 3d 20 37 12 3d 6c 12 6f bd 06 ce 84 bd
       0.031312928 0.035697103 -0.058367178 -0.06484608
000240 32 c1 88 3d 06 16 41 3d 80 d2 fe bc b0 d8 c6 3b
       0.06677474 0.047140144 -0.031106234 0.0060683116
000250 96 f5 54 3d f2 0b 85 3d 43 da 6d bd 4e 82 12 bd
       0.05199202 0.06496419 -0.05806948 -0.0357688
000260 4c be e5 3c 80 da 61 3d e8 b5 4d 3c e0 f1 91 bb
       0.028044842 0.05514002 0.012555577 -0.0044538826
000270 20 34 37 3b fa 7f 86 3d 3b 16 68 bd 2a ab 06 3d
       0.0027954653 0.06567378 -0.056661826 0.03287808
000280 65 a2 53 bd a0 d8 e0 3b ef 9e 8b bd c2 74 3f 3d
       -0.051668543 0.006861761 -0.068174236 0.04674221
000290 49 b3 24 bd 80 17 9d 3b b5 63 39 bd b0 91 d8 3b
       -0.040210042 0.004794061 -0.045261104 0.006609164
0002a0 90 f2 0f bd 2b 2d 17 bd 8b 1a 00 bd 68 69 37 3d
       -0.035143435 -0.03690831 -0.031275313 0.044778258
0002b0 e0 3d 25 3c fa 46 98 bc d4 c4 7b 3d 78 b7 67 3c
       0.010085553 -0.018588532 0.061467007 0.014142863
0002c0 9c 52 bf bc 80 dd 55 bb 3c 28 e7 bc 0e 89 ea bc
       -0.02335482 -0.0032633245 -0.028217427 -0.028629806
0002d0 98 9e b8 bc 74 e4 8c 3c 6e 9b 83 bd 20 35 66 bd
       -0.02253656 0.017198779 -0.0642613 -0.056203008
0002e0 c4 6e 46 3d 72 98 8d bc 80 a0 2e bb dc 7a ce 3c
       0.048445478 -0.017284606 -0.0026645958 0.025205068
0002f0 ad 38 04 bd fc 14 4f 3d 68 d3 85 bc f0 19 90 3b
       -0.032280613 0.05055712 -0.016336158 0.0043976232
000300 b1 03 4d bd 58 68 f0 3c c6 1a 52 bd 7a 1c 38 3d
       -0.05005235 0.02934663 -0.051295064 0.044949032
000310 9b 0f 16 bc 9c 41 cf bc 46 e8 c5 bc 24 8f e1 3c
       -0.009158994 -0.02529984 -0.024158608 0.027534075
000320 80 c2 90 3d ec 9e a0 3c 24 30 35 3d 11 2c 79 bd
       0.07068348 0.01960703 0.044235364 -0.06083304
000330 17 a5 86 bc b7 f7 24 bd 2f b9 51 bd 30 06 4b 3c
       -0.016436143 -0.0402753 -0.051201995 0.012391612
000340 14 d3 b8 bc a0 d4 85 3c c2 46 e8 bc 8b 13 86 bd
       -0.022561587 0.016336739 -0.028354052 -0.06546696
000350 6a ba 16 bd c2 96 8c bd 0f f5 85 3c c1 f5 5a bd
       -0.036798872 -0.06864692 0.016352205 -0.053457025
000360 bb 6c 68 3d e2 21 05 3d 16 aa 20 bd 9c f4 a8 bc
       0.05674432 0.032503016 -0.039224707 -0.020624451
000370 44 6c 84 bd 06 f6 54 3d 49 30 04 bd f4 64 78 bc
       -0.064659625 0.05199244 -0.03227261 -0.015160788
000380 b0 b2 ae 3b 2a 80 0f 3d 8a 40 b0 bc 5c ed 10 3d
       0.00533136 0.035034336 -0.02151515 0.035382614
000390 52 08 18 3d 98 18 12 bc c0 ff 43 3d 17 9c 81 bd
       0.03711731 -0.008916996 0.047851324 -0.063286
0003a0 d9 f5 20 bd 20 95 b9 bb 1e f3 de bb 6d 33 d6 3c
       -0.03929696 -0.005663529 -0.006803884 0.026147569
0003b0 32 bb 57 3d 22 73 55 bd 16 1e 1b 3d 84 da 8d 3c
       0.052668758 -0.052111752 0.03787049 0.01731611
0003c0 d0 7f 75 3d 40 c6 1d 3d 0a 81 80 bc 19 b4 21 bc
       0.059936345 0.038519144 -0.01568653 -0.009869599
0003d0 2d 39 43 bd f7 6d 85 3c b6 b1 67 3d b3 34 cc 3c
       -0.04766195 0.016287787 0.056565963 0.024927473
0003e0 36 61 6f 3d e2 4e ed 3c 43 de 65 3c 8e a1 7d bc
       0.058442317 0.028968278 0.014030042 -0.015480412
0003f0 e5 33 7e bd 56 f3 58 bc 09 1b 7c 3d ab 81 81 3d
       -0.06206121 -0.01324161 0.06154922 0.0632356

model.5.bias f4 [96]
000000 90 92 27 bc 7e 4b 95 3d d9 6d 15 3d b0 b5 50 bd
       -0.010227814 0.072897896 0.036481712 -0.05095452
000010 64 d1 a6 bc 5e ea e0 bc e5 51 24 bd 69 81 75 bd
       -0.020363517 -0.027455505 -0.040117163 -0.05993787
000020 80 43 16 3d c1 b1 51 3d 4a e7 69 bd 61 06 8f 3d
       0.036685467 0.05119491 -0.05710534 0.069836386
000030 2e 6c 32 3d 47 14 71 3d 3c 02 69 bd b2 72 85 3c
       0.0435602 0.05885723 -0.056886896 0.016290043
000040 44 17 4c 3d 86 d5 2d 3d 3e ff af bc 64 48 16 3d
       0.049826875 0.04243996 -0.021484014 0.03669013
000050 55 0f 07 3d 9e e8 3b bd ce f9 1f 3d 8e 09 0d bd
       0.032973606 -0.045876138 0.03905659 -0.03443294
000060 0f 02 81 3d d0 ae b8 bc de 51 31 bd f3 94 e6 3c
       0.06299221 -0.022544295 -0.043290965 0.028147196
000070 a4 53 2a bd d4 3c f1 bc e9 72 37 3d 3e 9a 91 3d
       -0.041583672 -0.02944795 0.04478732 0.071094975
000080 75 be 6f 3c 30 fe 53 3d c8 f1 e3 3c 3c 62 15 bc
       0.014632811 0.051756084 0.027825251 -0.009117659
000090 64 63 c5 bc ec 1c 9b bc 5c e6 c7 3b f8 fa 07 bc
       -0.024095245 -0.01893469 0.006100459 -0.008299582
0000a0 68 d0 78 3c f0 38 98 3c 8c 23 3f bd a9 0d 27 bd
       0.015186407 0.018581837 -0.04666476 -0.04078451
0000b0 ec 87 a5 3d 1c cc fd bc 0d 97 02 3d 55 c5 9c 3d
       0.08082566 -0.030981116 0.031882335 0.076548256
0000c0 8c 3d 86 bd 16 e4 bb 3b a0 0e 94 3c 98 67 37 bd
       -0.06554708 0.005733977 0.01807338 -0.04477653
0000d0 c5 15 fd 36 d6 17 0d bd 27 a7 92 bd 1c 09 cd bc
       7.542522e-06 -0.03444656 -0.07160788 -0.025028758
0000e0 7d 34 63 3d a7 a8 8a 3d 12 2f 2e bd be 68 bc bc
       0.05546998 0.06770449 -0.04252536 -0.022999164
0000f0 2a 28 19 bd 7a 9d 66 3d fd c0 72 bd 88 2e c9 bc
       -0.03739182 0.056302525 -0.05926608 -0.02455832
000100 94 08 bd bc e0 8a ee bc 46 94 85 3d 2c 6b 80 bd
       -0.02307538 -0.029118955 0.065224215 -0.062704414
000110 fb 02 6a bd 8b 86 73 bd 8d 9d 05 bd 31 fa 10 3d
       -0.05713175 -0.059454482 -0.032620955 0.03539485
000120 40 91 22 3c 32 6b e3 ba ae 10 6b 3d f7 ba 36 3d
       0.009922326 -0.0017350672 0.057388954 0.044611897
000130 a8 03 8a 3c 62 d3 8a 3c 51 3b 09 bd f9 ce 8e bd
       0.016847447 0.016946498 -0.033503834 -0.06973071
000140 a1 1c 21 3c b2 89 94 3d 5e 86 78 3d 60 80 dc bb
       0.009833486 0.07252826 0.060675018 -0.0067291707
000150 80 35 fd ba 9e f2 9d 3d 94 a4 93 bd 68 b4 81 3d
       -0.0019318312 0.07712291 -0.07209125 0.06333238
000160 68 48 85 3d 2a 07 39 3d 61 0c 07 3d e0 0b 43 3b
       0.06507951 0.045172848 0.03297079 0.0029761717
000170 d7 84 74 3c 12 77 19 bd b4 89 33 bc 5a c3 3d bd
       0.01492425 -0.03746707 -0.010958124 -0.04632888

model.8.weight f4 [128, 96, 3]
000000 08 7f e9 3b 16 fb 80 bc bb 46 57 3d 3a 82 b0 3c
       0.007125739 -0.015744727 0.05255769 0.021546472
000010 c0 d5 df 3c 3c e7 20 bd 66 0f 3b ba 46 53 53 3d
       0.027323604 -0.039283022 -0.00071357784 0.051593088
000020 86 19 c5 3c 70 99 52 bd ae 28 c7 bc c7 bf 0a 3d
       0.024060022 -0.05141586 -0.02431139 0.0338743
000030 df a8 00 3d 3c 77 07 3c 46 7e 83 bc 35 d8 0c 3d
       0.031411048 0.008268174 -0.016051423 0.03438588
000040 a2 91 85 3c b8 af c3 3b b6 c6 94 3c fb 4e 0a bd
       0.016304795 0.005971875 0.018161159 -0.033766728
000050 32 36 27 bd 85 cc 1b 3d 9a bc 03 bd 08 5a 2f bd
       -0.04082317 0.038036842 -0.032162286 -0.04281047
000060 f1 57 43 bd f0 fc 3e 3d cf 03 c5 3c 17 82 d0 3c
       -0.04769129 0.04662794 0.024049668 0.025452657
000070 f3 d3 2d 3d ae ed 62 bd 4c 42 43 bd 82 31 b7 3c
       0.04243846 -0.05540245 -0.047670648 0.022362474
000080 6d 4d 50 3d 0f 97 d9 3c fa 4f b3 3b d8 48 6a 3d
       0.05085509 0.026561288 0.0054721804 0.057198375
000090 94 44 d3 bc 27 91 4f 3d 72 38 45 3d 24 61 3c bd
       -0.025789537 0.050675537 0.048149534 -0.045991078
0000a0 03 9a ab bb a9 ff 47 3d f5 94 5f 3d 28 e3 3f bc
       -0.0052368655 0.0488278 0.054585416 -0.011711873
0000b0 d3 2a 53 3d aa d1 43 bd 9e 89 82 3c 23 38 2d 3c
       0.051554512 -0.047807373 0.015934762 0.010572466
0000c0 1a fb 89 3c cf ba 02 3d b4 1a 26 3c 74 06 f8 3c
       0.016843367 0.031916436 0.010138202 0.030276515
0000d0 99 a0 3d 3d 95 af 08 3d e5 52 1a 3d 35 2d 70 3d
       0.046295736 0.033370573 0.03767671 0.058636863
0000e0 19 51 3d 3d ee ec 66 3b f9 78 29 bd 5e 08 d2 3c
       0.04621992 0.0035236436 -0.041375134 0.025638755
0000f0 14 1e c3 3b 63 56 5c 3d c9 3d 8b bc 60 7d fc 3a
       0.0059545133 0.053793322 -0.016997235 0.0019263439
000100 11 56 61 bd d3 28 e7 bc 2e 86 2d 3d 44 53 1c bd
       -0.05501372 -0.028217709 0.04236429 -0.038165346
000110 99 0f f8 bc 10 41 20 3b 00 79 32 3b 2b 99 2c 3d
       -0.030280875 0.0024452843 0.0027232766 0.04213826
000120 80 af 1d bd 02 9f 2d 3c 36 92 17 bd 32 14 f1 3c
       -0.038497448 0.010596992 -0.037004672 0.029428575
000130 12 28 b9 3c 60 a7 0d bc a1 a7 2c 3d 03 a6 28 3d
       0.022602115 -0.008645862 0.04215205 0.041173946
000140 9e 5a 09 bd ac a1 51 bd 7e f3 ec 3c e8 d9 45 bd
       -0.033533685 -0.051179573 0.0289247 -0.048303515
000150 28 80 f1 3b 28 59 a1 3b 52 6b aa 3c 5a 4a f1 3c
       0.0073700137 0.0049239583 0.020803127 0.029454399
000160 fc a5 00 bd 10 ba 70 3b d9 3d 0e bd d6 68 2a 3d
       -0.031408295 0.0036731996 -0.03472695 0.041603886
000170 09 b0 8d 3c f4 83 52 3d 11 56 3e 3d a3 89 d7 3c
       0.017295854 0.05139537 0.046468798 0.026310747
000180 b5 84 18 3d d6 ea 01 38 2e 71 34 bd 0f e5 c6 bc
       0.037235934 3.0974705e-05 -0.04405325 -0.024279146
000190 13 34 be bc 5f c5 d2 bc 71 2a f4 bc 42 9a 6b bd
       -0.02321819 -0.02572888 -0.029805394 -0.05752016
0001a0 24 d3 33 3c b8 3a 19 bd 4f 8a 52 bd e2 c9 95 3c
       0.010975633 -0.037409514 -0.051401433 0.018284742
0001b0 1a 14 62 bd ec 50 51 3c a0 ff 60 bb 2a c8 fe 3c
       -0.05519495 0.012775641 -0.0034332052 0.031101305
0001c0 49 f3 47 3d ca e7 ed 3c 75 a5 41 bd 7f 6b b8 bb
       0.048816 0.02904119 -0.047276933 -0.005628049
0001d0 cd 73 dc 3c ed 8a 3d bd 22 56 69 bd 50 63 58 bd
       0.026910687 -0.046275068 -0.05696691 -0.052829087
0001e0 9a e9 33 bd e2 2a d1 3c 7a 40 8f bc 0e b0 c3 3c
       -0.04392395 0.025533143 -0.0174868 0.02388766
0001f0 b4 8a 00 bd 98 41 74 bc 58 f1 0f bc 67 08 68 3d
       -0.031382278 -0.014908217 -0.008785568 0.056648638
000200 b8 2c ff 3b 07 51 45 bd 6f 40 3a 3d f0 c8 57 3b
       0.0077873133 -0.048172977 0.045471605 0.0032926165
000210 5c c1 59 3d 57 1c 0b ba f8 80 43 bd 1c f1 1f 3c
       0.053162917 -0.0005306652 -0.047730416 0.009762075
000220 79 34 04 bd b2 ed 25 bd bb 5c c9 3b fd 78 b5 3c
       -0.032276604 -0.040509887 0.0061450875 0.022152418
000230 32 6c fb bc 7e 57 8a bc ef 8a bc bc 85 fc 35 3d
       -0.03069124 -0.016887423 -0.023015467 0.044430275
000240 e4 d5 6f 3c cc f1 50 bc 8c b1 9a bc 4a a7 af bc
       0.014638398 -0.012752961 -0.01888349 -0.021442074
000250 ae cd 05 bb 98 ab 68 3c 46 54 ba bc de ce c8 bc
       -0.0020416784 0.014201067 -0.022745263 -0.024512704
000260 7e 83 32 bd 2b 3b 59 3d 20 ed c6 bc b5 63 54 3d
       -0.043582432 0.053034943 -0.024282992 0.0518529
000270 82 45 c2 bb 08 ff 5c bc 46 f6 ab bc 40 d0 43 ba
       -0.005928696 -0.013488539 -0.020991456 -0.00074696913
000280 40 cd 21 bb 7c 56 75 3c 7f 86 e4 bc 5b dc 4f 3d
       -0.002468899 0.014974233 -0.027896164 0.050747257
000290 bc ec 5d 3c e8 3d 1c bc 78 a3 24 bd ec c3 6d 3c
       0.013545211 -0.009536244 -0.04019496 0.014512043
0002a0 f3 c2 51 bb e3 20 12 bc 06 60 5c bd 05 5a b8 3c
       -0.0032007068 -0.008918974 -0.053802513 0.022503862
0002b0 22 0a e2 3b cc 4e 12 3d ff 70 07 bd 27 b4 11 3d
       0.0068981806 0.035719678 -0.033066746 0.035572197
0002c0 db f5 38 3d 54 df 5a 3c 31 cc 35 3d ed f1 66 bd
       0.04515634 0.01335891 0.044384185 -0.056383062
0002d0 45 c4 1c 3d 6a cd 97 bc 4a e9 a9 3c c3 54 30 3d
       0.038273115 -0.018530566 0.020741124 0.043049585
0002e0 16 2e 01 3c a0 3c 83 ba ce 50 d4 3c c3 bd 67 3d
       0.007884523 -0.0010012574 0.025917437 0.056577455
0002f0 a7 51 2c bd a5 e7 60 3d 44 92 18 3c 1e b4 fe 3c
       -0.042070057 0.054908413 0.009312216 0.031091746
000300 40 82 f6 ba b0 99 47 bc 5c 6d 18 bc d8 d2 54 bc
       -0.0018807128 -0.012182638 -0.009303417 -0.012989722
000310 ac 96 50 bd 5f 79 2c 3d 9d f1 ef 3c 5b 3f 6f bd
       -0.050924942 0.042107936 0.029290015 -0.05841003
000320 c5 ff ea 3c 01 e7 35 bd 88 91 c8 bc db 4f 4f 3d
       0.028686414 -0.044409756 -0.024483457 0.050613265
000330 20 a7 aa bb 53 17 1a 3d 83 6b 0b 3d b8 00 b5 3b
       -0.005207911 0.0376199 0.034038078 0.0055237673
000340 6a 6d 67 bd bd 22 29 3d 06 eb c9 bc 68 15 1e bd
       -0.05650083 0.041292895 -0.0246482 -0.038594633
000350 24 23 9d bc 8c 27 42 3d 56 88 84 bc c1 6f cb 3c
       -0.019181795 0.047400996 -0.016178291 0.024833562
000360 68 3a d0 3b e5 ae e7 bc a4 32 0f 3c 6c 0f 3e 3d
       0.006354619 -0.028281638 0.008740101 0.046401426
000370 cf aa 44 3d 45 58 29 b9 c3 c1 af 3b c1 b8 10 3d
       0.04801446 -0.00016149979 0.0053636744 0.035332445
000380 6d 71 b1 bc 6e 58 39 bc 42 5f fb 3c 33 b4 29 3d
       -0.021660531 -0.011312587 0.03068507 0.041431617
000390 68 76 ee 3b 50 57 be bb df c4 4e bd 45 f4 94 bb
       0.0072772987 -0.0058087483 -0.05048072 -0.0045457208
0003a0 3f 41 20 bd 07 e7 3b bc ed f2 82 ba cc c0 b8 3c
       -0.039124724 -0.011468655 -0.000999061 0.02255287
0003b0 2c d5 4e 3d 28 1b 80 3b a4 ef 13 3c ca fe d7 bc
       0.050496265 0.0039094873 0.009029303 -0.02636661
0003c0 8b c7 2f bd 5c aa 57 bd 1d 0a 4f 3c 13 77 08 3c
       -0.04291491 -0.0526527 0.012636689 0.008329171
0003d0 87 96 54 3d 00 f5 0a 3d 8a 56 09 3b 7b 82 9a bc
       0.051901367 0.033925056 0.0020956122 -0.018861046
0003e0 63 00 27 3d 09 87 51 bd 60 22 e9 ba fe db a9 3c
       0.040771853 -0.05115417 -0.0017786734 0.020734783
0003f0 54 54 6c bd 03 2a 3a 3d 10 4f 75 bc 43 86 4e 3d
       -0.05769761 0.04545022 -0.014972463 0.05042101

model.8.bias f4 [128]
000000 95 2e dd bb 09 4e dd bc 0c 6c 1f bd 3c 61 3c bd
       -0.006749938 -0.02701475 -0.0389214 -0.045991167
000010 c6 e4 ee 3c ae 99 3b bb 52 8d f4 bc 00 50 61 37
       0.029161822 -0.0028625536 -0.029852543 1.34296715e-05
000020 6e e5 55 bd 97 49 87 3d a2 aa 2d 3d a0 b6 e0 3a
       -0.052220754 0.06605833 0.042399056 0.001714427
000030 ea 2c 91 3d 51 88 46 bd 3c 68 f5 3b 4a 27 88 3d
       0.07088645 -0.048469845 0.0074892323 0.06648119
000040 62 a5 42 bd d4 3a e9 bc af bf 2a bd 23 de f4 bc
       -0.047521003 -0.028470434 -0.04168671 -0.02989108
000050 69 c4 80 3d 34 ad 21 bc 88 7e 26 bb 2a 3c cb bc
       0.06287462 -0.009867955 -0.0025405008 -0.024808962
000060 48 af fd bc d9 ee 1c 3c 3a de 26 bd c8 6a a4 3b
       -0.03096737 0.00957843 -0.040739276 0.005017612
000070 79 6b 02 3d f0 72 c3 bc 31 0e 1d 3d dc ac bd 3c
       0.031840775 -0.023858517 0.038343612 0.023153715
000080 67 f9 67 3d 04 1d 35 bc 16 c0 9f 3c 29 84 1d 3d
       0.056634333 -0.011054281 0.019500773 0.038456116
000090 69 c8 60 bd 7d fb 43 bd 42 e8 da 3c 1a 20 95 3c
       -0.054878626 -0.04784726 0.026722077 0.018203784
0000a0 f8 24 91 3d 24 5e 0e 3d 6a b2 d0 bc 33 73 a9 bc
       0.07087129 0.03475775 -0.0254757 -0.020684814
0000b0 ac 80 17 3c a0 32 e1 3c 9e 1a 49 bc 1d d3 49 bd
       0.009246986 0.02748996 -0.012274412 -0.0492736
0000c0 fe 68 07 bd ac e2 20 bd 0d a7 0c bd f2 8e 9c 3d
       -0.033059113 -0.03927867 -0.034339 0.07644452
0000d0 50 52 15 3d de be 8c 3c e6 3e 0f bd 0e 1b 4a 3d
       0.036455452 0.017180856 -0.034972094 0.049342208
0000e0 6b 2c 1a 3d 73 b2 7f 3d a8 db f4 3b 3a 78 e0 3a
       0.037640017 0.06242604 0.007472474 0.0017125674
0000f0 73 f0 8b 3c 54 02 98 bc 4c 1a 02 bd ea 25 c6 3c
       0.017082429 -0.018555798 -0.03176336 0.024188
000100 0d 4d 3f bd e1 40 18 3d a0 a8 2c 3b 7f 18 52 3c
       -0.04670434 0.03717125 0.0026345626 0.012823223
000110 e8 1b ab 3a 5a 01 42 3d 40 a8 a1 bb 40 29 79 3a
       0.0013054581 0.04736457 -0.004933387 0.0009504743
000120 53 9d 47 3d e6 dd ba bb 43 25 85 3d 29 e8 8d 3d
       0.04873402 -0.005702722 0.06501248 0.06929047
000130 32 7e 04 3d ec 18 29 3c 88 9c 70 3d 37 57 b0 bc
       0.03234691 0.010320883 0.05874303 -0.021525962
000140 e2 90 4a 3d ea bb ee 3c de 23 55 bd 4a d0 17 3d
       0.049454577 0.029142339 -0.05203616 0.037063874
000150 c2 c9 d9 3c 93 03 05 3c a0 9c 38 bc 42 35 60 bd
       0.026585463 0.008118528 -0.011267811 -0.05473829
000160 95 e6 1c 3c ad b6 54 bd 22 45 81 3d 1c 95 42 bd
       0.009576459 -0.051932026 0.06312014 -0.047505483
000170 b0 42 fa bc dc 5b 4b 3c 87 a1 04 3d a0 1c 47 bd
       -0.030549377 0.012412038 0.032380607 -0.048611283
000180 5c cb af 3b 1e 17 e2 3a e2 82 54 bd e8 bd c6 3a
       0.0053648185 0.0017249321 -0.051882632 0.0015162798
000190 f4 d3 17 bd 60 f5 d5 bc 47 d0 50 bd 9c 4c a3 bc
       -0.03706737 -0.02611798 -0.05097988 -0.019933991
0001a0 78 59 a9 3b c4 ce 4e bc e0 d0 9b 3c 2f 76 42 3c
       0.005168136 -0.012622539 0.019020498 0.0118689975
0001b0 9e 7d ba 3c fa a3 55 bd 10 4b 38 bd ee 48 9e 3c
       0.022764977 -0.052158333 -0.04499346 0.019321885
0001c0 00 85 1c bb 7a cf 9f 3d d2 91 a0 3c 0a 88 16 bd
       -0.0023882985 0.07803245 0.019600783 -0.03675083
0001d0 6d 10 11 bd 1c 84 16 bc f8 eb 33 bc c5 1e b8 3c
       -0.035416055 -0.009186771 -0.010981552 0.02247561
0001e0 d2 2a 68 bd f0 b5 56 bd 68 c0 d5 bb 25 fb 62 bc
       -0.05668146 -0.052419603 -0.0065231808 -0.013853823
0001f0 04 5a ed bc 27 cb 07 3d 10 08 be bc 33 53 1b 3d
       -0.028973587 0.033152726 -0.023197204 0.03792114

model.13.weight f4 [150, 256]
000000 47 05 99 bc 16 93 f6 3c 4a eb 30 3d 94 a8 cb bc
       -0.018679274 0.030099433 0.04319314 -0.024860658
000010 bc b9 2c 3d 96 84 08 bd aa aa 66 bd d2 60 62 bd
       0.042169318 -0.03332957 -0.0563151 -0.055268116
000020 04 6a 83 bc 84 cd 19 bd 52 2b c4 bc a8 30 45 bc
       -0.016041763 -0.03754951 -0.023946438 -0.012035526
000030 68 79 b0 bc 16 d7 08 3d f0 25 65 3c d0 84 2b bc
       -0.021542266 0.033408247 0.013986096 -0.010468677
000040 f0 f1 32 bd 98 b7 6f 3c 93 9b 0a 3d 5b 24 c0 3c
       -0.04368776 0.0146311745 0.033839773 0.023454836
000050 c6 be 1f 3c 78 4b e4 bc 2a 50 58 3d ba 1b 4a bd
       0.009750074 -0.027868018 0.052810825 -0.04934285
000060 ae b5 c9 3b f8 bd bc 3c dc 20 8b 3c 10 fb 5d 3c
       0.006155691 0.023039803 0.016983442 0.0135486275
000070 9a 30 bb ba 9e 76 a5 bc f8 6c 80 3d ae 56 58 3d
       -0.0014281452 -0.020198163 0.06270784 0.05281704
000080 c8 06 f2 3c 70 70 72 3c d0 dd be 3b 28 8a 57 bc
       0.02954425 0.014797315 0.005824782 -0.013155498
000090 c8 d0 19 3c 50 ef 72 bc f8 42 65 3d cc 90 0a 3d
       0.009388156 -0.014827564 0.05597207 0.033829495
0000a0 d8 8e d3 bb a2 9a e5 3c 88 57 e8 3c c0 61 6f 3c
       -0.0064562373 0.028027836 0.02836205 0.014610708
0000b0 d9 f5 6b bd 49 12 c9 3c 44 af e7 bc 40 52 1d bb
       -0.057607505 0.024544852 -0.028281815 -0.0024005324
0000c0 a2 9f 09 3d f0 ee 79 bc 23 80 58 bc dd 3e 27 bd
       0.033599503 -0.015254721 -0.013214144 -0.040831435
0000d0 8c a2 46 3d c2 fd 6d 3d ee 0d 76 bd 90 92 ed bb
       0.04849486 0.05810333 -0.060071878 -0.0072501376
0000e0 19 eb 24 3c 6a 0f 2d 3d b0 c2 a8 3b 60 f2 9f bb
       0.010065817 0.042251028 0.0051501617 -0.0048811883
0000f0 b3 72 e1 bb 59 ca 2c bd a2 01 a8 ba 58 a9 32 3c
       -0.0068801283 -0.04218516 -0.001281787 0.0109046325
000100 f7 e7 90 3b 7e f3 aa bc 8e 49 52 3d 80 0a 02 3b
       0.0044221836 -0.02086806 0.05133968 0.0019842684
000110 5b 2e 5e bd 75 7f 96 3c ca 21 9e 3c 56 5e 28 3d
       -0.054243427 0.018371323 0.019303221 0.04110559
000120 2c 15 4b bd 2c 0f 00 3d 18 5a 34 3d 70 e9 8a bb
       -0.049580738 0.03126447 0.044031233 -0.0042392537
000130 e0 96 ca 3b 98 16 09 bd 37 08 4b 3d 8a cc af bb
       0.0061825365 -0.033468813 0.04956838 -0.005364959
000140 5b a9 3c bd 88 6e 41 3d c2 96 72 bd 63 ed 0d 3d
       -0.046059947 0.04722455 -0.059225805 0.034650218
000150 44 81 c1 bc da 41 29 bd 96 ec 05 bd 1b 6b e7 bc
       -0.023621209 -0.041322567 -0.03269633 -0.028249314
000160 0c 43 f9 bc 50 29 d1 bc df ed 14 bd cb 04 81 3d
       -0.030427478 -0.025532395 -0.036359664 0.06299742
000170 75 43 92 3a 75 cd f0 3c 28 d5 03 bc 3c 07 0e bd
       0.001115902 0.029394845 -0.008046426 -0.034674868
000180 2a 99 05 bd c0 f4 6b bc c0 02 7f bc 2c 91 6d bd
       -0.03261677 -0.014401615 -0.0155646205 -0.057999775
000190 44 83 70 3d a0 e6 6b bd bc 52 25 bd b6 6d 5a 3c
       0.058718935 -0.057592988 -0.040362105 0.013331821
0001a0 2d 9f 41 3d 0e 5f 53 bd 79 f0 29 3d 7d 2f 05 bd
       0.047270942 -0.051604323 0.0414891 -0.03251599
0001b0 76 47 c5 bb 33 4c 49 3d 6c 9a b1 bc 5b 8d 08 bc
       -0.0060204817 0.049144935 -0.02168008 -0.008334483
0001c0 d4 0e 18 bd 58 1a 1b bc 83 a6 05 3d b7 46 78 bc
       -0.037123516 -0.00946673 0.0326295 -0.0151535785
0001d0 88 3d c4 3c d6 8b 6f 3d 9d 56 d1 bc b1 f9 74 bc
       0.023955122 0.058482967 -0.025553996 -0.014952109
0001e0 73 8d 07 3d 65 94 01 3d 36 52 7c 3d 2c 43 70 bd
       0.03309388 0.03163566 0.06160184 -0.05865781
0001f0 4c 5a e6 bc 00 24 6f b9 9a 90 25 3d 72 5d 5f 3d
       -0.028119229 -0.00022806227 0.040421106 0.054532476
000200 10 9c c9 bc 54 dc 83 bc cb 17 2c 3d 59 24 2b 3d
       -0.02461055 -0.016096272 0.04201488 0.04178271
000210 28 45 f1 bc 84 30 88 3c 91 cc d5 3a a8 2e 56 3d
       -0.029451922 0.016624697 0.0016311576 0.05229059
000220 5e 9f f7 bc 5b e3 4e 3d 5b 11 c6 bc 20 40 1d bd
       -0.03022736 0.05050979 -0.024178198 -0.038391232
000230 b8 50 01 bc 9c a3 fb bc a6 9a 1b 3d 00 08 99 bc
       -0.00789278 -0.030717663 0.03798928 -0.018680573
000240 45 5b 82 3d e2 e5 29 3d 85 47 94 bb 10 8e e0 3c
       0.063650645 0.041479 -0.0045251274 0.02741149
000250 10 04 14 bd f6 a7 33 bd 14 47 3c bd 48 39 bc bc
       -0.036136687 -0.043861352 -0.045966223 -0.022976533
000260 92 39 29 3d 5b 11 49 bd d8 e4 f0 3c 00 8b 41 3d
       0.04131467 -0.049088817 0.029405996 0.0472517
000270 a9 52 62 bc 14 70 66 3d 33 70 2a 3d cb be eb 3c
       -0.013813653 0.05625923 0.041610908 0.0287775
000280 3f ec 17 3d 28 be 0c bd 47 e6 61 bd a5 0a 99 3b
       0.037090536 -0.034361035 -0.05515125 0.0046704584
000290 f6 ad 52 3d f4 f3 69 3d 6e c4 5e bd da 1a 7f 3c
       0.051435433 0.057117417 -0.05438655 0.015570367
0002a0 ce 73 18 3d e6 fd 2b 3d 7c 86 40 3a 5b 03 26 bd
       0.037219815 0.041990183 0.00073442585 -0.040530544
0002b0 40 38 df 3c 28 43 5c bc 10 46 9e bb e0 aa 12 3c
       0.027248502 -0.013443746 -0.0048301294 0.008951873
0002c0 e0 67 b4 bb 5a 15 9f 3c 1e 27 3f 3d 84 6a f9 bc
       -0.005505547 0.01941936 0.046668164 -0.030446298
0002d0 ad 39 ee 3c 5f 8a f8 bc c0 b0 6b bd 20 97 75 3b
       0.029080236 -0.030339418 -0.05754161 0.003747411
0002e0 5e 57 2c 3d 90 92 42 3c 6c ac 25 3d b0 64 19 bd
       0.042075507 0.011875764 0.040447637 -0.03744954
0002f0 13 0c 05 3d ae b9 0f bd 50 b6 c6 3b 74 b8 4a 3d
       0.032482218 -0.035089187 0.006064214 0.049492314
000300 55 83 3a bb b6 31 50 3d 28 e9 4e 3d 7c 3b 72 3d
       -0.0028459628 0.050828658 0.050515324 0.05913876
000310 5a f9 29 3d 6c 12 78 3d 2e 0e bc 3c c0 9f 15 3c
       0.041497566 0.060564443 0.02295598 0.009132326
000320 52 7d 68 3d 10 cd e4 bb 30 43 4b 3c ca af 2f bd
       0.05676014 -0.006982453 0.0124061555 -0.042892255
000330 4c b9 94 3c ec c7 de 3c 14 a2 cc 3c e8 80 e5 3c
       0.018154763 0.02719494 0.024979629 0.028015569
000340 4e c7 51 bd 50 84 e5 3b d0 c2 72 bc 70 41 33 3d
       -0.051215462 0.0070042983 -0.014816955 0.043763578
000350 dd df 64 3d c1 46 27 bd 58 ac 72 3d 23 30 6f bb
       0.055877555 -0.04083896 0.05924639 -0.0036497198
000360 9c 4c ab bc 1e da d2 3c c8 bd e8 3c 28 5c 09 bc
       -0.020910554 0.025738772 0.028410807 -0.008383788
000370 58 16 5e bd d4 c2 ba 3c 8c 40 11 3d 56 04 02 3d
       -0.054220527 0.02279798 0.035461947 0.031742416
000380 a0 95 07 bb 7c b6 1e bd 37 67 36 3d 3e 65 e4 3c
       -0.0020688549 -0.03874825 0.044532027 0.027880307
000390 20 2f 95 bc f0 0e 52 3d c0 aa 56 bb aa d5 72 bd
       -0.018210948 0.051283777 -0.0032755584 -0.059285797
0003a0 0c b6 21 bc 1c 45 07 bd 48 f1 c6 3c 88 19 2b bd
       -0.0098700635 -0.033024892 0.024284974 -0.041772395
0003b0 ba 70 74 3d 50 08 4e 3c 79 d2 0a bd 3f 86 2b bd
       0.059677817 0.012575224 -0.03389213 -0.041876074
0003c0 80 72 c5 3c 94 c9 f7 3c 16 8c 4f bd 10 35 22 bd
       0.02410245 0.030247487 -0.050670706 -0.039601386
0003d0 22 87 30 bd 7e 9b 3b bd 34 18 0e bd 70 22 f2 bc
       -0.043097623 -0.045802586 -0.03469105 -0.029557437
0003e0 2d 91 14 3c 71 d8 0e bd d2 39 97 3b 7c 46 52 bd
       0.009067816 -0.034874383 0.004615047 -0.05133675
0003f0 1e 0e 23 bd c8 1f e3 3c 14 3a 6a bd fd 4d 37 bd
       -0.039808385 0.027725115 -0.057184294 -0.04475211

model.13.bias f4 [150]
000000 d1 d3 2d 3d 77 48 45 bc a5 c1 4c 3d 75 1d d2 bc
       0.042438332 -0.012041203 0.04998936 -0.025648812
000010 17 28 34 3c 79 c5 33 3d 99 38 92 3c 4c cc f8 bc
       0.010995886 0.043889496 0.017849253 -0.030370854
000020 33 05 1e 3d 01 e3 79 bd ac 2d 8c bd 2e fe bb bc
       0.038579177 -0.061007503 -0.06844649 -0.02294835
000030 8c 0e b9 3b a8 8e 3e 3d 92 b5 d5 3c c8 ca dd bc
       0.005647486 0.046522766 0.026087556 -0.027074233
000040 9a ea 75 3d 33 ff 64 3c 4e 86 58 3d 7b 80 e3 3c
       0.060038187 0.01397686 0.052862458 0.027771225
000050 65 6a 2c 3d 19 24 34 bd b2 3b 94 bd d6 58 8a bd
       0.042093653 -0.043979738 -0.072379485 -0.06755225
000060 0e ae 13 bd cb 24 cb bc 6d fc 04 3d f3 35 73 bd
       -0.036054663 -0.024797818 0.032467294 -0.05937762
000070 ab 2c 79 bd af 9b 89 bd 4e 91 80 3d 14 f5 1d 3c
       -0.060833614 -0.067191474 0.06277715 0.009640951
000080 5f b5 37 bd e8 a0 5e 3d a6 97 bb 3d cb 40 bf bd
       -0.044850703 0.05435267 0.09159784 -0.0933853
000090 38 d3 67 bd 83 ce 4b 3d e3 74 80 3d 3b 21 3b 3d
       -0.05659792 0.04975749 0.06272294 0.045685988
0000a0 20 a4 bf 3d dc 02 8c bc 75 fb 3a bd 64 77 3c bc
       0.09357476 -0.017091207 -0.045649964 -0.011503074
0000b0 12 ed 96 3d 59 21 c2 bd 7c ea 8e bb 57 a4 96 3d
       0.07369436 -0.09479017 -0.004361449 0.07355564
0000c0 ff 36 85 3d cc fb 75 3c b0 a2 80 bd 9d 45 53 bd
       0.0650463 0.015013646 -0.0628103 -0.05158006
0000d0 a8 37 c9 3b 43 84 50 3c e5 f0 b1 3c 0a 11 2a 3c
       0.006140668 0.012726846 0.021721313 0.010380039
0000e0 e3 73 7c 3a d0 54 4b bd 45 b5 1b 3d 1a cd c5 3c
       0.00096303056 -0.04964143 0.03801467 0.024145652
0000f0 7b e4 3a 3d fd d7 4d bd 2e f6 26 3d 3a b4 70 3b
       0.045628052 -0.05025481 0.04076212 0.0036728517
000100 45 e0 9e bd 41 24 8a 3c 1a 41 69 bd cd f3 4a bd
       -0.0775762 0.01686299 -0.05694685 -0.049548913
000110 6f 00 84 3b 61 f6 f2 ba d5 96 35 bd a3 9c 06 3b
       0.004028372 -0.0018536561 -0.044333298 0.002054014
000120 de 75 2b bd e3 59 c4 3d 6e 29 43 bb 6d a3 ab bc
       -0.041860454 0.09587457 -0.0029779333 -0.02095195
000130 8e 9e 02 bd a3 6f 96 bd c4 0a 74 bc af 53 5f bd
       -0.03188949 -0.07345512 -0.014895145 -0.054523166
000140 72 48 a8 3d d3 17 bb bc 34 e0 69 bd 11 4b e9 bc
       0.08216943 -0.022838509 -0.057098582 -0.028478177
000150 68 fb 01 3d 32 89 7a bd 6b 2a 3d bd 9d 25 0a bc
       0.0317339 -0.061165996 -0.04618303 -0.008431819
000160 a3 14 08 3d 86 28 16 3d 89 0f 9d 3c a2 c6 1c 3d
       0.033222806 0.03665974 0.019172447 0.03827537
000170 b3 66 3d 3b 25 e6 6f bd db fc a2 bd a5 e7 c4 bd
       0.0028900325 -0.058569092 -0.079583846 -0.09614495
000180 53 e9 54 3d dc e8 ba bc 55 c1 bf 3d a5 d5 b4 3b
       0.051980328 -0.022816114 0.09363047 0.0055186325
000190 37 72 e1 3c 1d 55 89 3d 3a 13 49 bd 03 3d 0e bc
       0.027520282 0.06705687 -0.0490906 -0.0086815385
0001a0 cb dd 67 3d ac e3 5e 3c 30 14 ee bd 46 16 4a 3d
       0.056608003 0.013604086 -0.11624944 0.049337648
0001b0 52 00 ca bd d7 d2 ca bc 63 f3 36 3d 98 86 f4 3c
       -0.09863342 -0.02475874 0.044665705 0.029849336
0001c0 be 10 99 3c 43 7a ed 3b 4d eb b0 3d a1 40 84 bd
       0.018684741 0.0072472407 0.0863863 -0.064576395
0001d0 cf e5 c8 3c 27 fe 00 3c 15 f0 84 bd 33 5e f8 bc
       0.024523644 0.007873095 -0.064911045 -0.030318355
0001e0 9c a0 d8 3c 79 90 4d 3d 14 5e 41 3d 91 84 14 bd
       0.026443772 0.050186608 0.04720886 -0.036259238
0001f0 1d 87 ad 3c 74 d1 6f bd 29 0c 5b 3a be 42 3a bd
       0.021182591 -0.05854936 0.0008355999 -0.045473807
000200 8f 93 3e bd 08 59 2c bd a5 f2 95 bc f6 2a 6e 3b
       -0.04652744 -0.042077094 -0.018304178 0.0036341525
000210 a4 47 c4 bd 99 4e 92 3b 67 3c 87 3d 44 cb d8 bc
       -0.09583977 0.004464936 0.06603318 -0.026464112
000220 93 83 3c 3d 01 f6 2d 3d d1 4c 99 bd d7 59 2f bd
       0.046023916 0.042470936 -0.07485355 -0.042810287
000230 a6 97 a0 bc c9 05 74 bd bf c0 be bd 6a 9b 2f 3d
       -0.019603562 -0.05957583 -0.09314107 0.042872824
000240 81 ba 1b bd c2 9c db 3b 7a f6 b9 bd 8f 94 29 3d
       -0.03801966 0.0067020366 -0.09080215 0.041401442
000250 03 e4 3f bd 02 1b 45 3c
       -0.04684831 0.012030365
