Classifier_Model/ClasifierWithEfficientNetV2S/lightning_logs/version_12/checkpoints/epoch=50-step=204.ckpt (torch, 419582 bytes, 12 tensors)

model.0.weight f4 [32, 8, 3]
0	0x3e1fce66	0.15606079
1	0x3e2d7da8	0.16942465
2	0xbd43df9c	-0.047820672
3	0x3e4002d2	0.18751076
4	0xbd3730dc	-0.04472433
5	0x3d28b738	0.041190356
6	0xbdcb8726	-0.09937887
7	0x3df582e4	0.11987856
8	0x3e38434a	0.17994419
9	0xbe195862	-0.14975122
10	0x3e35ae9e	0.17742392
11	0x3d1c7b84	0.03820373
12	0x3e1a6d9a	0.15080872
13	0x3ce27708	0.02764465
14	0x3dc993b4	0.09842625
15	0xbcec18f8	-0.0288205
16	0x3e21220a	0.15735641
17	0x3cf729f0	0.030171365
18	0xbdc32922	-0.0952933
19	0x3d551e58	0.05203089
20	0xbdc09bf6	-0.09404747
21	0xbcc41a18	-0.023938224
22	0xbda9cb00	-0.08290672
23	0x3e0aa8ee	0.13541004
24	0xbe24ff23	-0.16112952
25	0xbdc0b941	-0.094103344
26	0xbd6c1768	-0.05763951
27	0xbdfb5c16	-0.122734234
28	0x3c9dd378	0.019265875
29	0xbe4e72a2	-0.20160916
30	0x3e3cc54c	0.18434638
31	0xbe318efa	-0.17339697
32	0x3e215f20	0.15758944
33	0x3d0b244c	0.033970162
34	0xbd87bdd4	-0.06628004
35	0x3e012a74	0.12613851
36	0x3d024e40	0.031812906
37	0x3e28e20e	0.16492483
38	0x3cb6cd80	0.022314787
39	0xbd83d730	-0.06437528
40	0x3d60a4f8	0.054844826
41	0xbd62bb28	-0.055354267
42	0x3daff01c	0.08590719
43	0x3e3a9ed8	0.18224657
44	0x3df1a7d8	0.11799592
45	0xbdb6c223	-0.089237474
46	0x3df152c8	0.117833674
47	0x3d159950	0.036523163
48	0x3dd44c6c	0.10366139
49	0xbdfecd23	-0.124414705
50	0xbe4ee9ed	-0.20206423
51	0xbda1843e	-0.07886551
52	0xbe205355	-0.15656789
53	0x3e2b82f8	0.1674918
54	0x3d70d220	0.05879414
55	0x3dad2910	0.08455098
56	0x3d843638	0.06455654
57	0xbb68b6c0	-0.0035509318
58	0x3e23954e	0.15974924
59	0xbe148387	-0.14503299
60	0x3c5292f0	0.012852415
61	0xbe0eaaac	-0.13932294
62	0x3d80e7c8	0.06294209
63	0xbd8ff7be	-0.07029675
64	0x3d8018a0	0.06254697
65	0xbd2e3158	-0.042527527
66	0x3e2d5cb2	0.16929892
67	0xbdf7c6de	-0.12098478
68	0xbdf9526c	-0.12173924
69	0xbdf95646	-0.121746585
70	0x3e3c011e	0.18359801
71	0x3d8b507c	0.068024606
72	0x3e4921f6	0.19641861
73	0xbe2c8078	-0.16845882
74	0xbe4f5337	-0.20246588
75	0xbe23883a	-0.15969935
76	0xbe0c9b8a	-0.13731208
77	0x3da95354	0.08267847
78	0x3d95b138	0.073091924
79	0x3e2daeb4	0.16961175
80	0xbdd7e3c3	-0.10541489
81	0xbe0e7e58	-0.13915384
82	0x3dddce64	0.108303815
83	0xbda8f9e7	-0.0825079
84	0x3dfdb8e4	0.12388781
85	0xbd4667c0	-0.048438787
86	0x3def2444	0.11676839
87	0xbe22677f	-0.15859793
88	0xbdd2f78a	-0.103011206
89	0x3d7ee7a8	0.062232643
90	0x3d30c19c	0.04315339
91	0xbd552b4c	-0.052043244
92	0x3df92f44	0.12167218
93	0x3e0e188a	0.13876548
94	0xbe1793f8	-0.1480254
95	0xbddf2e7e	-0.108975396
96	0x3e3f6500	0.18690872
97	0xbd8d0ffa	-0.06887813
98	0xbd94344a	-0.07236536
99	0xbe4a3fea	-0.19750944
100	0xbdef6714	-0.116895825
101	0x3d50dbe8	0.05099097
102	0xbcdcb790	-0.026942998
103	0xbe17ba1a	-0.14817086
104	0x3b9ce540	0.004788071
105	0xbe0ec7a4	-0.13943344
106	0xbe3155a4	-0.17317826
107	0xbde633d4	-0.11240354
108	0xbe36f088	-0.17865193
109	0xbe0517ce	-0.12997362
110	0x3e50f0fe	0.20404431
111	0x3d1deabc	0.03855394
112	0x3d80d334	0.06290284
113	0xbe42f3dd	-0.19038339
114	0xbe0947ea	-0.1340634
115	0xbd8b262e	-0.067943916
116	0x3d02bda0	0.03191912
117	0xbe37ec85	-0.17961319
118	0xbdb41ff7	-0.08795159
119	0xbdfa456b	-0.12220272
120	0x3a144a00	0.0005656779
121	0xbd9b8e6e	-0.07595526
122	0xbc67c030	-0.014144942
123	0xbe0da3ea	-0.1383206
124	0xbe0f78f4	-0.14010984
125	0xbdf3e392	-0.1190864
126	0xbd8f189e	-0.06987117
127	0xbe24fa5c	-0.1611113
128	0x3e2f4274	0.17115194
129	0xbd25ef30	-0.04051131
130	0x3e33d7c4	0.17562777
131	0x3d824178	0.063601434
132	0xbe31000a	-0.17285171
133	0x3e10a6c0	0.1412611
134	0xbd660be8	-0.0561637
135	0xbda03f7e	-0.0782461
136	0xbe2d8102	-0.16943744
137	0xbe4fcd75	-0.2029322
138	0x3d6f3708	0.05840209
139	0xbd36a3a8	-0.04458967
140	0x3da2c14c	0.07947025
141	0xbe2b89a3	-0.16751723
142	0x3e1b2f54	0.15154773
143	0xbe196f28	-0.14983809
144	0xbd105ef4	-0.035246804
145	0x3d2ea268	0.04263535
146	0x3dd7d130	0.10537946
147	0x3e28bf1e	0.16479155
148	0x3e3e695c	0.18594879
149	0xbe25bd34	-0.16185457
150	0x3d526ac8	0.051371366
151	0xbdb3d003	-0.087799095
152	0xbcb73f00	-0.022368908
153	0xbe1c73a6	-0.15278491
154	0x3e3e63fa	0.18592826
155	0xbe1969a2	-0.14981702
156	0x3ddf6ce4	0.10909441
157	0x3d92eb04	0.07173732
158	0x3d87d8bc	0.06633136
159	0xbde203df	-0.110358946
160	0x3e3dfdec	0.18553895
161	0x3d37bb50	0.04485637
162	0x3cd71c28	0.026258543
163	0xbe3833e0	-0.17988539
164	0x3daf7db4	0.08568898
165	0xbcfadcb8	-0.030622825
166	0xbdbf8464	-0.093514234
167	0x3e338a2a	0.17533174
168	0x3d3a67e4	0.045509234
169	0xbde74b8e	-0.11293708
170	0xbdd396e9	-0.10331518
171	0xbc1fb680	-0.009748101
172	0x3de96bbc	0.11397502
173	0xbd55a660	-0.05216062
174	0xbdee86d6	-0.11646812
175	0xbd8f282e	-0.069900855
176	0xbe1c27ea	-0.15249601
177	0x3d9516c0	0.0727973
178	0x3e21cad4	0.15800029
179	0xbe44c866	-0.19217071
180	0x3d422ee0	0.047407985
181	0x3dd7f594	0.10544887
182	0x3d179bb0	0.03701371
183	0xbd94e068	-0.072693646
184	0x3dda322c	0.10654101
185	0x3ddbb058	0.10726994
186	0x3d9c51a4	0.07632759
187	0xbd12eb5c	-0.035868987
188	0xbd5d65fc	-0.054052338
189	0x3cb2e450	0.021837384
190	0xbd13b2fc	-0.036059365
191	0xbd79280c	-0.060829207
192	0x3e059bea	0.13047758
193	0x3e33a268	0.17542422
194	0xbca58ab8	-0.020207748
195	0xbd3b32d0	-0.045702755
196	0x3b433540	0.0029786378
197	0xbc47afc0	-0.012187898
198	0x3d490190	0.049073756
199	0x3d6a4d20	0.05720246
200	0xbe3dd8c0	-0.18539715
201	0xbd9a465c	-0.07532951
202	0x3e300648	0.17189896
203	0x3da2da1c	0.07951757
204	0xbc265740	-0.010152638
205	0xbdfc0ae1	-0.123067625
206	0xbdffc349	-0.124884196
207	0xbe3b3c6a	-0.18284765
208	0xbd884472	-0.0665368
209	0x3d8d2d0c	0.06893358
210	0x3e054716	0.13015398
211	0x3dc102c8	0.094243586
212	0xbe38c3c7	-0.18043433
213	0xbdfb65b8	-0.12275261
214	0xbd03f308	-0.032214195
215	0x3e4a32cc	0.1974594
216	0x3cf1e4e0	0.029528081
217	0xbd588604	-0.052862182
218	0x3dacf3bc	0.08444926
219	0xbd9f39e2	-0.07774712
220	0xbe074a9a	-0.13212052
221	0x3e189036	0.14898762
222	0xbdbe161d	-0.092815615
223	0xbd279bd8	-0.04092011
224	0xbe4fefe6	-0.20306358
225	0x3e0be49e	0.1366143
226	0x3e1e5cf8	0.15465152
227	0x3d985b30	0.07439268
228	0xbe11bf17	-0.14233051
229	0xbe4e4b14	-0.20145828
230	0xbe29c3a2	-0.16578534
231	0x3e1bde5c	0.15221542
232	0x3dc8b4d8	0.09800118
233	0x3e2fe4d6	0.17177138
234	0x3ddb0078	0.10693449
235	0x3d539bc8	0.051662236
236	0xbb030040	-0.0019989163
237	0xbe1ef69e	-0.15523764
238	0xbe3315d0	-0.1748879
239	0xbe43826f	-0.19092725
240	0x3dab21dc	0.083560675
241	0xbdcd3f51	-0.10021842
242	0xbd28440c	-0.04108052
243	0xbdf0967c	-0.117474526
244	0xbd185b14	-0.037196234
245	0xbe131e26	-0.1436697
246	0xbe089439	-0.13337792
247	0x3d8aaba4	0.06771019
248	0xbd787bd4	-0.060664967
249	0x3e0109fc	0.12601465
250	0xbd861ce8	-0.06548482
251	0xbe195520	-0.14973879
252	0xbd1384f0	-0.03601545
253	0xbdcaa598	-0.09894866
254	0xbd7fcba4	-0.062450066
255	0xbe46fd36	-0.1943253

model.0.bias f4 [32]
0	0xbe06886c	-0.13137978
1	0x3e4e90e1	0.20172454
2	0x3d9fc982	0.078021064
3	0x3da7c8fd	0.08192632
4	0xbdfa1dc4	-0.122127086
5	0xbdb74515	-0.08948723
6	0xbcfc6c58	-0.030813381
7	0xbd18e790	-0.03733021
8	0xbe0f3b96	-0.13987574
9	0x3c898ee6	0.016791772
10	0x3ca5c91c	0.020237498
11	0xbcd3bbd8	-0.025846407
12	0x3ce7d0af	0.02829775
13	0xbda5b162	-0.08090474
14	0x3d59a140	0.053132296
15	0x3d9da1a2	0.07696845
16	0xbddc3387	-0.107520156
17	0xbe4f4351	-0.20240523
18	0x3ddad049	0.106842585
19	0x3d477659	0.04869685
20	0xbdd49d01	-0.103815086
21	0x3e496d5b	0.19670622
22	0xbdbd0f82	-0.092314735
23	0x3e0d3c13	0.13792448
24	0x3dd416b9	0.103558965
25	0xbe2f3f27	-0.17113934
26	0x3e06cb9c	0.13163608
27	0xbe4030ed	-0.18768664
28	0xbde79a91	-0.11308778
29	0xbd0b639c	-0.03403054
30	0xbe0ce42d	-0.13758917
31	0x3e4c32e7	0.19941293

model.2.weight f4 [64, 32, 3]
0	0xbca7b400	-0.020471573
1	0x3d260b30	0.040538013
2	0xbdbaa3a6	-0.09113245
3	0x3d70a7bc	0.058753714
4	0xbd01ec08	-0.031719238
5	0xbd9eff76	-0.07763569
6	0x3c748308	0.014923818
7	0x3d4a8708	0.049445182
8	0x3db4e354	0.08832422
9	0xbd7f56ef	-0.062338766
10	0xbd4db8ed	-0.050225187
11	0x3ca0bfe4	0.01962275
12	0x3ce2cca8	0.027685478
13	0x3d20ba28	0.039240032
14	0x3d65748c	0.05601935
15	0xbcbd964c	-0.023142956
16	0x3d6840fc	0.0567026
17	0x3d9a1c6a	0.07524951
18	0xbcda67c8	-0.026660815
19	0x3d94b606	0.07261281
20	0x3d4c3fb4	0.04986544
21	0x3db85e94	0.09002414
22	0xbd6d9096	-0.057999216
23	0xbd4e6f5c	-0.05039917
24	0xbcf1bf34	-0.029510118
25	0x3ba9a5c0	0.0051772296
26	0x3d7ae934	0.061257556
27	0xbd6ea5a2	-0.05826343
28	0x3d514be8	0.05109778
29	0xbd15d1ec	-0.03657715
30	0x3d7c8bb0	0.061656654
31	0xbb9ec810	-0.0048456267
32	0xbdb71f58	-0.08941525
33	0xbd66073a	-0.056159236
34	0xbd9747ea	-0.073867634
35	0x3d4f55d4	0.05061896
36	0xbd8c28fc	-0.06843755
37	0xbc0b52d0	-0.008503631
38	0x3cb46450	0.022020489
39	0xbd65411d	-0.0559703
40	0x3cf13008	0.029441848
41	0xbdcc1857	-0.0996558
42	0xbd958ecd	-0.07302628
43	0xbdbd6698	-0.09248084
44	0xbcfce628	-0.030871466
45	0xbd184b0c	-0.037180945
46	0x3c6f7220	0.014614612
47	0xbc9a9b08	-0.018872753
48	0x3d44841c	0.04797755
49	0x3dbfa1a6	0.09357004
50	0x3d15fdc4	0.036618963
51	0xbd24b257	-0.04020914
52	0xbdc3b9ec	-0.09556946
53	0x3d176acc	0.036967084
54	0xbd4f1fd3	-0.05056746
55	0x3d54bbdc	0.05193697
56	0x3d8bba94	0.06822696
57	0x3d213fc0	0.039367437
58	0x3dc420f0	0.09576595
59	0x3dc68788	0.09693819
60	0x3cb108bc	0.02161061
61	0xbd984d4c	-0.07436618
62	0x3dbabffa	0.09118648
63	0xbd465c77	-0.048428025
64	0xbd457735	-0.048209388
65	0x3daee7f6	0.08540337
66	0x3da1f40a	0.07907875
67	0x3cfca060	0.030838192
68	0x3bd1a350	0.006397642
69	0xbdafd2b9	-0.08585114
70	0xbc2d9468	-0.010594465
71	0x3dc87ac6	0.09789042
72	0x3cd4eb18	0.025991008
73	0x3c0f2b50	0.008738354
74	0xbcad9d90	-0.021193296
75	0xbd11cea0	-0.035597444
76	0x3d792a44	0.060831323
77	0x3bce3e10	0.0062940195
78	0x3d87fc2c	0.06639895
79	0xbc93fcbc	-0.01806485
80	0x3d36a5f4	0.04459186
81	0x3d2c8e94	0.04212816
82	0x3c8553a8	0.016275242
83	0x3d835832	0.06413306
84	0x3d82fbc6	0.06395678
85	0x3dc1bf98	0.09460372
86	0x3da0b124	0.07846287
87	0xbcd5c93c	-0.026096933
88	0xbdb0f695	-0.08640782
89	0x3c98da30	0.018658727
90	0xba698600	-0.0008908212
91	0xbcda12fc	-0.02662038
92	0xbc8c01f4	-0.017090775
93	0x3b9d4b90	0.0048002675
94	0x3d988270	0.07446754
95	0x3d025280	0.03181696
96	0xbd147224	-0.036241665
97	0xbd2be93b	-0.041970473
98	0xbccf0aec	-0.025273763
99	0xbd219227	-0.039446022
100	0x3dbbf5fd	0.09177778
101	0x3d5d6be7	0.05405798
102	0x3dbcbe6d	0.09216008
103	0x39ab25fd	0.00032643965
104	0x3ca89e9e	0.020583447
105	0x3d10f73b	0.035392027
106	0xbdc5d9b6	-0.09660666
107	0x3c15543b	0.00911432
108	0xbbdfb470	-0.0068269297
109	0xbd6a611c	-0.057221517
110	0xbda230e2	-0.0791948
111	0x3db90af6	0.09035294
112	0x3da9f31a	0.08298321
113	0x3d41c058	0.047302574
114	0x3dc775d4	0.09739271
115	0xbd29a57e	-0.04141759
116	0xbc906984	-0.017628439
117	0x3d1e47b4	0.0386426
118	0xbc8a250c	-0.016863368
119	0xbca4120c	-0.020028137
120	0xbdacc53d	-0.08436058
121	0x3ce0a030	0.027420133
122	0xbd7ca301	-0.06167889
123	0x3b734048	0.0037117172
124	0x3dcbcade	0.09950803
125	0xbd00ae4d	-0.031416226
126	0xbd03c3b0	-0.032169044
127	0x3d7c368a	0.06157545
128	0xbd19b21c	-0.037523374
129	0xbc0f9a58	-0.008764826
130	0x3dc32c46	0.09529929
131	0xbd2b6353	-0.04184277
132	0xbd95898a	-0.07301624
133	0xbd69f4cc	-0.057118222
134	0xbce7cd2c	-0.028296076
135	0xbd465cc8	-0.048428327
136	0xbd58efff	-0.052963253
137	0x3d28de14	0.041227415
138	0x3c8e161f	0.017344533
139	0xbd05cc91	-0.032665793
140	0xbda2644e	-0.07929288
141	0xbd039fc0	-0.03213477
142	0xbd306e10	-0.043073714
143	0xbd0809c8	-0.033212453
144	0xbdbc9088	-0.09207255
145	0x3cb41e60	0.02198714
146	0xbd999300	-0.07498741
147	0xbda2c97c	-0.07948586
148	0xbdaac762	-0.083388105
149	0x3d2e7c54	0.042599037
150	0xbd7bac1a	-0.061443426
151	0xbd2c8bd4	-0.042125538
152	0x3da3d79f	0.08000111
153	0x3d5df811	0.054191653
154	0x3d6fb495	0.058521826
155	0xbdc677de	-0.096908316
156	0xbd95e3f4	-0.07318869
157	0xbd1dd12c	-0.03852956
158	0x3dacac6c	0.08431324
159	0x3c2b15e1	0.010442228
160	0xbd9c534b	-0.076330744
161	0x3a27dc34	0.0006403357
162	0xbda25798	-0.079268634
163	0xbcb72ff0	-0.022361726
164	0xbce5e794	-0.028064527
165	0x3db4f1f3	0.08835211
166	0x3d017cdd	0.03161322
167	0xbc91c884	-0.017795809
168	0x3c8d3ed0	0.017241865
169	0xbcf15884	-0.029461153
170	0x3d2440d2	0.04010088
171	0x3d255d30	0.040372074
172	0x3ce08788	0.027408376
173	0xbd22f1de	-0.039781444
174	0x3db25482	0.08707525
175	0xbc716657	-0.014733872
176	0xbd22bfbf	-0.039733645
177	0x3d82ea04	0.06392291
178	0x3daa5d9e	0.08318637
179	0x3dd002ec	0.10156807
180	0x3cf7b308	0.030236736
181	0xbd0e8268	-0.034792334
182	0x3d545288	0.05183652
183	0x3db35514	0.08756462
184	0xbdcd045c	-0.10010597
185	0xbc4f2970	-0.012644157
186	0xbd8e8bec	-0.06960282
187	0x3c9bd064	0.019020267
188	0x3d2ce5c8	0.042211324
189	0xbcacb768	-0.021083549
190	0xbc0bde9d	-0.008536962
191	0x3d3c2c1e	0.04594051
192	0xbc8c8598	-0.017153546
193	0xbdaf8889	-0.08570964
194	0x3da73f36	0.081663534
195	0xbd5268a3	-0.05136932
196	0xbc37b428	-0.011212386
197	0x3c1dbb30	0.0096271485
198	0xbbc8fc70	-0.0061336085
199	0xbdc4a009	-0.09600837
200	0x3d3fccb4	0.04682608
201	0xbd3de3c9	-0.04635981
202	0xbd58d2de	-0.052935474
203	0x3cc7c160	0.0243842
204	0xbd5a2998	-0.053262323
205	0xbd413440	-0.04716897
206	0xbd0cdc54	-0.03438981
207	0xbd1d0cf4	-0.03834243
208	0xbd2e977f	-0.042624947
209	0xbce17b7c	-0.027524702
210	0x3cd947b8	0.026523456
211	0xbda92530	-0.08259046
212	0xbd7d0900	-0.06177616
213	0x3ac33280	0.001489237
214	0x3c688c30	0.01419358
215	0x3d66e240	0.056368113
216	0xbd92d3b9	-0.07169289
217	0x3d057068	0.032577902
218	0x3d6d9cfc	0.05801104
219	0x3d681fdc	0.05667101
220	0xbdc2b04b	-0.095062815
221	0xbd1f8738	-0.038947314
222	0xbdb3ab4a	-0.08772905
223	0xbd8445b0	-0.06458604
224	0x3d68d838	0.056846827
225	0xbc79b068	-0.015239812
226	0x3d318c8c	0.043346927
227	0xbd756553	-0.059911083
228	0x3c7e1ae8	0.015509345
229	0xbd7cdbcd	-0.061733056
230	0x3d50fa5c	0.05102001
231	0xbd36d83c	-0.04463981
232	0xbcd1a868	-0.025592998
233	0xbdb55ae2	-0.08855225
234	0x39b0c600	0.00033716857
235	0x3dc6769c	0.09690592
236	0x3d4ae918	0.0495387
237	0xbd5f0b78	-0.054454297
238	0x3ab3e900	0.0013726056
239	0xbc375a40	-0.011190951
240	0xbda84775	-0.08216754
241	0x3da3e4a8	0.08002597
242	0x3ad7a780	0.0016453117
243	0x3cb01420	0.021493971
244	0xbd28d1b7	-0.041215625
245	0xbd439ca1	-0.047756795
246	0x3c89dce8	0.01682897
247	0x3d1a8e68	0.037733465
248	0x3cbb88ac	0.022892319
249	0xbd4979af	-0.049188312
250	0x3dcaf0aa	0.09909184
251	0xbc762728	-0.015023984
252	0xbd800248	-0.06250435
253	0xbd438689	-0.047735725
254	0x3dcdc448	0.10047203
255	0x36a50000	4.917383e-06

model.2.bias f4 [64]
0	0xbdae844f	-0.085213296
1	0x3da1dbf7	0.07903283
2	0xbda3fcb9	-0.080071874
3	0xbda06fbb	-0.07833811
4	0x3c621497	0.013798854
5	0xbc3019b0	-0.010748312
6	0x3b808992	0.0039226497
7	0x3c036016	0.008018514
8	0x3dcf4578	0.10120672
9	0xbdcaf242	-0.09909488
10	0xbd7b58ce	-0.061363988
11	0x3c9a3b34	0.018827058
12	0xbdba1483	-0.090859435
13	0xbda5225c	-0.08063194
14	0x3da03980	0.07823467
15	0x3d21defc	0.039519295
16	0xbd01ac26	-0.031658314
17	0x3cdc5a13	0.02689842
18	0x3c91c6cd	0.01779499
19	0xbc24301c	-0.010021236
20	0x3dad90ed	0.08474908
21	0xb86ac70c	-5.5975324e-05
22	0x3d943ffd	0.07238767
23	0xbda2b39a	-0.079444125
24	0xbd29db06	-0.041468643
25	0x3c8df45c	0.017328434
26	0x3d5f4f18	0.05451879
27	0xbd2a332e	-0.041552715
28	0x3d96e3ca	0.07367666
29	0xbdad68a7	-0.084672265
30	0xbd1f76ee	-0.03893178
31	0x3d9d3505	0.07676128
32	0xbd9c3300	-0.07626915
33	0xbdc408f8	-0.09572023
34	0xbcd308f4	-0.025761105
35	0xbdae24f7	-0.08503144
36	0x3cf84000	0.030303955
37	0xbc92ffec	-0.017944299
38	0xbcf61c2c	-0.03004273
39	0x3d67204e	0.056427293
40	0x3bc2e52c	0.0059477296
41	0xbdbc725c	-0.092015
42	0xbdc62229	-0.09674484
43	0x3d835641	0.06412936
44	0x3d33f683	0.043936264
45	0x3d65b2a3	0.056078564
46	0xbdb1862a	-0.08668168
47	0xbca191b4	-0.019722797
48	0x3db2a588	0.08722979
49	0x3da8df0a	0.08245666
50	0x3d8dea55	0.06929461
51	0x3dc1ddf7	0.094661646
52	0xbd03002e	-0.031982593
53	0xbda1d0ca	-0.079011515
54	0x3d6b01c4	0.05737473
55	0x3d85355a	0.06504317
56	0xbcfc7e30	-0.03082189
57	0xbc1c333e	-0.009533701
58	0xbba10e00	-0.004914999
59	0xbdb96b63	-0.090536855
60	0xbd2d04c3	-0.04224087
61	0xbd0477bc	-0.03234075
62	0x3d1c1eef	0.038115438
63	0xbcf3f348	-0.029779091

model.5.weight f4 [96, 64, 3]
0	0x3d056986	0.032571338
1	0x3d851660	0.06498408
2	0xbc7c0d50	-0.015384033
3	0xbc901afc	-0.017590992
4	0xbd39ab07	-0.04532912
5	0xbbb47a70	-0.0055077597
6	0xbd8741f9	-0.0660438
7	0x3d47ce78	0.04878089
8	0x3d7efe60	0.06225431
9	0x3c9dadcc	0.019247912
10	0x3d8bc92a	0.068254784
11	0x3d14e5a6	0.036351822
12	0x3d43f2ac	0.04783885
13	0x3d888390	0.066657186
14	0xbd4b3cbb	-0.049618464
15	0xbbb98800	-0.0056619644
16	0x3cde1b94	0.02711276
17	0xbc9e3f50	-0.0193173
18	0xbd51b070	-0.051193655
19	0xbcb9a290	-0.022660524
20	0xbd128958	-0.035775512
21	0xbccf5b28	-0.025312021
22	0xbd6130bd	-0.05497812
23	0xbcb2560c	-0.021769546
24	0x3d296052	0.041351624
25	0xbd01bdfa	-0.031675316
26	0x3cfbd56c	0.030741416
27	0xbd7318dd	-0.059349883
28	0xbd3a453a	-0.045476176
29	0x3bf51ae0	0.0074800104
30	0x3d88dfde	0.06683324
31	0xbd887f4a	-0.066649035
32	0x3d00ab48	0.031413347
33	0x3c4ecc80	0.012621999
34	0xbd718a0a	-0.058969535
35	0xbd56a0d4	-0.05239947
36	0x3d14eed0	0.03636056
37	0xbd13b431	-0.036060516
38	0x3d4f2804	0.05057527
39	0xbd4c6be7	-0.04990759
40	0x3d5f4f60	0.054519057
41	0xbd16ce21	-0.036817674
42	0x3cef7d78	0.029234633
43	0x3cb0e43c	0.021593206
44	0xbd67f475	-0.056629617
45	0xbd1b06bb	-0.037848216
46	0xbc8f35cc	-0.017481707
47	0x39701c00	0.00022898614
48	0x3d11fd64	0.035642043
49	0xbcf305fc	-0.02966594
50	0x3c2df7e8	0.0106181875
51	0xbd2059cb	-0.039148133
52	0xbd0c82bc	-0.034304366
53	0x3d40e746	0.04709556
54	0xbca1ebe4	-0.019765802
55	0xbd81824b	-0.063236795
56	0x3b46ab80	0.0030314624
57	0xbc288f30	-0.010288045
58	0x3ca81294	0.020516671
59	0xbd16cb1e	-0.0368148
60	0x3b4bb680	0.003108412
61	0xbd11d548	-0.03560379
62	0xbd32a6d8	-0.043616146
63	0x3c87254c	0.016497277
64	0x3cb6bbe8	0.022306398
65	0x3c5abf58	0.013351284
66	0x3d8886b2	0.06666316
67	0x3bdb3900	0.0066901445
68	0x3bc918e0	0.0061369985
69	0xbc1a9578	-0.00943505
70	0xbd8ee510	-0.06977284
71	0x3ce73b34	0.028226472
72	0x3d66703c	0.05625938
73	0x3bea56d0	0.007151462
74	0xbd668a49	-0.056284223
75	0x3d84b59c	0.06479952
76	0x3c847204	0.016167648
77	0x3d55cfd8	0.05220017
78	0x3d0062d0	0.031344235
79	0x3c3a81e8	0.011383511
80	0xbcae3042	-0.021263245
81	0x3c72c080	0.014816403
82	0x3cbe3a4c	0.023221157
83	0xbb8f5da0	-0.0043751746
84	0xbd3cd024	-0.046096936
85	0xbd1b5a01	-0.03792763
86	0xbd8777b2	-0.06614627
87	0xbce73a06	-0.02822591
88	0xbc3e9e00	-0.01163435
89	0x3d71c408	0.05902484
90	0xbd1e1f84	-0.038604274
91	0xbd916ece	-0.071012124
92	0x3d2205b4	0.03955622
93	0x3d7edee8	0.0622243
94	0xbd669036	-0.056289874
95	0xba3cf080	-0.0007207468
96	0x3cbbf630	0.02294454
97	0x3d3e922e	0.046526127
98	0xbc5442cc	-0.012955379
99	0x3d06a2a6	0.032869957
100	0x3d631fa0	0.05545008
101	0x3d2cfc20	0.042232633
102	0x3d100678	0.03516242
103	0x3d33c4fa	0.043889023
104	0xbd847220	-0.0646708
105	0x3c7b6888	0.015344746
106	0x3d63f5f4	0.05565448
107	0xbd6a3634	-0.0571806
108	0xbd818ef8	-0.06326097
109	0xbd741bd0	-0.059596837
110	0x3cb58598	0.022158429
111	0x3d892b72	0.0669774
112	0xbbd67ec0	-0.0065458715
113	0xbceb04ee	-0.028688874
114	0x3b8bf380	0.004270971
115	0xbd73bc10	-0.059505522
116	0x3c4caf78	0.012493007
117	0xbd42581c	-0.04744731
118	0xbd46f680	-0.048574924
119	0xbd57a1e4	-0.052644625
120	0xbca7607c	-0.02043175
121	0x3d40a572	0.04703278
122	0x3c702950	0.014658287
123	0x3d4db860	0.05022466
124	0xbd8e97ea	-0.06962569
125	0xbd70bc86	-0.05877354
126	0x3d351ee0	0.044218898
127	0x3d68d9c8	0.056848317
128	0x3d7b0934	0.061288074
129	0xbd89445a	-0.0670249
130	0x3d04685c	0.032326087
131	0xbd91be36	-0.07116358
132	0xbcaed88e	-0.021343496
133	0x3abf9fc0	0.0014619753
134	0x3d0a3b82	0.033748157
135	0xbcb49a64	-0.022046275
136	0xbd7f9912	-0.06240184
137	0xbd8f9feb	-0.07012924
138	0xbced163c	-0.028941266
139	0x3d6146a4	0.05499901
140	0x3d0041fc	0.031312928
141	0x3d123720	0.035697103
142	0xbd6f126c	-0.058367178
143	0xbd84ce06	-0.06484608
144	0x3d88c132	0.06677474
145	0x3d411606	0.047140144
146	0xbcfed280	-0.031106234
147	0x3bc6d8b0	0.0060683116
148	0x3d54f596	0.05199202
149	0x3d850bf2	0.06496419
150	0xbd6dda43	-0.05806948
151	0xbd12824e	-0.0357688
152	0x3ce5be4c	0.028044842
153	0x3d61da80	0.05514002
154	0x3c4db5e8	0.012555577
155	0xbb91f1e0	-0.0044538826
156	0x3b373420	0.0027954653
157	0x3d867ffa	0.06567378
158	0xbd68163b	-0.056661826
159	0x3d06ab2a	0.03287808
160	0xbd53a265	-0.051668543
161	0x3be0d8a0	0.006861761
162	0xbd8b9eef	-0.068174236
163	0x3d3f74c2	0.04674221
164	0xbd24b349	-0.040210042
165	0x3b9d1780	0.004794061
166	0xbd3963b5	-0.045261104
167	0x3bd891b0	0.006609164
168	0xbd0ff290	-0.035143435
169	0xbd172d2b	-0.03690831
170	0xbd001a8b	-0.031275313
171	0x3d376968	0.044778258
172	0x3c253de0	0.010085553
173	0xbc9846fa	-0.018588532
174	0x3d7bc4d4	0.061467007
175	0x3c67b778	0.014142863
176	0xbcbf529c	-0.02335482
177	0xbb55dd80	-0.0032633245
178	0xbce7283c	-0.028217427
179	0xbcea890e	-0.028629806
180	0xbcb89e98	-0.02253656
181	0x3c8ce474	0.017198779
182	0xbd839b6e	-0.0642613
183	0xbd663520	-0.056203008
184	0x3d466ec4	0.048445478
185	0xbc8d9872	-0.017284606
186	0xbb2ea080	-0.0026645958
187	0x3cce7adc	0.025205068
188	0xbd0438ad	-0.032280613
189	0x3d4f14fc	0.05055712
190	0xbc85d368	-0.016336158
191	0x3b9019f0	0.0043976232
192	0xbd4d03b1	-0.05005235
193	0x3cf06858	0.02934663
194	0xbd521ac6	-0.051295064
195	0x3d33db0e	0.04391008
196	0xbc2715a8	-0.010198034
197	0xbcd7c474	-0.026338793
198	0xbcc5e846	-0.024158608
199	0x3ce18f24	0.027534075
200	0x3d90c280	0.07068348
201	0x3ca09eec	0.01960703
202	0x3d353024	0.044235364
203	0xbd792c11	-0.06083304
204	0xbc8b6e80	-0.017020464
205	0xbd275c61	-0.040859584
206	0xbd541dd8	-0.051786274
207	0x3c4b0630	0.012391612
208	0xbcb8d314	-0.022561587
209	0x3c85d4a0	0.016336739
210	0xbceb049b	-0.02868872
211	0xbd86c1a0	-0.065799
212	0xbd1819b9	-0.037133906
213	0xbd8e0a25	-0.06935529
214	0x3c802701	0.015643599
215	0xbd5ddce3	-0.054165732
216	0x3d6352ed	0.055499006
217	0x3d000815	0.031257708
218	0xbd25c3e2	-0.04047001
219	0xbca8f49c	-0.020624451
220	0xbd846c44	-0.064659625
221	0x3d54f606	0.05199244
222	0xbd043049	-0.03227261
223	0xbc7864f4	-0.015160788
224	0x3baeb2b0	0.00533136
225	0x3d0f802a	0.035034336
226	0xbcb0408a	-0.02151515
227	0x3d10ed5c	0.035382614
228	0x3d180852	0.03711731
229	0xbc121898	-0.008916996
230	0x3d43ffc0	0.047851324
231	0xbd819c17	-0.063286
232	0xbd20f5d9	-0.03929696
233	0xbbb99520	-0.005663529
234	0xbbf074b0	-0.007338129
235	0x3cd1d2d3	0.025613224
236	0x3d558af6	0.052134477
237	0xbd557322	-0.052111752
238	0x3d1b1e16	0.03787049
239	0x3c8dda84	0.01731611
240	0x3d757fd0	0.059936345
241	0x3d1dc640	0.038519144
242	0xbc80810a	-0.01568653
243	0xbc278bf3	-0.010226238
244	0xbd44af16	-0.048018537
245	0x3c8281f3	0.015931105
246	0x3d675565	0.056477923
247	0x3ccb7558	0.024836227
248	0x3d6f04e5	0.058354277
249	0x3cec26a7	0.028827025
250	0x3c638e39	0.013888889
251	0xbc7ff197	-0.015621564
252	0xbd7f5be0	-0.06234348
253	0xbc5d9218	-0.013523601
254	0x3d7af30e	0.06126695
255	0x3d80883c	0.06275985

model.5.bias f4 [96]
0	0xbc279290	-0.010227814
1	0x3d7ff47d	0.06248902
2	0x3cd1c798	0.025607869
3	0xbd50b5b0	-0.05095452
4	0xbca6d164	-0.020363517
5	0xbce0ea5e	-0.027455505
6	0xbd2451e5	-0.040117163
7	0xbd758169	-0.05993787
8	0x3d126f6a	0.035750784
9	0x3d636d56	0.055524193
10	0xbd69e74a	-0.05710534
11	0x3d939d21	0.07207704
12	0x3d0992a5	0.033587117
13	0x3d8039ba	0.062610105
14	0xbd69023c	-0.056886896
15	0x3caf4931	0.021397205
16	0x3d4c1744	0.049826875
17	0x3d2497dc	0.040183887
18	0xbcafff3e	-0.021484014
19	0x3d418b99	0.04725227
20	0x3d17988c	0.037010714
21	0xbd3be89e	-0.045876138
22	0x3d1b8d41	0.037976507
23	0xbd0d098e	-0.03443294
24	0x3d68c830	0.05683154
25	0xbcb8aed0	-0.022544295
26	0xbd3151de	-0.043290965
27	0x3d059422	0.032611974
28	0xbd2a53a4	-0.041583672
29	0xbcf13cd4	-0.02944795
30	0x3d3edef0	0.04659933
31	0x3d85f277	0.06540387
32	0x3cbcec68	0.023061946
33	0x3d82840d	0.06372843
34	0x3ce3f1c8	0.027825251
35	0xbc35b7e5	-0.011091207
36	0xbcc56364	-0.024095245
37	0xbc9b1cec	-0.01893469
38	0x3acdcd00	0.0015701354
39	0xbc07faf8	-0.008299582
40	0x3c78d068	0.015186407
41	0x3c9838f0	0.018581837
42	0xbd3f238c	-0.04666476
43	0xbd270da9	-0.04078451
44	0x3d762759	0.06009612
45	0xbcfdcc1c	-0.030981116
46	0x3d19975a	0.037497856
47	0x3d8b4621	0.068004854
48	0xbd863d8c	-0.06554708
49	0x3c3f0a35	0.011660148
50	0x3c940ea0	0.01807338
51	0xbd376798	-0.04477653
52	0xbc92471a	-0.01785617
53	0xbd0d17d6	-0.03444656
54	0xbd92a727	-0.07160788
55	0xbccd091c	-0.025028758
56	0x3d86d275	0.0658311
57	0x3d8c4c63	0.06850507
58	0xbd2e2f12	-0.04252536
59	0xbcbc68be	-0.022999164
60	0xbd19282a	-0.03739182
61	0x3d46bda1	0.048520688
62	0xbd72c0fd	-0.05926608
63	0xbcc92e88	-0.02455832
64	0xbcbd0894	-0.02307538
65	0xbcee8ae0	-0.029118955
66	0x3d7dc9da	0.06196008
67	0xbd806b2c	-0.062704414
68	0xbd6a02fb	-0.05713175
69	0xbd73868b	-0.059454482
70	0xbd059d8d	-0.032620955
71	0x3d20835d	0.039187778
72	0x3c229140	0.009922326
73	0xbb53842f	-0.0032274832
74	0x3d673952	0.05645115
75	0x3d4b0716	0.049567305
76	0x3c8a03a8	0.016847447
77	0x3c613c31	0.013747261
78	0xbcec67b7	-0.028858049
79	0xbd8ecef9	-0.06973071
80	0x3c50c97c	0.01274335
81	0x3d7eb668	0.062185675
82	0x3d56fd68	0.05248776
83	0xbbdc8060	-0.0067291707
84	0xbafd3580	-0.0019318312
85	0x3d8ed5be	0.06974362
86	0xbd93a494	-0.07209125
87	0x3d81a74e	0.06330739
88	0x3d903f18	0.07043284
89	0x3d3a5d04	0.045498863
90	0x3cec861c	0.028872542
91	0x3b430be0	0.0029761717
92	0x3ccc068c	0.024905466
93	0xbd197712	-0.03746707
94	0xbc3389b4	-0.010958124
95	0xbd3dc35a	-0.04632888

model.8.weight f4 [128, 96, 3]
0	0x3be97f08	0.007125739
1	0xbc80fb16	-0.015744727
2	0x3d5746bb	0.05255769
3	0x3cb0b061	0.021568479
4	0x3ce003e5	0.027345607
5	0xbd20cfdb	-0.039260726
6	0xba33ccfc	-0.0006858853
7	0x3d53704c	0.051620767
8	0x3cc55395	0.024087707
9	0xbd529970	-0.05141586
10	0xbcc728ae	-0.02431139
11	0x3d0abfc7	0.0338743
12	0x3d00a8df	0.031411048
13	0x3c07773c	0.008268174
14	0xbc837e46	-0.016051423
15	0x3d0cd835	0.03438588
16	0x3c8591a2	0.016304795
17	0x3bc3afb8	0.005971875
18	0x3c94c6b6	0.018161159
19	0xbd0a4efb	-0.033766728
20	0xbd273632	-0.04082317
21	0x3d1bcc85	0.038036842
22	0xbd03bc9a	-0.032162286
23	0xbd2f5a08	-0.04281047
24	0xbd433694	-0.04765947
25	0x3d3f1e4d	0.046659756
26	0x3cc545c1	0.024081113
27	0x3cd0ee36	0.025504213
28	0x3d2e09b4	0.042489722
29	0xbd62b7ee	-0.05535119
30	0xbd43424c	-0.047670648
31	0x3cb73182	0.022362474
32	0x3d504d6d	0.05085509
33	0x3cd9c935	0.0265852
34	0x3bb41902	0.005496145
35	0x3d6a6200	0.057222366
36	0xbcd33345	-0.025781283
37	0x3d4f99ca	0.050683774
38	0x3d454114	0.048157766
39	0xbd3c2674	-0.04593511
40	0xbba9c440	-0.0051808655
41	0x3d483a5a	0.048883773
42	0x3d5f94f5	0.054585416
43	0xbc3fe328	-0.011711873
44	0x3d532ad3	0.051554512
45	0xbd43c5bb	-0.047795992
46	0x3c82a298	0.015946671
47	0x3c2d684e	0.01058395
48	0x3c89fb1a	0.016843367
49	0x3d02bacf	0.031916436
50	0x3c261ab4	0.010138202
51	0x3cf8373b	0.030299773
52	0x3d3db958	0.046319336
53	0x3d08c852	0.033394165
54	0x3d1a52e5	0.03767671
55	0x3d702d35	0.058636863
56	0x3d3d5119	0.04621992
57	0x3b680bf4	0.0035407515
58	0xbd296541	-0.04135633
59	0x3cd22e39	0.025656806
60	0x3bc3bddc	0.0059735607
61	0x3d5c6a3b	0.053812247
62	0xbc8b15d0	-0.016978174
63	0x3afc7d60	0.0019263439
64	0xbd615611	-0.05501372
65	0xbce728d3	-0.028217709
66	0x3d2db195	0.042405684
67	0xbd1c27dd	-0.038123954
68	0xbcf7b858	-0.03023927
69	0x3b204110	0.0024452843
70	0x3b327900	0.0027232766
71	0x3d2c992b	0.04213826
72	0xbd1d82b0	-0.03845471
73	0x3c2e5236	0.010639718
74	0xbd176566	-0.036961935
75	0x3cf11432	0.029428575
76	0x3cb92812	0.022602115
77	0xbc0da760	-0.008645862
78	0x3d2ca7a1	0.04215205
79	0x3d28a603	0.041173946
80	0xbd095a9e	-0.033533685
81	0xbd518358	-0.05115065
82	0x3ced3023	0.028953617
83	0xbd45bb94	-0.04827459
84	0x3bf18028	0.0073700137
85	0x3ba15928	0.0049239583
86	0x3caa6b52	0.020803127
87	0x3cf14a5a	0.029454399
88	0xbd00a5fc	-0.031408295
89	0x3b70ba10	0.0036731996
90	0xbd0e1d2e	-0.034695797
91	0x3d2a8981	0.04163504
92	0x3c8df0e7	0.017326785
93	0x3d52acee	0.05143445
94	0x3d3e7f0c	0.04650788
95	0x3cd7dbb5	0.026349882
96	0x3d189d97	0.037259664
97	0x38659d94	5.474461e-05
98	0xbd34584b	-0.044029515
99	0xbcc692d9	-0.024239944
100	0xbcbde1dd	-0.023178989
101	0xbcd27325	-0.02568967
102	0xbcf42a71	-0.029805394
103	0xbd6b9a42	-0.05752016
104	0x3c33d324	0.010975633
105	0xbd192680	-0.037390232
106	0xbd527617	-0.05138215
107	0x3c95f23f	0.018303989
108	0xbd62141a	-0.05519495
109	0x3c5150ec	0.012775641
110	0xbb60ffa0	-0.0034332052
111	0x3cfec82a	0.031101305
112	0x3d47f349	0.048816
113	0x3cede7ca	0.02904119
114	0xbd41a769	-0.047278795
115	0xbbb88f28	-0.0056323
116	0x3cdc6bf6	0.026906949
117	0xbd3d8aed	-0.046275068
118	0xbd695622	-0.05696691
119	0xbd586350	-0.052829087
120	0xbd33e99a	-0.04392395
121	0x3cd12ae2	0.025533143
122	0xbc8f407a	-0.0174868
123	0x3cc3b00e	0.02388766
124	0xbd008ab4	-0.031382278
125	0xbc744198	-0.014908217
126	0xbc0ff158	-0.008785568
127	0x3d680867	0.056648638
128	0x3bff2cb8	0.0077873133
129	0xbd455107	-0.048172977
130	0x3d3a406f	0.045471605
131	0x3b57c8f0	0.0032926165
132	0x3d59d8f6	0.053185426
133	0xba052b22	-0.00050799747
134	0xbd43695c	-0.0477079
135	0x3c1ff11c	0.009762075
136	0xbd043479	-0.032276604
137	0xbd25edb2	-0.040509887
138	0x3bca5235	0.0061743506
139	0x3cb5b659	0.022181677
140	0xbcfb2ed9	-0.030661987
141	0xbc8a117b	-0.016854038
142	0xbcbc44ed	-0.022982085
143	0x3d361f0c	0.044463202
144	0x3c6fd5e4	0.014638398
145	0xbc50f1cc	-0.012752961
146	0xbc9ab18c	-0.01888349
147	0xbcaf85ca	-0.0214261
148	0xbb04bf97	-0.0020255798
149	0x3c68ef58	0.01421722
150	0xbcba5446	-0.022745263
151	0xbcc8cede	-0.024512704
152	0xbd32837e	-0.043582432
153	0x3d593b2b	0.053034943
154	0xbcc6ed20	-0.024282992
155	0x3d5463b5	0.0518529
156	0xbbc21464	-0.005922841
157	0xbc5ce692	-0.013482707
158	0xbcabea12	-0.020985637
159	0xba43d040	-0.00074696913
160	0xbb21cd40	-0.002468899
161	0x3c75567c	0.014974233
162	0xbce4867f	-0.027896164
163	0x3d4fdc5b	0.050747257
164	0x3c5decbc	0.013545211
165	0xbc1c3de8	-0.009536244
166	0xbd24a378	-0.04019496
167	0x3c6dc3ec	0.014512043
168	0xbb4fff2c	-0.0031737788
169	0xbc11b044	-0.008892123
170	0xbd5c4405	-0.053775806
171	0x3cb8dbdc	0.022565775
172	0x3be41195	0.0069601038
173	0x3d128f82	0.03578139
174	0xbd0770ff	-0.033066746
175	0x3d11b427	0.035572197
176	0x3d38f5db	0.04515634
177	0x3c5adf54	0.01335891
178	0x3d35cc31	0.044384185
179	0xbd66f1ed	-0.056383062
180	0x3d1cc445	0.038273115
181	0xbc97cd6a	-0.018530566
182	0x3ca9e94a	0.020741124
183	0x3d306709	0.043067012
184	0x3c017726	0.007901942
185	0xba80f670	-0.0009839069
186	0x3cd450ce	0.025917437
187	0x3d67bdc3	0.056577455
188	0xbd2c51a7	-0.042070057
189	0x3d60e7a5	0.054908413
190	0x3c189244	0.009312216
191	0x3cfeb41e	0.031091746
192	0xbaf68240	-0.0018807128
193	0xbc4799b0	-0.012182638
194	0xbc186d5c	-0.009303417
195	0xbc54d2d8	-0.012989722
196	0xbd5096ac	-0.050924942
197	0x3d2c795f	0.042107936
198	0x3cf024d0	0.029314429
199	0xbd6f257b	-0.058385354
200	0x3ceb32f7	0.028710825
201	0xbd35e701	-0.044409756
202	0xbcc89188	-0.024483457
203	0x3d4f4fdb	0.050613265
204	0xbbaaa720	-0.005207911
205	0x3d1a1753	0.0376199
206	0x3d0b6b83	0.034038078
207	0x3bb500b8	0.0055237673
208	0xbd676d6a	-0.05650083
209	0x3d2922bd	0.041292895
210	0xbcc9eb06	-0.0246482
211	0xbd1e1568	-0.038594633
212	0xbc9d2324	-0.019181795
213	0x3d424d10	0.047436774
214	0xbc843de3	-0.016142791
215	0x3ccbba33	0.02486906
216	0x3bd03a68	0.006354619
217	0xbce7aee5	-0.028281638
218	0x3c0f32a4	0.008740101
219	0x3d3e19e2	0.046411403
220	0x3d44b544	0.04802443
221	0xb91f3e16	-0.0001518655
222	0x3bb13494	0.005407879
223	0x3d10e711	0.035376612
224	0xbcb114b9	-0.021616327
225	0xbc391f6c	-0.011298995
226	0x3cfb7de5	0.03069968
227	0x3d29c566	0.04144802
228	0x3bee7668	0.0072772987
229	0xbbbe5750	-0.0058087483
230	0xbd4ec4df	-0.05048072
231	0xbb9464e3	-0.004528628
232	0xbd202fb3	-0.03910799
233	0xbc3b9eda	-0.011451447
234	0xba817303	-0.0009876195
235	0x3cb8d9b9	0.022564756
236	0x3d4ee3ef	0.050510343
237	0x3b801b28	0.0039094873
238	0x3c13efa4	0.009029303
239	0xbcd7feca	-0.02636661
240	0xbd2fb13f	-0.042893644
241	0xbd579410	-0.052631438
242	0x3c4f631d	0.012657908
243	0x3c08d727	0.008352078
244	0x3d54ae7d	0.051924217
245	0x3d0b0cf5	0.033947904
246	0x3b0a3674	0.0021089585
247	0xbc9a6690	-0.018847734
248	0x3d270e29	0.04078499
249	0xbd518709	-0.05115417
250	0xbae92260	-0.0017786734
251	0x3ca9dbfe	0.020734783
252	0xbd6c5454	-0.05769761
253	0x3d3a2a03	0.04545022
254	0xbc754f10	-0.014972463
255	0x3d4ea4e6	0.05045023

model.8.bias f4 [128]
0	0xbbca8bb4	-0.0061812047
1	0xbcd227b7	-0.025653703
2	0xbd1f6c0c	-0.0389214
3	0xbd3c613c	-0.045991167
4	0x3ceee4c6	0.029161822
5	0xbc640b93	-0.013918775
6	0xbcf48d52	-0.029852543
7	0x37615000	1.34296715e-05
8	0xbd55e56e	-0.052220754
9	0x3d203c5d	0.039120067
10	0x3d2e18d3	0.042504143
11	0x3ae0b6a0	0.001714427
12	0x3d55d6ce	0.052206807
13	0xbd468851	-0.048469845
14	0x3a236352	0.00062327564
15	0x3d5df584	0.05418922
16	0xbd42a562	-0.047521003
17	0xbce93ad4	-0.028470434
18	0xbd2abfaf	-0.04168671
19	0xbcf4de23	-0.02989108
20	0x3d65c63b	0.05609725
21	0xbc21ad34	-0.009867955
22	0xbb1a3ad4	-0.00235336
23	0xbccb3c2a	-0.024808962
24	0xbcfdaf48	-0.03096737
25	0x3c7e0206	0.015503412
26	0xbd26de3a	-0.040739276
27	0x3ba46ac8	0.005017612
28	0x3d0cec6b	0.034405153
29	0xbcc372f0	-0.023858517
30	0x3b97d649	0.004633699
31	0x3d07b120	0.033127904
32	0x3d48bf2b	0.049010437
33	0xbc351d04	-0.011054281
34	0x3d28fa06	0.041254066
35	0x3d33d2d5	0.043902237
36	0xbd60c869	-0.054878626
37	0xbd43fb7d	-0.04784726
38	0x3cdae842	0.026722077
39	0x3d0d42d3	0.034487557
40	0x3d1db2ce	0.0385006
41	0x3cd16ef8	0.02556561
42	0xbcd0b26a	-0.0254757
43	0xbca4e24c	-0.020127438
44	0x3c1780ac	0.009246986
45	0x3d315818	0.043296903
46	0xbbb73ef0	-0.0055922195
47	0xbd49d31d	-0.0492736
48	0xbd0768fe	-0.033059113
49	0xbd20e2ac	-0.03927867
50	0xbcc6c238	-0.024262533
51	0x3d450bc1	0.048106913
52	0x3c460dd3	0.012088257
53	0x3cba1e24	0.02271945
54	0xbd06f8cd	-0.03295212
55	0x3d510585	0.051030654
56	0x3d36517f	0.044511314
57	0x3d6ed64e	0.058309846
58	0x3bf4dba8	0.007472474
59	0x3bb528ed	0.0055285604
60	0x3cf8b8e1	0.030361595
61	0xbc980254	-0.018555798
62	0xbd021a4c	-0.03176336
63	0x3cc625ea	0.024188
64	0xbd3f4d0d	-0.04670434
65	0x3d128d8f	0.035779532
66	0x3b2ca8a0	0.0026345626
67	0x3bf8a68a	0.0075882124
68	0x3ba0a007	0.0049018892
69	0x3cb8951f	0.022532044
70	0xbba1a840	-0.004933387
71	0x3a792940	0.0009504743
72	0x3d470acc	0.04859428
73	0xbb26679c	-0.0025391346
74	0x3d4c12ca	0.049822606
75	0x3d0f32d0	0.034960568
76	0x3cea8e47	0.028632296
77	0x3c2918ec	0.010320883
78	0x3cd14b1e	0.025548514
79	0xbcce3c82	-0.025175337
80	0x3d039cae	0.032131843
81	0x3d0dcaab	0.034617107
82	0xbd5523de	-0.05203616
83	0x3d09fae4	0.033686534
84	0x3cd9c9c2	0.026585463
85	0xbc7081ec	-0.014679413
86	0xbc389ca0	-0.011267811
87	0xbd603542	-0.05473829
88	0x3c91fd30	0.017820925
89	0xbd54b6ad	-0.051932026
90	0x3d0c1845	0.034202833
91	0xbd42951c	-0.047505483
92	0xbcfa42b0	-0.030549377
93	0x3c4b5bdc	0.012412038
94	0x3d4eb2c0	0.050463438
95	0xbd471ca0	-0.048611283
96	0x3c3ac4f9	0.011399501
97	0x3b71da90	0.0036903955
98	0xbd5482e2	-0.051882632
99	0x3cc8b591	0.02450064
100	0xbd17d3f4	-0.03706737
101	0xbcd5f560	-0.02611798
102	0xbd50d047	-0.05097988
103	0xbca34c9c	-0.019933991
104	0x3ba95978	0.005168136
105	0xbc4ecec4	-0.012622539
106	0x3cddda14	0.027081527
107	0x3c372c5f	0.0111800125
108	0x3ca87ae8	0.020566419
109	0xbd55a3fa	-0.052158333
110	0xbd384b10	-0.04499346
111	0x3c9e48ee	0.019321885
112	0xbb1c8500	-0.0023882985
113	0x3d2b25be	0.04178404
114	0x3ca091d2	0.019600783
115	0xbd16880a	-0.03675083
116	0xbd114ca9	-0.0354735
117	0xbc16841c	-0.009186771
118	0xbc33ebf8	-0.010981552
119	0x3ccc3f87	0.024932636
120	0xbd682ad2	-0.05668146
121	0xbd56b5f0	-0.052419603
122	0xbbd5c068	-0.0065231808
123	0xbca10d05	-0.019659529
124	0xbcc09593	-0.023508823
125	0x3c2437e8	0.010023095
126	0xbcbe0810	-0.023197204
127	0x3d3d79f6	0.04625889

model.13.weight f4 [150, 256]
0	0xbc9c9e0f	-0.019118337
1	0x3cf2f950	0.029659897
2	0x3d30eb4a	0.04319314
3	0xbccba894	-0.024860658
4	0x3d2cb9bc	0.042169318
5	0xbd088496	-0.03332957
6	0xbd66aaaa	-0.0563151
7	0xbd6260d2	-0.055268116
8	0xbc836a04	-0.016041763
9	0xbd19cd84	-0.03754951
10	0xbcc72aed	-0.02431246
11	0xbc4b2eb0	-0.012401268
12	0xbcb07968	-0.021542266
13	0x3d08d716	0.033408247
14	0x3c6525f0	0.013986096
15	0xbc2b84d0	-0.010468677
16	0xbd32f1f0	-0.04368776
17	0x3c6fb798	0.0146311745
18	0x3d0871cb	0.033311646
19	0x3cbbcfb7	0.022926195
20	0x3c140152	0.009033518
21	0xbcea294f	-0.02858415
22	0x3d58502a	0.052810825
23	0xbd4a1bba	-0.04934285
24	0x3b911a3c	0.004428176
25	0x3cae9399	0.021310614
26	0x3c8b20dc	0.016983442
27	0x3c5dfb10	0.0135486275
28	0xbafe285d	-0.0019390691
29	0xbca9a7eb	-0.020709952
30	0x3d7d6a11	0.06186873
31	0x3d54e5d4	0.051976994
32	0x3cf206c8	0.02954425
33	0x3c727070	0.014797315
34	0x3bbeddd0	0.005824782
35	0xbc578a28	-0.013155498
36	0x3c19d0c8	0.009388156
37	0xbc72ef50	-0.014827564
38	0x3d6542f8	0.05597207
39	0x3d0a90cc	0.033829495
40	0xbbf6a669	-0.007527162
41	0x3cdcd346	0.026956212
42	0x3ce85788	0.02836205
43	0x3c6f61c0	0.014610708
44	0xbd6d8346	-0.05798652
45	0x3cc5f767	0.024165822
46	0xbce7af44	-0.028281815
47	0xbb1d5240	-0.0024005324
48	0x3d099fa2	0.033599503
49	0xbc79eef0	-0.015254721
50	0xbc5ff384	-0.0136688985
51	0xbd291cfd	-0.04128741
52	0x3d46a28c	0.04849486
53	0x3d6dfdc2	0.05810333
54	0xbd760dee	-0.060071878
55	0xbbed9290	-0.0072501376
56	0x3c18c0c1	0.0093233
57	0x3d2a03c9	0.041507516
58	0x3ba8c2b0	0.0051501617
59	0xbb9ff260	-0.0048811883
60	0xbbf7f5ce	-0.007567144
61	0xbd2f990c	-0.042870566
62	0xbb0757a3	-0.00206516
63	0x3c25d801	0.0101223
64	0x3b56eeac	0.0032796068
65	0xbcb45236	-0.022011857
66	0x3d52498e	0.05133968
67	0x3b020a80	0.0019842684
68	0xbd62c6bc	-0.05536531
69	0x3c8d4d7e	0.017248865
70	0x3c9e01e0	0.019288003
71	0x3d284e7c	0.041090474
72	0xbd4b152c	-0.049580738
73	0x3d000f2c	0.03126447
74	0x3d345a18	0.044031233
75	0xbb8ae970	-0.0042392537
76	0x3bca96e0	0.0061825365
77	0xbd091698	-0.033468813
78	0x3d4a1086	0.049332164
79	0xbbb78c42	-0.005601437
80	0xbd44374a	-0.04790429
81	0x3d39deb7	0.045378413
82	0xbd758491	-0.05994088
83	0x3d0afe6a	0.033934034
84	0xbcc18144	-0.023621209
85	0xbd2941da	-0.041322567
86	0xbd068982	-0.03284598
87	0xbce8a6fd	-0.028399939
88	0xbcf9430c	-0.030427478
89	0xbcd12950	-0.025532395
90	0xbd178ee2	-0.037001498
91	0x3d7f67bd	0.062354792
92	0x3a5ea01e	0.0008492487
93	0x3cee9f39	0.029128658
94	0xbc03d528	-0.008046426
95	0xbd0e073c	-0.034674868
96	0xbd05992a	-0.03261677
97	0xbc6bf4c0	-0.014401615
98	0xbc7f02c0	-0.0155646205
99	0xbd6d912c	-0.057999775
100	0x3d7046ab	0.058661144
101	0xbd6c2337	-0.05765077
102	0xbd28ff11	-0.041258875
103	0x3c4bbfa7	0.01243583
104	0x3d3ec0ad	0.04657047
105	0xbd563cea	-0.052304186
106	0x3d26e8a4	0.040749207
107	0xbd083933	-0.033257674
108	0xbbc7483d	-0.0060816095
109	0x3d4901bb	0.049073916
110	0xbcbffbf6	-0.023435574
111	0xbc25606c	-0.01009379
112	0xbd1a2361	-0.037631396
113	0xbc2367b1	-0.009973452
114	0x3cfd8985	0.030949363
115	0xbc89e65d	-0.016833479
116	0x3cc43d88	0.023955122
117	0x3d6f8bd6	0.058482967
118	0xbcd173b3	-0.025567865
119	0xbc75340a	-0.01496602
120	0x3d046e3f	0.0323317
121	0x3cfcea3c	0.03087341
122	0x3d7c5236	0.06160184
123	0xbd70432c	-0.05865781
124	0xbce65a4c	-0.028119229
125	0xb96f2400	-0.00022806227
126	0x3d25909a	0.040421106
127	0x3d5f5d72	0.054532476
128	0xbcc99c10	-0.02461055
129	0xbc83dc54	-0.016096272
130	0x3d2a3557	0.041554775
131	0x3d29418b	0.041322272
132	0xbcf14528	-0.029451922
133	0x3c883084	0.016624697
134	0x3a497afb	0.0007685867
135	0x3d52a557	0.05142721
136	0xbcf7dfc0	-0.03025806
137	0x3d4ec384	0.050479427
138	0xbcce712b	-0.025200447
139	0xbd217097	-0.039414015
140	0xbc0150b8	-0.00789278
141	0xbcfba39c	-0.030717663
142	0x3d1b9aa6	0.03798928
143	0xbc990800	-0.018680573
144	0x3d7fa63d	0.062414397
145	0x3d24d6a3	0.040243756
146	0xbb998f23	-0.0046862527
147	0x3cdf3c04	0.027250297
148	0xbd1ad7b9	-0.037803385
149	0xbd3a7c51	-0.045528714
150	0xbd3eaea2	-0.04655326
151	0xbcc10794	-0.023563184
152	0x3d27fe56	0.041014038
153	0xbd4a4cac	-0.049389526
154	0x3cf0e4d8	0.029405996
155	0x3d418b00	0.0472517
156	0xbc717422	-0.014737161
157	0x3d62a93d	0.05533718
158	0x3d29cb9d	0.041453946
159	0x3cea76c2	0.028621081
160	0x3d156153	0.03646977
161	0xbd0f4855	-0.03498109
162	0xbd63dd62	-0.05563105
163	0x3b89512c	0.0041905846
164	0x3d52adf6	0.051435433
165	0x3d69f3f4	0.057117417
166	0xbd637fff	-0.05554199
167	0x3c6c2d6e	0.014415128
168	0x3d1873ce	0.037219815
169	0x3d2bfde6	0.041990183
170	0x399fb17c	0.0003045908
171	0xbd27c624	-0.040960446
172	0x3cdf3840	0.027248502
173	0xbc5c4328	-0.013443746
174	0xbb9e4610	-0.0048301294
175	0x3c12aae0	0.008951873
176	0xbbc496af	-0.005999408
177	0x3c9b09ef	0.018925635
178	0x3d3f271e	0.046668164
179	0xbcf96a84	-0.030446298
180	0x3cdd8729	0.027041988
181	0xbd04a1b4	-0.032380775
182	0xbd6bb0c0	-0.05754161
183	0x3b759720	0.003747411
184	0x3d2c575e	0.042075507
185	0x3c429290	0.011875764
186	0x3d25ac6c	0.040447637
187	0xbd1964b0	-0.03744954
188	0x3d0072e7	0.03135958
189	0xbd1452ba	-0.036211707
190	0x3bc6b650	0.006064214
191	0x3d4ab874	0.049492314
192	0xbb3b5b60	-0.00285884
193	0x3d5024dc	0.0508164
194	0x3d4ee928	0.050515324
195	0x3d723b7c	0.05913876
196	0x3d29f95a	0.041497566
197	0x3d78126c	0.060564443
198	0x3cba02a6	0.022706341
199	0x3c1188b1	0.008882687
200	0x3d687d52	0.05676014
201	0xbbe4cd10	-0.006982453
202	0x3c4b4330	0.0124061555
203	0xbd2fafca	-0.042892255
204	0x3c94b94c	0.018154763
205	0x3cdec7ec	0.02719494
206	0x3ccca214	0.024979629
207	0x3ce580e8	0.028015569
208	0xbd51c74e	-0.051215462
209	0x3be58450	0.0070042983
210	0xbc72c2d0	-0.014816955
211	0x3d334170	0.043763578
212	0x3d64beb7	0.055845942
213	0xbd27683e	-0.040870897
214	0x3d70f041	0.058822874
215	0xbb8572e1	-0.0040725325
216	0xbcad18cd	-0.02112999
217	0x3cd10da0	0.025519192
218	0x3ce8bdc8	0.028410807
219	0xbc095c28	-0.008383788
220	0xbd5e1658	-0.054220527
221	0x3cbac2d4	0.02279798
222	0x3d11408c	0.035461947
223	0x3d020456	0.031742416
224	0xbb0795a0	-0.0020688549
225	0xbd1eb67c	-0.03874825
226	0x3d302810	0.043006957
227	0x3cd7ebfc	0.026357643
228	0xbc952f20	-0.018210948
229	0x3d520ef0	0.051283777
230	0xbb56aac0	-0.0032755584
231	0xbd72d5aa	-0.059285797
232	0xbc21b618	-0.009870075
233	0xbd07451c	-0.033024892
234	0x3cc6f148	0.024284974
235	0xbd2b1988	-0.041772395
236	0x3d7470ba	0.059677817
237	0x3c4e0850	0.012575224
238	0xbd0ae098	-0.033905596
239	0xbd2b9443	-0.04188944
240	0x3cc57280	0.02410245
241	0x3cf7c994	0.030247487
242	0xbd4f8c16	-0.050670706
243	0xbd223510	-0.039601386
244	0xbd308722	-0.043097623
245	0xbd3b9b7e	-0.045802586
246	0xbd0ea29c	-0.034823045
247	0xbcf33547	-0.02968849
248	0x3c144f96	0.009052178
249	0xbd0ee86d	-0.034889627
250	0x3b6b372a	0.0035891035
251	0xbd567ab4	-0.052363113
252	0xbd230e1e	-0.039808385
253	0x3ce31fc8	0.027725115
254	0xbd6c8e07	-0.057752635
255	0xbd39a1ae	-0.045320205

model.13.bias f4 [150]
0	0x3cbb9554	0.022898354
1	0xbbee3b9c	-0.0072702896
2	0x3d35afeb	0.04435722
3	0x3c05aef2	0.008159386
4	0x3c9a5edf	0.018844066
5	0x3d35c0d8	0.044373363
6	0x3c094f60	0.008380741
7	0x3ba4f189	0.005033676
8	0x3d30921c	0.04310809
9	0xbd429ed7	-0.047514763
10	0xbcda1332	-0.026620481
11	0xbcb3ebeb	-0.02196308
12	0xbcc421b5	-0.023941854
13	0x3d54cb06	0.05195143
14	0xbb5ccfab	-0.0033693116
15	0xbc06de80	-0.008231759
16	0x3c84fb1c	0.01623302
17	0x3ce20503	0.02759028
18	0x3d332d69	0.04374448
19	0x3d222c61	0.039593104
20	0xbbcf5da4	-0.0063283015
21	0xbd5343f5	-0.05157848
22	0xbcb062d0	-0.021531492
23	0xbd50edf4	-0.05100818
24	0xbd061f72	-0.032744832
25	0xbc874eba	-0.016517032
26	0xb9d3f767	-0.00040429385
27	0xbd4af926	-0.049554013
28	0xbd51ce61	-0.05122221
29	0xbd5b533f	-0.053546187
30	0x3d6838ee	0.056694917
31	0x3b9f89d9	0.0048687276
32	0xbd47755c	-0.048695907
33	0x3d6a9296	0.0572687
34	0x3d7f6570	0.062352598
35	0xbd601d3b	-0.054715376
36	0xbd271b85	-0.04079773
37	0x3d7610e9	0.06007472
38	0x3cbfc036	0.023407083
39	0x3d21e3ce	0.039523892
40	0x3d7c858f	0.06165081
41	0xbc9b71b3	-0.018975114
42	0xbd0d6abf	-0.03452563
43	0xbcb615ab	-0.022227129
44	0x3d2c40d7	0.042054024
45	0xbd209b0c	-0.039210364
46	0xbc022735	-0.007943918
47	0x3d009356	0.03139051
48	0x3d6be4bf	0.057591196
49	0x3d3a56c7	0.045492914
50	0xbc0c9341	-0.00858003
51	0xbcd80bb8	-0.026372775
52	0x3c970168	0.018433288
53	0xbc4f889f	-0.01266685
54	0x3d1a2e26	0.037641667
55	0x3c36207b	0.011116142
56	0xbd2bbc57	-0.04192766
57	0xbb934fe5	-0.004495608
58	0x3d23281a	0.039833166
59	0x3d462c88	0.048382312
60	0x3d49bf89	0.049254928
61	0xbbf3193c	-0.0074187797
62	0x3d1bb510	0.03801447
63	0x3bdade78	0.0066793524
64	0xbd3d0a41	-0.046152357
65	0x3ca0fd56	0.01965205
66	0xbd68d2ad	-0.05684154
67	0xbd609989	-0.054833923
68	0xbc93d61d	-0.018046433
69	0xbc0ab575	-0.008466114
70	0xbd02e0fe	-0.03195285
71	0xbd154919	-0.036446664
72	0xbd15e2ed	-0.036593366
73	0x3d56d0c6	0.052445196
74	0x3d15a4b1	0.036534015
75	0x3c312dab	0.010814111
76	0x3cbdfa56	0.023190659
77	0xbd4e2355	-0.050326664
78	0xbd266ce6	-0.040631197
79	0xbd4e76c0	-0.050406218
80	0x3d598c02	0.053112037
81	0xbd3ad53d	-0.045613516
82	0xbcf618e1	-0.03004116
83	0xbc813c8c	-0.015775941
84	0xbaa4face	-0.0012586953
85	0xbd446df4	-0.047956422
86	0xbcea9ff6	-0.028640728
87	0x3ccf9cc0	0.025343299
88	0x3d015924	0.03157915
89	0x3cabbdb5	0.020964483
90	0x3bf20c35	0.007386709
91	0xbc236013	-0.009971636
92	0x3cc4cb36	0.02402268
93	0xbd011e9f	-0.031523343
94	0xbd269b8e	-0.040675692
95	0xbd7a7da7	-0.061154988
96	0x3d5793cd	0.05263119
97	0x3ca4e9b3	0.020130968
98	0x3d6222e9	0.055209074
99	0xbc80b990	-0.015713483
100	0xbcb0df3e	-0.021590825
101	0x3d30f4c2	0.04320217
102	0xbd4f7aa5	-0.050654072
103	0xbd07c756	-0.033149086
104	0x3d1c892e	0.038216762
105	0x3cbeeada	0.023305345
106	0xbd6a1e50	-0.057157815
107	0x3ca60f87	0.020271076
108	0xbd4dd2b6	-0.050249778
109	0xbcddbe88	-0.027068391
110	0x3cdff4cc	0.027338408
111	0xbb1f4b08	-0.0024306197
112	0x3d017de6	0.031614207
113	0xbc96d940	-0.01841414
114	0x3d055dc0	0.03256011
115	0xbd20ce30	-0.039259136
116	0x3ce19a68	0.027539447
117	0x3c025ab4	0.007956196
118	0xbd5e6422	-0.054294713
119	0xbcff41f4	-0.031159379
120	0xbbde5a91	-0.0067856987
121	0x3d2ca47e	0.04214906
122	0x3d22f644	0.03978564
123	0xbc363123	-0.011120114
124	0x3cac510e	0.021034744
125	0xbd7947ed	-0.06085961
126	0xbc15fcfd	-0.009154555
127	0xbd07df52	-0.03317196
128	0xbd32d6a0	-0.043661714
129	0xbd0c8f3b	-0.034316283
130	0xbc98ece6	-0.01866765
131	0xbc833deb	-0.016020736
132	0xbd2e6766	-0.042579077
133	0x3cc86b89	0.02446534
134	0x3d261ecf	0.040556725
135	0xbc134f10	-0.008991018
136	0x3ce3319d	0.027733618
137	0x3c9e134c	0.01929631
138	0xbd7bdfef	-0.061492857
139	0xbb41ab0d	-0.0029551417
140	0xbc19e950	-0.009394005
141	0xbd424fe1	-0.04743946
142	0xbd75cf5c	-0.060012206
143	0x3d0629b6	0.032754622
144	0xbce86b01	-0.028371336
145	0x3cc63fd5	0.02420036
146	0xbd6805e4	-0.056646243
147	0x3c27cd60	0.010241836
148	0xbd5d3582	-0.054006107
149	0x3c994c51	0.018713148
