Classifier_Model/ClasifierWithEfficientNetV2S/lightning_logs/version_17/checkpoints/epoch=35-step=144.ckpt (torch, 419582 bytes, 12 tensors)

model.0.weight f4 [32, 8, 3]
0	0x3e1fce66	0.15606079
1	0x3e2d7da8	0.16942465
2	0xbd43df9c	-0.047820672
3	0x3e4002d2	0.18751076
4	0xbd3730dc	-0.04472433
5	0x3d28b738	0.041190356
6	0xbdcb8726	-0.09937887
7	0x3df582e4	0.11987856
8	0x3e38434a	0.17994419
9	0xbe195862	-0.14975122
10	0x3e35ae9e	0.17742392
11	0x3d1c7b84	0.03820373
12	0x3e1a6d9a	0.15080872
13	0x3ce27708	0.02764465
14	0x3dc993b4	0.09842625
15	0xbcec18f8	-0.0288205
16	0x3e21220a	0.15735641
17	0x3cf729f0	0.030171365
18	0xbdc32922	-0.0952933
19	0x3d551e58	0.05203089
20	0xbdc09bf6	-0.09404747
21	0xbcc41a18	-0.023938224
22	0xbda9cb00	-0.08290672
23	0x3e0aa8ee	0.13541004
24	0xbe24ff23	-0.16112952
25	0xbdc0b941	-0.094103344
26	0xbd6c1768	-0.05763951
27	0xbdfb5c16	-0.122734234
28	0x3c9dd378	0.019265875
29	0xbe4e72a2	-0.20160916
30	0x3e3cc54c	0.18434638
31	0xbe318efa	-0.17339697
32	0x3e215f20	0.15758944
33	0x3d0b244c	0.033970162
34	0xbd87bdd4	-0.06628004
35	0x3e012a74	0.12613851
36	0x3d024e40	0.031812906
37	0x3e28e20e	0.16492483
38	0x3cb6cd80	0.022314787
39	0xbd83d730	-0.06437528
40	0x3d60a4f8	0.054844826
41	0xbd62bb28	-0.055354267
42	0x3daff01c	0.08590719
43	0x3e3a9ed8	0.18224657
44	0x3df1a7d8	0.11799592
45	0xbdb6c223	-0.089237474
46	0x3df152c8	0.117833674
47	0x3d159950	0.036523163
48	0x3dd44c6c	0.10366139
49	0xbdfecd23	-0.124414705
50	0xbe4ee9ed	-0.20206423
51	0xbda1843e	-0.07886551
52	0xbe205355	-0.15656789
53	0x3e2b82f8	0.1674918
54	0x3d70d220	0.05879414
55	0x3dad2910	0.08455098
56	0x3d843638	0.06455654
57	0xbb68b6c0	-0.0035509318
58	0x3e23954e	0.15974924
59	0xbe148387	-0.14503299
60	0x3c5292f0	0.012852415
61	0xbe0eaaac	-0.13932294
62	0x3d80e7c8	0.06294209
63	0xbd8ff7be	-0.07029675
64	0x3d8018a0	0.06254697
65	0xbd2e3158	-0.042527527
66	0x3e2d5cb2	0.16929892
67	0xbdf7c6de	-0.12098478
68	0xbdf9526c	-0.12173924
69	0xbdf95646	-0.121746585
70	0x3e3c011e	0.18359801
71	0x3d8b507c	0.068024606
72	0x3e4921f6	0.19641861
73	0xbe2c8078	-0.16845882
74	0xbe4f5337	-0.20246588
75	0xbe23883a	-0.15969935
76	0xbe0c9b8a	-0.13731208
77	0x3da95354	0.08267847
78	0x3d95b138	0.073091924
79	0x3e2daeb4	0.16961175
80	0xbdd7e3c3	-0.10541489
81	0xbe0e7e58	-0.13915384
82	0x3dddce64	0.108303815
83	0xbda8f9e7	-0.0825079
84	0x3dfdb8e4	0.12388781
85	0xbd4667c0	-0.048438787
86	0x3def2444	0.11676839
87	0xbe22677f	-0.15859793
88	0xbdd2f78a	-0.103011206
89	0x3d7ee7a8	0.062232643
90	0x3d30c19c	0.04315339
91	0xbd552b4c	-0.052043244
92	0x3df92f44	0.12167218
93	0x3e0e188a	0.13876548
94	0xbe1793f8	-0.1480254
95	0xbddf2e7e	-0.108975396
96	0x3e3f6500	0.18690872
97	0xbd8d0ffa	-0.06887813
98	0xbd94344a	-0.07236536
99	0xbe4a3fea	-0.19750944
100	0xbdef6714	-0.116895825
101	0x3d50dbe8	0.05099097
102	0xbcdcb790	-0.026942998
103	0xbe17ba1a	-0.14817086
104	0x3b9ce540	0.004788071
105	0xbe0ec7a4	-0.13943344
106	0xbe3155a4	-0.17317826
107	0xbde633d4	-0.11240354
108	0xbe36f088	-0.17865193
109	0xbe0517ce	-0.12997362
110	0x3e50f0fe	0.20404431
111	0x3d1deabc	0.03855394
112	0x3d80d334	0.06290284
113	0xbe42f3dd	-0.19038339
114	0xbe0947ea	-0.1340634
115	0xbd8b262e	-0.067943916
116	0x3d02bda0	0.03191912
117	0xbe37ec85	-0.17961319
118	0xbdb41ff7	-0.08795159
119	0xbdfa456b	-0.12220272
120	0x3a144a00	0.0005656779
121	0xbd9b8e6e	-0.07595526
122	0xbc67c030	-0.014144942
123	0xbe0da3ea	-0.1383206
124	0xbe0f78f4	-0.14010984
125	0xbdf3e392	-0.1190864
126	0xbd8f189e	-0.06987117
127	0xbe24fa5c	-0.1611113
128	0x3e2f4274	0.17115194
129	0xbd25ef30	-0.04051131
130	0x3e33d7c4	0.17562777
131	0x3d824178	0.063601434
132	0xbe31000a	-0.17285171
133	0x3e10a6c0	0.1412611
134	0xbd660be8	-0.0561637
135	0xbda03f7e	-0.0782461
136	0xbe2d8102	-0.16943744
137	0xbe4fcd75	-0.2029322
138	0x3d6f3708	0.05840209
139	0xbd36a3a8	-0.04458967
140	0x3da2c14c	0.07947025
141	0xbe2b89a3	-0.16751723
142	0x3e1b2f54	0.15154773
143	0xbe196f28	-0.14983809
144	0xbd105ef4	-0.035246804
145	0x3d2ea268	0.04263535
146	0x3dd7d130	0.10537946
147	0x3e28bf1e	0.16479155
148	0x3e3e695c	0.18594879
149	0xbe25bd34	-0.16185457
150	0x3d526ac8	0.051371366
151	0xbdb3d003	-0.087799095
152	0xbcb73f00	-0.022368908
153	0xbe1c73a6	-0.15278491
154	0x3e3e63fa	0.18592826
155	0xbe1969a2	-0.14981702
156	0x3ddf6ce4	0.10909441
157	0x3d92eb04	0.07173732
158	0x3d87d8bc	0.06633136
159	0xbde203df	-0.110358946
160	0x3e3dfdec	0.18553895
161	0x3d37bb50	0.04485637
162	0x3cd71c28	0.026258543
163	0xbe3833e0	-0.17988539
164	0x3daf7db4	0.08568898
165	0xbcfadcb8	-0.030622825
166	0xbdbf8464	-0.093514234
167	0x3e338a2a	0.17533174
168	0x3d3a67e4	0.045509234
169	0xbde74b8e	-0.11293708
170	0xbdd396e9	-0.10331518
171	0xbc1fb680	-0.009748101
172	0x3de96bbc	0.11397502
173	0xbd55a660	-0.05216062
174	0xbdee86d6	-0.11646812
175	0xbd8f282e	-0.069900855
176	0xbe1c27ea	-0.15249601
177	0x3d9516c0	0.0727973
178	0x3e21cad4	0.15800029
179	0xbe44c866	-0.19217071
180	0x3d422ee0	0.047407985
181	0x3dd7f594	0.10544887
182	0x3d179bb0	0.03701371
183	0xbd94e068	-0.072693646
184	0x3dda322c	0.10654101
185	0x3ddbb058	0.10726994
186	0x3d9c51a4	0.07632759
187	0xbd12eb5c	-0.035868987
188	0xbd5d65fc	-0.054052338
189	0x3cb2e450	0.021837384
190	0xbd13b2fc	-0.036059365
191	0xbd79280c	-0.060829207
192	0x3e059bea	0.13047758
193	0x3e33a268	0.17542422
194	0xbca58ab8	-0.020207748
195	0xbd3b32d0	-0.045702755
196	0x3b433540	0.0029786378
197	0xbc47afc0	-0.012187898
198	0x3d490190	0.049073756
199	0x3d6a4d20	0.05720246
200	0xbe3dd8c0	-0.18539715
201	0xbd9a465c	-0.07532951
202	0x3e300648	0.17189896
203	0x3da2da1c	0.07951757
204	0xbc265740	-0.010152638
205	0xbdfc0ae1	-0.123067625
206	0xbdffc349	-0.124884196
207	0xbe3b3c6a	-0.18284765
208	0xbd884472	-0.0665368
209	0x3d8d2d0c	0.06893358
210	0x3e054716	0.13015398
211	0x3dc102c8	0.094243586
212	0xbe38c3c7	-0.18043433
213	0xbdfb65b8	-0.12275261
214	0xbd03f308	-0.032214195
215	0x3e4a32cc	0.1974594
216	0x3cf1e4e0	0.029528081
217	0xbd588604	-0.052862182
218	0x3dacf3bc	0.08444926
219	0xbd9f39e2	-0.07774712
220	0xbe074a9a	-0.13212052
221	0x3e189036	0.14898762
222	0xbdbe161d	-0.092815615
223	0xbd279bd8	-0.04092011
224	0xbe4fefe6	-0.20306358
225	0x3e0be49e	0.1366143
226	0x3e1e5cf8	0.15465152
227	0x3d985b30	0.07439268
228	0xbe11bf17	-0.14233051
229	0xbe4e4b14	-0.20145828
230	0xbe29c3a2	-0.16578534
231	0x3e1bde5c	0.15221542
232	0x3dc8b4d8	0.09800118
233	0x3e2fe4d6	0.17177138
234	0x3ddb0078	0.10693449
235	0x3d539bc8	0.051662236
236	0xbb030040	-0.0019989163
237	0xbe1ef69e	-0.15523764
238	0xbe3315d0	-0.1748879
239	0xbe43826f	-0.19092725
240	0x3dab21dc	0.083560675
241	0xbdcd3f51	-0.10021842
242	0xbd28440c	-0.04108052
243	0xbdf0967c	-0.117474526
244	0xbd185b14	-0.037196234
245	0xbe131e26	-0.1436697
246	0xbe089439	-0.13337792
247	0x3d8aaba4	0.06771019
248	0xbd787bd4	-0.060664967
249	0x3e0109fc	0.12601465
250	0xbd861ce8	-0.06548482
251	0xbe195520	-0.14973879
252	0xbd1384f0	-0.03601545
253	0xbdcaa598	-0.09894866
254	0xbd7fcba4	-0.062450066
255	0xbe46fd36	-0.1943253

model.0.bias f4 [32]
0	0xbe06886c	-0.13137978
1	0x3e4e92de	0.20173213
2	0x3d9fca1d	0.07802222
3	0x3da7c4db	0.08191844
4	0xbdfa1dc4	-0.122127086
5	0xbdb74515	-0.08948723
6	0xbcfc6c58	-0.030813381
7	0xbd18e790	-0.03733021
8	0xbe0f3b96	-0.13987574
9	0x3c899e46	0.016799103
10	0x3ca5e83d	0.020252341
11	0xbcd3bbd8	-0.025846407
12	0x3ce7cf3a	0.028297056
13	0xbda5b162	-0.08090474
14	0x3d599f62	0.053130515
15	0x3d9da458	0.07697362
16	0xbddc3387	-0.107520156
17	0xbe4f4351	-0.20240523
18	0x3ddad11a	0.10684414
19	0x3d477452	0.048694916
20	0xbdd49d01	-0.103815086
21	0x3e496e11	0.19670893
22	0xbdbd0f82	-0.092314735
23	0x3e0d3d0c	0.13792819
24	0x3dd415f7	0.10355752
25	0xbe2f3f27	-0.17113934
26	0x3e06cc98	0.13163984
27	0xbe4030ed	-0.18768664
28	0xbde79a91	-0.11308778
29	0xbd0b639c	-0.03403054
30	0xbe0ce42d	-0.13758917
31	0x3e4c32ef	0.19941305

model.2.weight f4 [64, 32, 3]
0	0xbca7b400	-0.020471573
1	0x3d260b30	0.040538013
2	0xbdbaa3a6	-0.09113245
3	0x3d70a7bc	0.058753714
4	0xbd01ec08	-0.031719238
5	0xbd9eff76	-0.07763569
6	0x3c748308	0.014923818
7	0x3d4a8708	0.049445182
8	0x3db4e354	0.08832422
9	0xbd7f56ef	-0.062338766
10	0xbd4db8ed	-0.050225187
11	0x3ca0bfe4	0.01962275
12	0x3ce2cca8	0.027685478
13	0x3d20ba28	0.039240032
14	0x3d65748c	0.05601935
15	0xbcbd964c	-0.023142956
16	0x3d6840fc	0.0567026
17	0x3d9a1c6a	0.07524951
18	0xbcda67c8	-0.026660815
19	0x3d94b606	0.07261281
20	0x3d4c3fb4	0.04986544
21	0x3db85e94	0.09002414
22	0xbd6d9096	-0.057999216
23	0xbd4e6f5c	-0.05039917
24	0xbcf1bf34	-0.029510118
25	0x3ba9a5c0	0.0051772296
26	0x3d7ae934	0.061257556
27	0xbd6ea5a2	-0.05826343
28	0x3d514be8	0.05109778
29	0xbd15d1ec	-0.03657715
30	0x3d7c8bb0	0.061656654
31	0xbb9ec810	-0.0048456267
32	0xbdb71f58	-0.08941525
33	0xbd66073a	-0.056159236
34	0xbd9747ea	-0.073867634
35	0x3d4f55d4	0.05061896
36	0xbd8c28fc	-0.06843755
37	0xbc0b52d0	-0.008503631
38	0x3cb46450	0.022020489
39	0xbd65411d	-0.0559703
40	0x3cf13008	0.029441848
41	0xbdcc1857	-0.0996558
42	0xbd958ecd	-0.07302628
43	0xbdbd6698	-0.09248084
44	0xbcfce628	-0.030871466
45	0xbd184b0c	-0.037180945
46	0x3c6f7220	0.014614612
47	0xbc9a9b08	-0.018872753
48	0x3d44841c	0.04797755
49	0x3dbfa1a6	0.09357004
50	0x3d15fdc4	0.036618963
51	0xbd24b257	-0.04020914
52	0xbdc3b9ec	-0.09556946
53	0x3d176acc	0.036967084
54	0xbd4f1fd3	-0.05056746
55	0x3d54bbdc	0.05193697
56	0x3d8bba94	0.06822696
57	0x3d213fc0	0.039367437
58	0x3dc420f0	0.09576595
59	0x3dc68788	0.09693819
60	0x3cb108bc	0.02161061
61	0xbd984d4c	-0.07436618
62	0x3dbabffa	0.09118648
63	0xbd465c77	-0.048428025
64	0xbd457735	-0.048209388
65	0x3daee7f6	0.08540337
66	0x3da1f40a	0.07907875
67	0x3cfca060	0.030838192
68	0x3bd1a350	0.006397642
69	0xbdafd2b9	-0.08585114
70	0xbc2d9468	-0.010594465
71	0x3dc87ac6	0.09789042
72	0x3cd4eb18	0.025991008
73	0x3c0f2b50	0.008738354
74	0xbcad9d90	-0.021193296
75	0xbd11cea0	-0.035597444
76	0x3d792a44	0.060831323
77	0x3bce3e10	0.0062940195
78	0x3d87fc2c	0.06639895
79	0xbc93fcbc	-0.01806485
80	0x3d36a5f4	0.04459186
81	0x3d2c8e94	0.04212816
82	0x3c8553a8	0.016275242
83	0x3d835832	0.06413306
84	0x3d82fbc6	0.06395678
85	0x3dc1bf98	0.09460372
86	0x3da0b124	0.07846287
87	0xbcd5c93c	-0.026096933
88	0xbdb0f695	-0.08640782
89	0x3c98da30	0.018658727
90	0xba698600	-0.0008908212
91	0xbcda12fc	-0.02662038
92	0xbc8c01f4	-0.017090775
93	0x3b9d4b90	0.0048002675
94	0x3d988270	0.07446754
95	0x3d025280	0.03181696
96	0xbd147224	-0.036241665
97	0xbd2be93b	-0.041970473
98	0xbccf0aec	-0.025273763
99	0xbd2192f7	-0.039446797
100	0x3dbbf595	0.091777004
101	0x3d5d6b17	0.054057207
102	0x3dbcbe42	0.09215976
103	0x39aafe1f	0.00032614262
104	0x3ca89dfd	0.020583147
105	0x3d10f6ec	0.035391733
106	0xbdc5d9e2	-0.096606985
107	0x3c1552ea	0.0091140065
108	0xbbdfb470	-0.0068269297
109	0xbd6a611c	-0.057221517
110	0xbda230e2	-0.0791948
111	0x3db90af6	0.09035294
112	0x3da9f31a	0.08298321
113	0x3d41c058	0.047302574
114	0x3dc775d4	0.09739271
115	0xbd29a57e	-0.04141759
116	0xbc906984	-0.017628439
117	0x3d1e47b4	0.0386426
118	0xbc8a250c	-0.016863368
119	0xbca4120c	-0.020028137
120	0xbdacc53d	-0.08436058
121	0x3ce0a030	0.027420133
122	0xbd7ca301	-0.06167889
123	0x3b733f36	0.0037116534
124	0x3dcbcade	0.09950803
125	0xbd00ae54	-0.031416252
126	0xbd03c3c0	-0.032169104
127	0x3d7c367a	0.06157539
128	0xbd19b22c	-0.037523434
129	0xbc0f9a58	-0.008764826
130	0x3dc32c46	0.09529929
131	0xbd2b6353	-0.04184277
132	0xbd95898b	-0.07301625
133	0xbd69f4e9	-0.05711833
134	0xbce7cd67	-0.028296186
135	0xbd465cc8	-0.048428327
136	0xbd58efff	-0.052963253
137	0x3d28de14	0.041227415
138	0x3c8e15b3	0.017344331
139	0xbd05ccc9	-0.032666
140	0xbda26469	-0.07929308
141	0xbd03a00a	-0.032135047
142	0xbd306e5a	-0.04307399
143	0xbd080a12	-0.03321273
144	0xbdbc9088	-0.09207255
145	0x3cb41e60	0.02198714
146	0xbd999300	-0.07498741
147	0xbda2c97c	-0.07948586
148	0xbdaac762	-0.083388105
149	0x3d2e7c54	0.042599037
150	0xbd7bac87	-0.06144383
151	0xbd2c8c41	-0.042125944
152	0x3da3d767	0.08000069
153	0x3d5df7de	0.054191463
154	0x3d6fb462	0.058521636
155	0xbdc677f7	-0.0969085
156	0xbd95e3f4	-0.07318869
157	0xbd1dd12c	-0.03852956
158	0x3dacac6c	0.08431324
159	0x3c2b12bf	0.010441481
160	0xbd9c53ae	-0.07633148
161	0x3a27a9f2	0.0006395868
162	0xbda25798	-0.079268634
163	0xbcb72ff0	-0.022361726
164	0xbce5e794	-0.028064527
165	0x3db4f1ad	0.088351585
166	0x3d017c53	0.031612705
167	0xbc91c99e	-0.017796334
168	0x3c8d3dfc	0.01724147
169	0xbcf15958	-0.029461548
170	0x3d244068	0.040100485
171	0x3d255d30	0.040372074
172	0x3ce08788	0.027408376
173	0xbd22f1de	-0.039781444
174	0x3db2543c	0.08707473
175	0xbc716870	-0.0147343725
176	0xbd22c047	-0.03973415
177	0x3d82ea04	0.06392291
178	0x3daa5d9e	0.08318637
179	0x3dd002ec	0.10156807
180	0x3cf7b308	0.030236736
181	0xbd0e8268	-0.034792334
182	0x3d545288	0.05183652
183	0x3db35514	0.08756462
184	0xbdcd045c	-0.10010597
185	0xbc4f2970	-0.012644157
186	0xbd8e8bec	-0.06960282
187	0x3c9bd064	0.019020267
188	0x3d2ce5c8	0.042211324
189	0xbcacb8fa	-0.021084297
190	0xbc0be1cc	-0.008537721
191	0x3d3c2b4f	0.04593974
192	0xbc8c8598	-0.017153546
193	0xbdaf8889	-0.08570964
194	0x3da73f36	0.081663534
195	0xbd5268a3	-0.05136932
196	0xbc37b428	-0.011212386
197	0x3c1dbb30	0.0096271485
198	0xbbc8fc70	-0.0061336085
199	0xbdc4a009	-0.09600837
200	0x3d3fccb4	0.04682608
201	0xbd3de3c9	-0.04635981
202	0xbd58d2de	-0.052935474
203	0x3cc7c160	0.0243842
204	0xbd5a2998	-0.053262323
205	0xbd413440	-0.04716897
206	0xbd0cdc54	-0.03438981
207	0xbd1d0cf4	-0.03834243
208	0xbd2e977f	-0.042624947
209	0xbce17b7c	-0.027524702
210	0x3cd947b8	0.026523456
211	0xbda92530	-0.08259046
212	0xbd7d0900	-0.06177616
213	0x3ac33280	0.001489237
214	0x3c688c30	0.01419358
215	0x3d66e240	0.056368113
216	0xbd92d3b9	-0.07169289
217	0x3d057068	0.032577902
218	0x3d6d9cfc	0.05801104
219	0x3d681fdc	0.05667101
220	0xbdc2b04b	-0.095062815
221	0xbd1f8738	-0.038947314
222	0xbdb3ab4a	-0.08772905
223	0xbd8445b0	-0.06458604
224	0x3d68d838	0.056846827
225	0xbc79b068	-0.015239812
226	0x3d318c8c	0.043346927
227	0xbd756553	-0.059911083
228	0x3c7e1ae8	0.015509345
229	0xbd7cdbcd	-0.061733056
230	0x3d50fa5c	0.05102001
231	0xbd36d83c	-0.04463981
232	0xbcd1a868	-0.025592998
233	0xbdb55ae2	-0.08855225
234	0x39b0c600	0.00033716857
235	0x3dc6769c	0.09690592
236	0x3d4ae918	0.0495387
237	0xbd5f0b78	-0.054454297
238	0x3ab3e900	0.0013726056
239	0xbc375a40	-0.011190951
240	0xbda84775	-0.08216754
241	0x3da3e4a8	0.08002597
242	0x3ad7a780	0.0016453117
243	0x3cb01420	0.021493971
244	0xbd28d1b7	-0.041215625
245	0xbd439ca1	-0.047756795
246	0x3c89dce8	0.01682897
247	0x3d1a8e68	0.037733465
248	0x3cbb88ac	0.022892319
249	0xbd4979af	-0.049188312
250	0x3dcaf0aa	0.09909184
251	0xbc762728	-0.015023984
252	0xbd800248	-0.06250435
253	0xbd438689	-0.047735725
254	0x3dcdc448	0.10047203
255	0x36a50000	4.917383e-06

model.2.bias f4 [64]
0	0xbdae844f	-0.085213296
1	0x3da1d9f6	0.07902901
2	0xbda3fcb9	-0.080071874
3	0xbda06fbb	-0.07833811
4	0x3c622ff6	0.01380538
5	0xbc3019b0	-0.010748312
6	0x3b814bec	0.003945818
7	0x3c036ff5	0.008022298
8	0x3dcf3e2e	0.10119282
9	0xbdcaf242	-0.09909488
10	0xbd7b58ce	-0.061363988
11	0x3c9a3b34	0.018827058
12	0xbdba1483	-0.090859435
13	0xbda5225c	-0.08063194
14	0x3da034e6	0.078225896
15	0x3d21defc	0.039519295
16	0xbd01ac26	-0.031658314
17	0x3cdc74fd	0.026911253
18	0x3c91ec56	0.01781289
19	0xbc2450e4	-0.010029051
20	0x3dad90df	0.084748976
21	0xb8449683	-4.6870216e-05
22	0x3d944298	0.07239264
23	0xbda2b39a	-0.079444125
24	0xbd29db06	-0.041468643
25	0x3c8dcd14	0.017309703
26	0x3d5f4f18	0.05451879
27	0xbd2a2a53	-0.04154427
28	0x3d96dcdf	0.073663466
29	0xbdad68a7	-0.084672265
30	0xbd1f76ee	-0.03893178
31	0x3d9d3036	0.07675211
32	0xbd9c3275	-0.076268114
33	0xbdc408f8	-0.09572023
34	0xbcd308f4	-0.025761105
35	0xbdae24f7	-0.08503144
36	0x3cf8666e	0.03032228
37	0xbc92ffec	-0.017944299
38	0xbcf61c2c	-0.03004273
39	0x3d6724fd	0.05643176
40	0x3bc2e376	0.0059475256
41	0xbdbc725c	-0.092015
42	0xbdc61c83	-0.09673407
43	0x3d83523d	0.0641217
44	0x3d340f06	0.04395964
45	0x3d65b46f	0.056080278
46	0xbdb1862a	-0.08668168
47	0xbca191b4	-0.019722797
48	0x3db2a109	0.08722121
49	0x3da8dbe1	0.082450636
50	0x3d8df7a9	0.06932003
51	0x3dc1ea41	0.094685085
52	0xbd03002e	-0.031982593
53	0xbda1d0ca	-0.079011515
54	0x3d6b01c4	0.05737473
55	0x3d8539e0	0.065051794
56	0xbcfc7e30	-0.03082189
57	0xbc1c355d	-0.009534207
58	0xbba10e00	-0.004914999
59	0xbdb96b63	-0.090536855
60	0xbd2d10f5	-0.0422525
61	0xbd0477bc	-0.03234075
62	0x3d1c18d9	0.038109634
63	0xbcf3f348	-0.029779091

model.5.weight f4 [96, 64, 3]
0	0x3d056986	0.032571338
1	0x3d851660	0.06498408
2	0xbc7c0d50	-0.015384033
3	0xbc901afc	-0.017590992
4	0xbd39ab07	-0.04532912
5	0xbbb47a70	-0.0055077597
6	0xbd8741f9	-0.0660438
7	0x3d47ce78	0.04878089
8	0x3d7efe60	0.06225431
9	0x3c9dadcc	0.019247912
10	0x3d8bc92a	0.068254784
11	0x3d14e5a6	0.036351822
12	0x3d43f2ac	0.04783885
13	0x3d888390	0.066657186
14	0xbd4b3cbb	-0.049618464
15	0xbbb98800	-0.0056619644
16	0x3cde1b94	0.02711276
17	0xbc9e3f50	-0.0193173
18	0xbd51b070	-0.051193655
19	0xbcb9a290	-0.022660524
20	0xbd128958	-0.035775512
21	0xbccf5b28	-0.025312021
22	0xbd6130bd	-0.05497812
23	0xbcb2560c	-0.021769546
24	0x3d296052	0.041351624
25	0xbd01bdfa	-0.031675316
26	0x3cfbd56c	0.030741416
27	0xbd7318dd	-0.059349883
28	0xbd3a453a	-0.045476176
29	0x3bf51ae0	0.0074800104
30	0x3d88dfde	0.06683324
31	0xbd887f4a	-0.066649035
32	0x3d00ab48	0.031413347
33	0x3c4ecc80	0.012621999
34	0xbd718a0a	-0.058969535
35	0xbd56a0d4	-0.05239947
36	0x3d14eed0	0.03636056
37	0xbd13b431	-0.036060516
38	0x3d4f2804	0.05057527
39	0xbd4c6be7	-0.04990759
40	0x3d5f4f60	0.054519057
41	0xbd16ce21	-0.036817674
42	0x3cef7d78	0.029234633
43	0x3cb0e43c	0.021593206
44	0xbd67f475	-0.056629617
45	0xbd1b06bb	-0.037848216
46	0xbc8f35cc	-0.017481707
47	0x39701c00	0.00022898614
48	0x3d11fd64	0.035642043
49	0xbcf305fc	-0.02966594
50	0x3c2df7e8	0.0106181875
51	0xbd2059cb	-0.039148133
52	0xbd0c82bc	-0.034304366
53	0x3d40e746	0.04709556
54	0xbca1ebe4	-0.019765802
55	0xbd81824b	-0.063236795
56	0x3b46ab80	0.0030314624
57	0xbc288f30	-0.010288045
58	0x3ca81294	0.020516671
59	0xbd16cb1e	-0.0368148
60	0x3b4bb680	0.003108412
61	0xbd11d548	-0.03560379
62	0xbd32a6d8	-0.043616146
63	0x3c87254c	0.016497277
64	0x3cb6bbe8	0.022306398
65	0x3c5abf58	0.013351284
66	0x3d8886b2	0.06666316
67	0x3bdb3900	0.0066901445
68	0x3bc918e0	0.0061369985
69	0xbc1a9578	-0.00943505
70	0xbd8ee510	-0.06977284
71	0x3ce73b34	0.028226472
72	0x3d66703c	0.05625938
73	0x3bea56d0	0.007151462
74	0xbd668a49	-0.056284223
75	0x3d84b59c	0.06479952
76	0x3c847204	0.016167648
77	0x3d55cfd8	0.05220017
78	0x3d0062d0	0.031344235
79	0x3c3a81e8	0.011383511
80	0xbcae3042	-0.021263245
81	0x3c72c080	0.014816403
82	0x3cbe3a4c	0.023221157
83	0xbb8f5da0	-0.0043751746
84	0xbd3cd024	-0.046096936
85	0xbd1b5a01	-0.03792763
86	0xbd8777b2	-0.06614627
87	0xbce73a06	-0.02822591
88	0xbc3e9e00	-0.01163435
89	0x3d71c408	0.05902484
90	0xbd1e1f84	-0.038604274
91	0xbd916ece	-0.071012124
92	0x3d2205b4	0.03955622
93	0x3d7edee8	0.0622243
94	0xbd669036	-0.056289874
95	0xba3cf080	-0.0007207468
96	0x3cbbf630	0.02294454
97	0x3d3e922e	0.046526127
98	0xbc5442cc	-0.012955379
99	0x3d06a2a6	0.032869957
100	0x3d631fa0	0.05545008
101	0x3d2cfc20	0.042232633
102	0x3d100678	0.03516242
103	0x3d33c4fa	0.043889023
104	0xbd847220	-0.0646708
105	0x3c7b6888	0.015344746
106	0x3d63f5f4	0.05565448
107	0xbd6a3634	-0.0571806
108	0xbd818ef8	-0.06326097
109	0xbd741bd0	-0.059596837
110	0x3cb58598	0.022158429
111	0x3d892b72	0.0669774
112	0xbbd67ec0	-0.0065458715
113	0xbceb04ee	-0.028688874
114	0x3b8bf380	0.004270971
115	0xbd73bc10	-0.059505522
116	0x3c4caf78	0.012493007
117	0xbd42581c	-0.04744731
118	0xbd46f680	-0.048574924
119	0xbd57a1e4	-0.052644625
120	0xbca7607c	-0.02043175
121	0x3d40a572	0.04703278
122	0x3c702950	0.014658287
123	0x3d4db860	0.05022466
124	0xbd8e97ea	-0.06962569
125	0xbd70bc86	-0.05877354
126	0x3d351ee0	0.044218898
127	0x3d68d9c8	0.056848317
128	0x3d7b0934	0.061288074
129	0xbd89445a	-0.0670249
130	0x3d04685c	0.032326087
131	0xbd91be36	-0.07116358
132	0xbcaed88e	-0.021343496
133	0x3abf9fc0	0.0014619753
134	0x3d0a3b82	0.033748157
135	0xbcb49a64	-0.022046275
136	0xbd7f9912	-0.06240184
137	0xbd8f9feb	-0.07012924
138	0xbced163c	-0.028941266
139	0x3d6146a4	0.05499901
140	0x3d0041fc	0.031312928
141	0x3d123720	0.035697103
142	0xbd6f126c	-0.058367178
143	0xbd84ce06	-0.06484608
144	0x3d88c132	0.06677474
145	0x3d411606	0.047140144
146	0xbcfed280	-0.031106234
147	0x3bc6d8b0	0.0060683116
148	0x3d54f596	0.05199202
149	0x3d850bf2	0.06496419
150	0xbd6dda43	-0.05806948
151	0xbd12824e	-0.0357688
152	0x3ce5be4c	0.028044842
153	0x3d61da80	0.05514002
154	0x3c4db5e8	0.012555577
155	0xbb91f1e0	-0.0044538826
156	0x3b373420	0.0027954653
157	0x3d867ffa	0.06567378
158	0xbd68163b	-0.056661826
159	0x3d06ab2a	0.03287808
160	0xbd53a265	-0.051668543
161	0x3be0d8a0	0.006861761
162	0xbd8b9eef	-0.068174236
163	0x3d3f74c2	0.04674221
164	0xbd24b349	-0.040210042
165	0x3b9d1780	0.004794061
166	0xbd3963b5	-0.045261104
167	0x3bd891b0	0.006609164
168	0xbd0ff290	-0.035143435
169	0xbd172d2b	-0.03690831
170	0xbd001a8b	-0.031275313
171	0x3d376968	0.044778258
172	0x3c253de0	0.010085553
173	0xbc9846fa	-0.018588532
174	0x3d7bc4d4	0.061467007
175	0x3c67b778	0.014142863
176	0xbcbf529c	-0.02335482
177	0xbb55dd80	-0.0032633245
178	0xbce7283c	-0.028217427
179	0xbcea890e	-0.028629806
180	0xbcb89e98	-0.02253656
181	0x3c8ce474	0.017198779
182	0xbd839b6e	-0.0642613
183	0xbd663520	-0.056203008
184	0x3d466ec4	0.048445478
185	0xbc8d9872	-0.017284606
186	0xbb2ea080	-0.0026645958
187	0x3cce7adc	0.025205068
188	0xbd0438ad	-0.032280613
189	0x3d4f14fc	0.05055712
190	0xbc85d368	-0.016336158
191	0x3b9019f0	0.0043976232
192	0xbd4d03b1	-0.05005235
193	0x3cf06858	0.02934663
194	0xbd521ac6	-0.051295064
195	0x3d33d50c	0.04390435
196	0xbc272db1	-0.010203765
197	0xbcd7d078	-0.026344523
198	0xbcc5e846	-0.024158608
199	0x3ce18f24	0.027534075
200	0x3d90c280	0.07068348
201	0x3ca09eec	0.01960703
202	0x3d353024	0.044235364
203	0xbd792c11	-0.06083304
204	0xbc8b756a	-0.01702376
205	0xbd275fd4	-0.040862873
206	0xbd54214b	-0.051789563
207	0x3c4b0630	0.012391612
208	0xbcb8d314	-0.022561587
209	0x3c85d4a0	0.016336739
210	0xbceb0900	-0.028690815
211	0xbd86c2b9	-0.06580109
212	0xbd181be6	-0.03713598
213	0xbd8e0c48	-0.06935936
214	0x3c801e80	0.015639544
215	0xbd5de122	-0.05416978
216	0x3d634bd3	0.055492233
217	0x3d0000fb	0.031250935
218	0xbd25cafc	-0.040476784
219	0xbca8f49c	-0.020624451
220	0xbd846c44	-0.064659625
221	0x3d54f606	0.05199244
222	0xbd043049	-0.03227261
223	0xbc7864f4	-0.015160788
224	0x3baeb2b0	0.00533136
225	0x3d0f802a	0.035034336
226	0xbcb0408a	-0.02151515
227	0x3d10ed5c	0.035382614
228	0x3d180852	0.03711731
229	0xbc121898	-0.008916996
230	0x3d43ffc0	0.047851324
231	0xbd819c17	-0.063286
232	0xbd20f5d9	-0.03929696
233	0xbbb99520	-0.005663529
234	0xbbf08d51	-0.007341065
235	0x3cd1ccad	0.025610292
236	0x3d5587e1	0.052131537
237	0xbd557322	-0.052111752
238	0x3d1b1e16	0.03787049
239	0x3c8dda84	0.01731611
240	0x3d757fd0	0.059936345
241	0x3d1dc640	0.038519144
242	0xbc80810a	-0.01568653
243	0xbc2794ff	-0.0102283945
244	0xbd44b158	-0.04802069
245	0x3c827d6f	0.015928952
246	0x3d6754a0	0.05647719
247	0x3ccb73c5	0.024835477
248	0x3d6f0420	0.058353543
249	0x3cec2519	0.028826283
250	0x3c638b21	0.013888151
251	0xbc7ff4af	-0.015622302
252	0xbd7f5d79	-0.062345
253	0xbc5d9884	-0.013525132
254	0x3d7af175	0.061265428
255	0x3d8086c6	0.06275706

model.5.bias f4 [96]
0	0xbc279290	-0.010227814
1	0x3d7fb74c	0.062430665
2	0x3cd1a5a9	0.025591688
3	0xbd50b5b0	-0.05095452
4	0xbca6d164	-0.020363517
5	0xbce0ea5e	-0.027455505
6	0xbd2451e5	-0.040117163
7	0xbd758169	-0.05993787
8	0x3d126b60	0.035746932
9	0x3d6395ae	0.055562668
10	0xbd69e74a	-0.05710534
11	0x3d93a1cb	0.07208594
12	0x3d097228	0.033556134
13	0x3d805754	0.062666565
14	0xbd69023c	-0.056886896
15	0x3caf73ec	0.02141758
16	0x3d4c1744	0.049826875
17	0x3d249aa2	0.04018653
18	0xbcafff3e	-0.021484014
19	0x3d4199f0	0.047265947
20	0x3d179e7d	0.03701638
21	0xbd3be89e	-0.045876138
22	0x3d1b954c	0.037984177
23	0xbd0d098e	-0.03443294
24	0x3d68f696	0.056875788
25	0xbcb8aed0	-0.022544295
26	0xbd3151de	-0.043290965
27	0x3d05a622	0.03262914
28	0xbd2a53a4	-0.041583672
29	0xbcf13cd4	-0.02944795
30	0x3d3efa79	0.046625588
31	0x3d85e2ea	0.06537421
32	0x3cbd45f4	0.023104645
33	0x3d829679	0.06376357
34	0x3ce3f1c8	0.027825251
35	0xbc35b71c	-0.01109102
36	0xbcc56364	-0.024095245
37	0xbc9b1cec	-0.01893469
38	0x3acdcd00	0.0015701354
39	0xbc07faf8	-0.008299582
40	0x3c78d068	0.015186407
41	0x3c9838f0	0.018581837
42	0xbd3f238c	-0.04666476
43	0xbd270da9	-0.04078451
44	0x3d75e026	0.060028218
45	0xbcfdcc1c	-0.030981116
46	0x3d19ab0e	0.037516646
47	0x3d8b44c3	0.06800225
48	0xbd863d8c	-0.06554708
49	0x3c3f5b76	0.011679521
50	0x3c940ea0	0.01807338
51	0xbd376798	-0.04477653
52	0xbc92b6d1	-0.01790944
53	0xbd0d17d6	-0.03444656
54	0xbd92a727	-0.07160788
55	0xbccd091c	-0.025028758
56	0x3d86f40e	0.065895185
57	0x3d8c5c7b	0.06853577
58	0xbd2e2f12	-0.04252536
59	0xbcbc68be	-0.022999164
60	0xbd19282a	-0.03739182
61	0x3d46a893	0.04850061
62	0xbd72c0fd	-0.05926608
63	0xbcc92e88	-0.02455832
64	0xbcbd0894	-0.02307538
65	0xbcee8ae0	-0.029118955
66	0x3d7dbefa	0.061949708
67	0xbd806b2c	-0.062704414
68	0xbd6a02fb	-0.05713175
69	0xbd73868b	-0.059454482
70	0xbd059d8d	-0.032620955
71	0x3d20880d	0.039192248
72	0x3c229140	0.009922326
73	0xbb540b91	-0.0032355527
74	0x3d674a32	0.056467243
75	0x3d4b36fd	0.049612988
76	0x3c8a03a8	0.016847447
77	0x3c60fbe5	0.013731931
78	0xbcec6536	-0.028856855
79	0xbd8ecef9	-0.06973071
80	0x3c511069	0.01276026
81	0x3d7e8c6b	0.06214563
82	0x3d56e698	0.052466005
83	0xbbdc8060	-0.0067291707
84	0xbafd3580	-0.0019318312
85	0x3d8ed1a3	0.06973579
86	0xbd93a494	-0.07209125
87	0x3d81af79	0.06332297
88	0x3d90537e	0.07047175
89	0x3d3a60d9	0.045502517
90	0x3cec830d	0.028871084
91	0x3b430be0	0.0029761717
92	0x3ccc526b	0.024941644
93	0xbd197712	-0.03746707
94	0xbc3389b4	-0.010958124
95	0xbd3dc35a	-0.04632888

model.8.weight f4 [128, 96, 3]
0	0x3be97f08	0.007125739
1	0xbc80fb16	-0.015744727
2	0x3d5746bb	0.05255769
3	0x3cb0b23f	0.02156937
4	0x3ce005c3	0.027346497
5	0xbd20ceec	-0.039259836
6	0xba337e38	-0.0006847116
7	0x3d537186	0.051621936
8	0x3cc5560b	0.02408888
9	0xbd529970	-0.05141586
10	0xbcc728ae	-0.02431139
11	0x3d0abfc7	0.0338743
12	0x3d00a8df	0.031411048
13	0x3c07773c	0.008268174
14	0xbc837e46	-0.016051423
15	0x3d0cd835	0.03438588
16	0x3c8591a2	0.016304795
17	0x3bc3afb8	0.005971875
18	0x3c94c6b6	0.018161159
19	0xbd0a4efb	-0.033766728
20	0xbd273632	-0.04082317
21	0x3d1bcc85	0.038036842
22	0xbd03bc9a	-0.032162286
23	0xbd2f5a08	-0.04281047
24	0xbd433583	-0.047658455
25	0x3d3f1f5e	0.046660773
26	0x3cc547ee	0.02408215
27	0x3cd0f18a	0.0255058
28	0x3d2e0b5e	0.04249131
29	0xbd62b644	-0.055349603
30	0xbd43424c	-0.047670648
31	0x3cb73182	0.022362474
32	0x3d504d6d	0.05085509
33	0x3cd9ca97	0.02658586
34	0x3bb41e7e	0.005496799
35	0x3d6a62ae	0.057223015
36	0xbcd33230	-0.025780767
37	0x3d4f9a52	0.05068428
38	0x3d45419c	0.048158273
39	0xbd3c248a	-0.045933284
40	0xbba9b4d9	-0.0051790294
41	0x3d483c44	0.0488856
42	0x3d5f94f5	0.054585416
43	0xbc3fe328	-0.011711873
44	0x3d532ad3	0.051554512
45	0xbd43c587	-0.0477958
46	0x3c82a305	0.015946874
47	0x3c2d6928	0.010584153
48	0x3c89fb1a	0.016843367
49	0x3d02bacf	0.031916436
50	0x3c261ab4	0.010138202
51	0x3cf8390e	0.030300643
52	0x3d3dba40	0.0463202
53	0x3d08c93a	0.03339503
54	0x3d1a52e5	0.03767671
55	0x3d702d35	0.058636863
56	0x3d3d5119	0.04621992
57	0x3b681124	0.0035410607
58	0xbd2964ee	-0.04135602
59	0x3cd22ee0	0.025657117
60	0x3bc3c21b	0.005974067
61	0x3d5c6ac3	0.053812753
62	0xbc8b14bf	-0.016977666
63	0x3afc7d60	0.0019263439
64	0xbd615611	-0.05501372
65	0xbce728d3	-0.028217709
66	0x3d2db2ff	0.042407032
67	0xbd1c2673	-0.038122606
68	0xbcf7b57f	-0.030237911
69	0x3b204110	0.0024452843
70	0x3b327900	0.0027232766
71	0x3d2c992b	0.04213826
72	0xbd1d80ee	-0.038453035
73	0x3c2e5937	0.010641388
74	0xbd1763a4	-0.03696026
75	0x3cf11432	0.029428575
76	0x3cb92812	0.022602115
77	0xbc0da760	-0.008645862
78	0x3d2ca7a1	0.04215205
79	0x3d28a603	0.041173946
80	0xbd095a9e	-0.033533685
81	0xbd518278	-0.051149815
82	0x3ced31e8	0.028954461
83	0xbd45bab4	-0.048273757
84	0x3bf18028	0.0073700137
85	0x3ba15928	0.0049239583
86	0x3caa6b52	0.020803127
87	0x3cf14a5a	0.029454399
88	0xbd00a5fc	-0.031408295
89	0x3b70ba10	0.0036731996
90	0xbd0e1c1d	-0.03469478
91	0x3d2a8a92	0.041636057
92	0x3c8df30b	0.017327806
93	0x3d52ae59	0.051435802
94	0x3d3e8077	0.046509232
95	0x3cd7de9b	0.026351264
96	0x3d189e4f	0.03726035
97	0x386870c8	5.5418146e-05
98	0xbd345793	-0.04402883
99	0xbcc690c3	-0.02423895
100	0xbcbddfc7	-0.023177994
101	0xbcd2710f	-0.025688676
102	0xbcf42a71	-0.029805394
103	0xbd6b9a42	-0.05752016
104	0x3c33d324	0.010975633
105	0xbd1925c2	-0.037389524
106	0xbd527559	-0.051381443
107	0x3c95f3a9	0.018304663
108	0xbd62141a	-0.05519495
109	0x3c5150ec	0.012775641
110	0xbb60ffa0	-0.0034332052
111	0x3cfec82a	0.031101305
112	0x3d47f349	0.048816
113	0x3cede7ca	0.02904119
114	0xbd41a769	-0.047278795
115	0xbbb88f28	-0.0056323
116	0x3cdc6bf6	0.026906949
117	0xbd3d8aed	-0.046275068
118	0xbd695622	-0.05696691
119	0xbd586350	-0.052829087
120	0xbd33e99a	-0.04392395
121	0x3cd12ae2	0.025533143
122	0xbc8f407a	-0.0174868
123	0x3cc3b00e	0.02388766
124	0xbd008ab4	-0.031382278
125	0xbc744198	-0.014908217
126	0xbc0ff158	-0.008785568
127	0x3d680867	0.056648638
128	0x3bff2cb8	0.0077873133
129	0xbd455107	-0.048172977
130	0x3d3a406f	0.045471605
131	0x3b57c8f0	0.0032926165
132	0x3d59da36	0.053186618
133	0xba04da5c	-0.00050679385
134	0xbd43681c	-0.04770671
135	0x3c1ff11c	0.009762075
136	0xbd043479	-0.032276604
137	0xbd25edb2	-0.040509887
138	0x3bca5962	0.006175206
139	0x3cb5b826	0.022182535
140	0xbcfb2d0c	-0.030661128
141	0xbc8a0ec4	-0.016852744
142	0xbcbc4236	-0.02298079
143	0x3d36206e	0.04446452
144	0x3c6fd5e4	0.014638398
145	0xbc50f1cc	-0.012752961
146	0xbc9ab18c	-0.01888349
147	0xbcaf8501	-0.021425726
148	0xbb04b946	-0.0020252033
149	0x3c68f0ed	0.014217597
150	0xbcba5446	-0.022745263
151	0xbcc8cede	-0.024512704
152	0xbd32837e	-0.043582432
153	0x3d593b2b	0.053034943
154	0xbcc6ed20	-0.024282992
155	0x3d5463b5	0.0518529
156	0xbbc20f23	-0.0059222146
157	0xbc5ce3f3	-0.013482082
158	0xbcabe8c3	-0.020985013
159	0xba43d040	-0.00074696913
160	0xbb21cd40	-0.002468899
161	0x3c75567c	0.014974233
162	0xbce4867f	-0.027896164
163	0x3d4fdc5b	0.050747257
164	0x3c5decbc	0.013545211
165	0xbc1c3de8	-0.009536244
166	0xbd24a378	-0.04019496
167	0x3c6dc3ec	0.014512043
168	0xbb4ff38f	-0.0031730866
169	0xbc11ad5a	-0.008891428
170	0xbd5c4345	-0.05377509
171	0x3cb8e034	0.022567846
172	0x3be422fb	0.006962178
173	0x3d1291b1	0.035783473
174	0xbd0770ff	-0.033066746
175	0x3d11b427	0.035572197
176	0x3d38f5db	0.04515634
177	0x3c5adf54	0.01335891
178	0x3d35cc31	0.044384185
179	0xbd66f1ed	-0.056383062
180	0x3d1cc445	0.038273115
181	0xbc97cd6a	-0.018530566
182	0x3ca9e94a	0.020741124
183	0x3d3067d2	0.04306776
184	0x3c017a55	0.007902701
185	0xba80dd1d	-0.0009831522
186	0x3cd450ce	0.025917437
187	0x3d67bdc3	0.056577455
188	0xbd2c51a7	-0.042070057
189	0x3d60e7a5	0.054908413
190	0x3c189244	0.009312216
191	0x3cfeb41e	0.031091746
192	0xbaf68240	-0.0018807128
193	0xbc4799b0	-0.012182638
194	0xbc186d5c	-0.009303417
195	0xbc54d2d8	-0.012989722
196	0xbd5096ac	-0.050924942
197	0x3d2c795f	0.042107936
198	0x3cf026b9	0.02931534
199	0xbd6f2483	-0.05838443
200	0x3ceb34e0	0.028711736
201	0xbd35e701	-0.044409756
202	0xbcc89188	-0.024483457
203	0x3d4f4fdb	0.050613265
204	0xbbaaa720	-0.005207911
205	0x3d1a1753	0.0376199
206	0x3d0b6b83	0.034038078
207	0x3bb500b8	0.0055237673
208	0xbd676d6a	-0.05650083
209	0x3d2922bd	0.041292895
210	0xbcc9eb06	-0.0246482
211	0xbd1e1568	-0.038594633
212	0xbc9d2324	-0.019181795
213	0x3d424e33	0.047437858
214	0xbc843b9b	-0.016141703
215	0x3ccbbc7b	0.024870148
216	0x3bd03a68	0.006354619
217	0xbce7aee5	-0.028281638
218	0x3c0f32a4	0.008740101
219	0x3d3e1a38	0.046411723
220	0x3d44b59a	0.04802475
221	0xb91ee8b6	-0.00015154746
222	0x3bb140d1	0.005409338
223	0x3d10e8a0	0.0353781
224	0xbcb111aa	-0.021614868
225	0xbc391e2f	-0.0112987
226	0x3cfb7e88	0.030699983
227	0x3d29c5b8	0.041448325
228	0x3bee7668	0.0072772987
229	0xbbbe5750	-0.0058087483
230	0xbd4ec4df	-0.05048072
231	0xbb945fc2	-0.004528017
232	0xbd202f0e	-0.039107375
233	0xbc3b9c49	-0.0114508355
234	0xba816b22	-0.0009873847
235	0x3cb8da33	0.022564983
236	0x3d4ee42d	0.050510574
237	0x3b801b28	0.0039094873
238	0x3c13efa4	0.009029303
239	0xbcd7feca	-0.02636661
240	0xbd2fb09a	-0.04289303
241	0xbd57936b	-0.052630823
242	0x3c4f65b0	0.0126585215
243	0x3c08db41	0.008353055
244	0x3d54af88	0.051925212
245	0x3d0b0e00	0.0339489
246	0x3b0a3fc1	0.002109513
247	0xbc9a6567	-0.01884718
248	0x3d270ec1	0.040785555
249	0xbd518709	-0.05115417
250	0xbae92260	-0.0017786734
251	0x3ca9dbfe	0.020734783
252	0xbd6c5454	-0.05769761
253	0x3d3a2a03	0.04545022
254	0xbc754f10	-0.014972463
255	0x3d4ea60f	0.050451335

model.8.bias f4 [128]
0	0xbbc9f11a	-0.0061627747
1	0xbcd1d710	-0.025615245
2	0xbd1f6c0c	-0.0389214
3	0xbd3c613c	-0.045991167
4	0x3ceee4c6	0.029161822
5	0xbc64c0ea	-0.01396201
6	0xbcf48d52	-0.029852543
7	0x37615000	1.34296715e-05
8	0xbd55e56e	-0.052220754
9	0x3d1fc5a2	0.039006837
10	0x3d2e3072	0.04252667
11	0x3ae0b6a0	0.001714427
12	0x3d55c725	0.052191872
13	0xbd468851	-0.048469845
14	0x3a24c812	0.00062859163
15	0x3d5dce0f	0.05415159
16	0xbd42a562	-0.047521003
17	0xbce93ad4	-0.028470434
18	0xbd2abfaf	-0.04168671
19	0xbcf4de23	-0.02989108
20	0x3d65d0c3	0.056107294
21	0xbc21ad34	-0.009867955
22	0xbb19dd0a	-0.0023477697
23	0xbccb3c2a	-0.024808962
24	0xbcfdaf48	-0.03096737
25	0x3c7e71c6	0.015530055
26	0xbd26de3a	-0.040739276
27	0x3ba46ac8	0.005017612
28	0x3d0d13e0	0.034442782
29	0xbcc372f0	-0.023858517
30	0x3b93b7be	0.0045079878
31	0x3d07f052	0.03318817
32	0x3d48a432	0.048984714
33	0xbc351d04	-0.011054281
34	0x3d297a0b	0.041376155
35	0x3d3446a9	0.0440127
36	0xbd60c869	-0.054878626
37	0xbd43fb7d	-0.04784726
38	0x3cdae842	0.026722077
39	0x3d0d8d2e	0.034558468
40	0x3d1d54f7	0.038411107
41	0x3cd134eb	0.025537929
42	0xbcd0b26a	-0.0254757
43	0xbca4e19e	-0.020127114
44	0x3c1780ac	0.009246986
45	0x3d31a28c	0.043367907
46	0xbbb66b56	-0.0055669947
47	0xbd49d31d	-0.0492736
48	0xbd0768fe	-0.033059113
49	0xbd20e2ac	-0.03927867
50	0xbcc5fd8b	-0.02416875
51	0x3d448e70	0.0479874
52	0x3c44a66a	0.012002567
53	0x3cba5db7	0.022749765
54	0xbd06ec10	-0.03293997
55	0x3d5146ba	0.05109284
56	0x3d369386	0.044574283
57	0x3d6ef352	0.058337517
58	0x3bf4dba8	0.007472474
59	0x3bb75e3d	0.005595951
60	0x3cf92cef	0.030416934
61	0xbc980254	-0.018555798
62	0xbd021a4c	-0.03176336
63	0x3cc625ea	0.024188
64	0xbd3f4d0d	-0.04670434
65	0x3d12940a	0.035785712
66	0x3b2ca8a0	0.0026345626
67	0x3bf92ea2	0.007604436
68	0x3ba1ac52	0.0049338723
69	0x3cb81676	0.022471648
70	0xbba1a840	-0.004933387
71	0x3a792940	0.0009504743
72	0x3d47354a	0.048634805
73	0xbb268950	-0.0025411434
74	0x3d4bfffb	0.04980467
75	0x3d0eca6d	0.034861017
76	0x3cea85b1	0.028628202
77	0x3c2918ec	0.010320883
78	0x3cd08e14	0.025458373
79	0xbcce5681	-0.025187733
80	0x3d037621	0.03209508
81	0x3d0df329	0.034655724
82	0xbd5523de	-0.05203616
83	0x3d0a1e56	0.033720337
84	0x3cd9c9c2	0.026585463
85	0xbc71c6c8	-0.014756866
86	0xbc389ca0	-0.011267811
87	0xbd603542	-0.05473829
88	0x3c9242de	0.01785415
89	0xbd54b6ad	-0.051932026
90	0x3d0bdf11	0.03414828
91	0xbd42951c	-0.047505483
92	0xbcfa42b0	-0.030549377
93	0x3c4b5bdc	0.012412038
94	0x3d4f32b0	0.05058545
95	0xbd471ca0	-0.048611283
96	0x3c3ba80c	0.01145364
97	0x3b71da90	0.0036903955
98	0xbd5482e2	-0.051882632
99	0x3cc9d947	0.024639739
100	0xbd17d3f4	-0.03706737
101	0xbcd5f560	-0.02611798
102	0xbd50d047	-0.05097988
103	0xbca34c9c	-0.019933991
104	0x3ba95978	0.005168136
105	0xbc4ecec4	-0.012622539
106	0x3cdee081	0.027206661
107	0x3c3731dc	0.011181321
108	0x3ca88440	0.020570874
109	0xbd55a3fa	-0.052158333
110	0xbd384b10	-0.04499346
111	0x3c9e48ee	0.019321885
112	0xbb1c8500	-0.0023882985
113	0x3d2acb6e	0.041697912
114	0x3ca091d2	0.019600783
115	0xbd16880a	-0.03675083
116	0xbd114ca9	-0.0354735
117	0xbc16841c	-0.009186771
118	0xbc33ebf8	-0.010981552
119	0x3ccc7187	0.024956478
120	0xbd682ad2	-0.05668146
121	0xbd56b5f0	-0.052419603
122	0xbbd5c068	-0.0065231808
123	0xbca13bd6	-0.019681852
124	0xbcc0195e	-0.023449596
125	0x3c22f8e6	0.009947037
126	0xbcbe0810	-0.023197204
127	0x3d3d9af6	0.04629036

model.13.weight f4 [150, 256]
0	0xbc9ca0cf	-0.019119648
1	0x3cf2f688	0.02965857
2	0x3d30eb4a	0.04319314
3	0xbccba894	-0.024860658
4	0x3d2cb9bc	0.042169318
5	0xbd088496	-0.03332957
6	0xbd66aaaa	-0.0563151
7	0xbd6260d2	-0.055268116
8	0xbc836a04	-0.016041763
9	0xbd19cd84	-0.03754951
10	0xbcc72c7e	-0.024313208
11	0xbc4b31d2	-0.012402015
12	0xbcb07968	-0.021542266
13	0x3d08d716	0.033408247
14	0x3c6525f0	0.013986096
15	0xbc2b84d0	-0.010468677
16	0xbd32f1f0	-0.04368776
17	0x3c6fb798	0.0146311745
18	0x3d08716c	0.033311293
19	0x3cbbcef1	0.022925826
20	0x3c13f738	0.0090311095
21	0xbcea2e56	-0.028586548
22	0x3d58502a	0.052810825
23	0xbd4a1bba	-0.04934285
24	0x3b90f30e	0.0044235056
25	0x3cae89f0	0.021306008
26	0x3c8b20dc	0.016983442
27	0x3c5dfb10	0.0135486275
28	0xbafe565e	-0.0019404402
29	0xbca9aad1	-0.020711334
30	0x3d7d67b2	0.06186647
31	0x3d54e374	0.05197473
32	0x3cf206c8	0.02954425
33	0x3c727070	0.014797315
34	0x3bbeddd0	0.005824782
35	0xbc578a28	-0.013155498
36	0x3c19d0c8	0.009388156
37	0xbc72ef50	-0.014827564
38	0x3d6542f8	0.05597207
39	0x3d0a90cc	0.033829495
40	0xbbf6c0f9	-0.0075303284
41	0x3cdccc86	0.026952993
42	0x3ce85788	0.02836205
43	0x3c6f61c0	0.014610708
44	0xbd6d8492	-0.057987757
45	0x3cc5f4cd	0.024164582
46	0xbce7af44	-0.028281815
47	0xbb1d5240	-0.0024005324
48	0x3d099fa2	0.033599503
49	0xbc79eef0	-0.015254721
50	0xbc5ffb9a	-0.013670826
51	0xbd291f02	-0.041289337
52	0x3d46a28c	0.04849486
53	0x3d6dfdc2	0.05810333
54	0xbd760dee	-0.060071878
55	0xbbed9290	-0.0072501376
56	0x3c18b456	0.009320339
57	0x3d2a00aa	0.04150454
58	0x3ba8c2b0	0.0051501617
59	0xbb9ff260	-0.0048811883
60	0xbbf7f6a9	-0.007567246
61	0xbd2f9919	-0.042870615
62	0xbb078b08	-0.0020682234
63	0x3c25cb2f	0.0101192435
64	0x3b56b34b	0.0032760676
65	0xbcb459b9	-0.02201544
66	0x3d52498e	0.05133968
67	0x3b020a80	0.0019842684
68	0xbd62cbcc	-0.055370137
69	0x3c8d4337	0.017243965
70	0x3c9e009c	0.0192874
71	0x3d284dd3	0.041089844
72	0xbd4b152c	-0.049580738
73	0x3d000f2c	0.03126447
74	0x3d345a18	0.044031233
75	0xbb8ae970	-0.0042392537
76	0x3bca96e0	0.0061825365
77	0xbd091698	-0.033468813
78	0x3d4a0e88	0.049330264
79	0xbbb79c41	-0.0056033437
80	0xbd443c2b	-0.047908943
81	0x3d39d9d1	0.04537374
82	0xbd75869f	-0.059942838
83	0x3d0afc57	0.033932056
84	0xbcc18144	-0.023621209
85	0xbd2941da	-0.041322567
86	0xbd068a54	-0.032846764
87	0xbce8a890	-0.02840069
88	0xbcf9430c	-0.030427478
89	0xbcd12950	-0.025532395
90	0xbd17920b	-0.03700451
91	0x3d7f6491	0.062351767
92	0x3a5e3c81	0.0008477644
93	0x3cee9c09	0.029127138
94	0xbc03d528	-0.008046426
95	0xbd0e073c	-0.034674868
96	0xbd05992a	-0.03261677
97	0xbc6bf4c0	-0.014401615
98	0xbc7f02c0	-0.0155646205
99	0xbd6d912c	-0.057999775
100	0x3d704586	0.058660053
101	0xbd6c2450	-0.057651818
102	0xbd290093	-0.041260313
103	0x3c4bb9a7	0.0124344
104	0x3d3ebf7f	0.046569344
105	0xbd563e1e	-0.052305333
106	0x3d26e582	0.04074622
107	0xbd083c51	-0.033260647
108	0xbbc74b19	-0.0060819504
109	0x3d49015e	0.04907357
110	0xbcc0099b	-0.02344208
111	0xbc257b93	-0.010100263
112	0xbd1a25cf	-0.037633713
113	0xbc23714a	-0.009975741
114	0x3cfd7d9a	0.03094368
115	0xbc89f222	-0.01683909
116	0x3cc43d88	0.023955122
117	0x3d6f8bd6	0.058482967
118	0xbcd174a7	-0.02556832
119	0xbc7535ff	-0.014966487
120	0x3d046ab7	0.032328334
121	0x3cfce356	0.030870121
122	0x3d7c5236	0.06160184
123	0xbd70432c	-0.05865781
124	0xbce65a4c	-0.028119229
125	0xb96f2400	-0.00022806227
126	0x3d25909a	0.040421106
127	0x3d5f5d72	0.054532476
128	0xbcc99c10	-0.02461055
129	0xbc83dc54	-0.016096272
130	0x3d2a33ee	0.04155343
131	0x3d29402c	0.041320965
132	0xbcf14528	-0.029451922
133	0x3c883084	0.016624697
134	0x3a48b693	0.00076566
135	0x3d52a259	0.051424358
136	0xbcf7e0cc	-0.030258559
137	0x3d4ec2fe	0.050478928
138	0xbcce7636	-0.025202852
139	0xbd217312	-0.03941638
140	0xbc0150b8	-0.00789278
141	0xbcfba39c	-0.030717663
142	0x3d1b9aa6	0.03798928
143	0xbc990800	-0.018680573
144	0x3d7fa1a6	0.06241002
145	0x3d24d227	0.04023948
146	0xbb99925f	-0.0046866382
147	0x3cdf3b36	0.027249914
148	0xbd1add02	-0.037808426
149	0xbd3a8192	-0.045533724
150	0xbd3eaf10	-0.04655367
151	0xbcc1086e	-0.02356359
152	0x3d27fdad	0.04101341
153	0xbd4a4d56	-0.04939016
154	0x3cf0e4d8	0.029405996
155	0x3d418b00	0.0472517
156	0xbc7179d6	-0.014738521
157	0x3d62a7d9	0.055335853
158	0x3d29cb40	0.0414536
159	0x3cea760b	0.02862074
160	0x3d155fdb	0.036468368
161	0xbd0f49d4	-0.034982517
162	0xbd63dfaa	-0.055633225
163	0x3b893e18	0.0041883104
164	0x3d52adf6	0.051435433
165	0x3d69f3f4	0.057117417
166	0xbd638422	-0.055545934
167	0x3c6c1cab	0.014411132
168	0x3d1873ce	0.037219815
169	0x3d2bfde6	0.041990183
170	0x399fa845	0.00030452214
171	0xbd27c624	-0.040960446
172	0x3cdf3840	0.027248502
173	0xbc5c4328	-0.013443746
174	0xbb9e4610	-0.0048301294
175	0x3c12aae0	0.008951873
176	0xbbc4a7c5	-0.006001445
177	0x3c9b0589	0.018923538
178	0x3d3f271e	0.046668164
179	0xbcf96a84	-0.030446298
180	0x3cdd7c34	0.027036764
181	0xbd04a751	-0.032386128
182	0xbd6bb0c0	-0.05754161
183	0x3b759720	0.003747411
184	0x3d2c575e	0.042075507
185	0x3c429290	0.011875764
186	0x3d25ac6c	0.040447637
187	0xbd1964b0	-0.03744954
188	0x3d006d6a	0.031354345
189	0xbd145836	-0.036216937
190	0x3bc6b650	0.006064214
191	0x3d4ab874	0.049492314
192	0xbb3b60f7	-0.002859173
193	0x3d50247d	0.050816048
194	0x3d4ee928	0.050515324
195	0x3d723b7c	0.05913876
196	0x3d29f95a	0.041497566
197	0x3d78126c	0.060564443
198	0x3cb9fd52	0.0227038
199	0x3c117e07	0.008880145
200	0x3d687d52	0.05676014
201	0xbbe4cd10	-0.006982453
202	0x3c4b4330	0.0124061555
203	0xbd2fafca	-0.042892255
204	0x3c94b94c	0.018154763
205	0x3cdec7ec	0.02719494
206	0x3ccca214	0.024979629
207	0x3ce580e8	0.028015569
208	0xbd51c74e	-0.051215462
209	0x3be58450	0.0070042983
210	0xbc72c2d0	-0.014816955
211	0x3d334170	0.043763578
212	0x3d64bdb6	0.055844985
213	0xbd276937	-0.040871825
214	0x3d70eedd	0.058821548
215	0xbb857dae	-0.00407382
216	0xbcad1a32	-0.021130655
217	0x3cd10c49	0.025518553
218	0x3ce8bdc8	0.028410807
219	0xbc095c28	-0.008383788
220	0xbd5e1658	-0.054220527
221	0x3cbac2d4	0.02279798
222	0x3d11408c	0.035461947
223	0x3d020456	0.031742416
224	0xbb0795a0	-0.0020688549
225	0xbd1eb67c	-0.03874825
226	0x3d302498	0.04300365
227	0x3cd7e4ef	0.026354281
228	0xbc952f20	-0.018210948
229	0x3d520ef0	0.051283777
230	0xbb56aac0	-0.0032755584
231	0xbd72d5aa	-0.059285797
232	0xbc21b618	-0.009870075
233	0xbd07451c	-0.033024892
234	0x3cc6f148	0.024284974
235	0xbd2b1988	-0.041772395
236	0x3d7470ba	0.059677817
237	0x3c4e0850	0.012575224
238	0xbd0ae0d5	-0.033905823
239	0xbd2b947f	-0.041889664
240	0x3cc57280	0.02410245
241	0x3cf7c994	0.030247487
242	0xbd4f8c16	-0.050670706
243	0xbd223510	-0.039601386
244	0xbd308722	-0.043097623
245	0xbd3b9b7e	-0.045802586
246	0xbd0ea2c6	-0.0348232
247	0xbcf3358b	-0.029688617
248	0x3c144d84	0.009051684
249	0xbd0ee8ee	-0.034890108
250	0x3b6b1027	0.0035867782
251	0xbd567d28	-0.052365452
252	0xbd230e1e	-0.039808385
253	0x3ce31fc8	0.027725115
254	0xbd6c9082	-0.057755
255	0xbd39a422	-0.045322545

model.13.bias f4 [150]
0	0x3cbb0a49	0.022832053
1	0xbbed97ff	-0.0072507854
2	0x3d35b4e2	0.044361956
3	0x3c07f11c	0.008297231
4	0x3c9ac80e	0.018894222
5	0x3d35e073	0.044403505
6	0x3c08ffd4	0.008361775
7	0x3ba9a80e	0.0051775044
8	0x3d30c53c	0.043156847
9	0xbd4287ef	-0.047492918
10	0xbcd8c74b	-0.026462218
11	0xbcb40c7e	-0.021978613
12	0xbcc51537	-0.024057968
13	0x3d54f5e5	0.051992316
14	0xbb64ae3b	-0.0034893889
15	0xbc05b594	-0.008160967
16	0x3c8383a3	0.01605398
17	0x3ce2afda	0.027671743
18	0x3d33223d	0.043733824
19	0x3d227886	0.03966572
20	0xbbd5fa38	-0.0065300725
21	0xbd538284	-0.05163814
22	0xbcaecb47	-0.021337165
23	0xbd50c490	-0.050968707
24	0xbd062246	-0.03274753
25	0xbc870be0	-0.016485155
26	0xba0cdb50	-0.0005373256
27	0xbd4ae592	-0.04953534
28	0xbd51ca76	-0.051218472
29	0xbd5b36a8	-0.05351892
30	0x3d683b6f	0.056697305
31	0x3b9f0307	0.004852656
32	0xbd47a61f	-0.04874241
33	0x3d6ac638	0.057317942
34	0x3d7f0ccd	0.062268067
35	0xbd5f985b	-0.054588657
36	0xbd26fa1d	-0.04076587
37	0x3d7664fd	0.060154904
38	0x3cbe92fe	0.02326345
39	0x3d21d491	0.03950936
40	0x3d7c187b	0.061546784
41	0xbc9bad94	-0.019003667
42	0xbd0d40db	-0.03448568
43	0xbcb68f66	-0.022285175
44	0x3d2bdb71	0.041957323
45	0xbd1fcf7d	-0.039016236
46	0xbc02a666	-0.007974243
47	0x3cffef40	0.031242013
48	0x3d6bf1aa	0.057603516
49	0x3d3ae678	0.04562995
50	0xbc090ce8	-0.0083648935
51	0xbcd75ae1	-0.026288452
52	0x3c979ea2	0.01850826
53	0xbc5167ed	-0.0127811255
54	0x3d1a7e05	0.037717838
55	0x3c3657cf	0.011129334
56	0xbd2c82d7	-0.042116966
57	0xbb8dc7b2	-0.004326784
58	0x3d2344bd	0.039860476
59	0x3d46a6fc	0.048499092
60	0x3d49eb4c	0.049296662
61	0xbbedff20	-0.0072630793
62	0x3d1bc1bb	0.038026553
63	0x3bdb5a5b	0.006694121
64	0xbd3cace4	-0.04606332
65	0x3ca12ab2	0.019673679
66	0xbd68f573	-0.056874704
67	0xbd60d4c8	-0.054890424
68	0xbc94a385	-0.018144378
69	0xbc0b414e	-0.008499457
70	0xbd02c321	-0.03192437
71	0xbd160260	-0.03662336
72	0xbd15ee9d	-0.036604512
73	0x3d56330d	0.05229478
74	0x3d1663a0	0.036716104
75	0x3c337477	0.01095306
76	0x3cbfcdca	0.023413558
77	0xbd4ddef9	-0.05026147
78	0xbd26dbd2	-0.04073698
79	0xbd4e752a	-0.050404705
80	0x3d592fff	0.05302429
81	0xbd3b408f	-0.045715865
82	0xbcf54f4a	-0.029945035
83	0xbc80fe21	-0.015746178
84	0xbab54abd	-0.0013831478
85	0xbd4452e0	-0.0479306
86	0xbcea15b1	-0.028574796
87	0x3cd0c631	0.02548513
88	0x3d016b5a	0.03159652
89	0x3cab5e87	0.020919098
90	0x3bf106ce	0.0073555475
91	0xbc26966e	-0.010167701
92	0x3cc59eda	0.024123598
93	0xbd00b1c9	-0.03141955
94	0xbd2615b1	-0.04054803
95	0xbd7a0175	-0.061036546
96	0x3d57b690	0.05266434
97	0x3ca6567d	0.020304913
98	0x3d619414	0.05507286
99	0xbc81712c	-0.015801035
100	0xbcb2914e	-0.021797802
101	0x3d30b2fc	0.043139443
102	0xbd4fa2c2	-0.050692327
103	0xbd0843d1	-0.0332678
104	0x3d1c4daf	0.038160022
105	0x3cbf46d0	0.023349196
106	0xbd6934d8	-0.05693516
107	0x3ca53a03	0.020169264
108	0xbd4d2b2c	-0.05009
109	0xbcddf345	-0.027093539
110	0x3cdf90b5	0.027290681
111	0xbb275603	-0.0025533445
112	0x3d01c732	0.031684108
113	0xbc97c3bd	-0.018525952
114	0x3d04913c	0.03236507
115	0xbd20703b	-0.03916953
116	0x3ce1ddff	0.027571676
117	0x3c0277f0	0.007963166
118	0xbd5e65f7	-0.05429646
119	0xbcff7e24	-0.031188078
120	0xbbe2d0f9	-0.006921884
121	0x3d2ca118	0.04214582
122	0x3d22e1fb	0.039766293
123	0xbc3498ba	-0.011022741
124	0x3cac88bf	0.0210613
125	0xbd796e4f	-0.060896214
126	0xbc168a63	-0.009188267
127	0xbd07bcf2	-0.033139177
128	0xbd32e1f6	-0.043672524
129	0xbd0c7bbb	-0.034297686
130	0xbc9902f4	-0.018678166
131	0xbc83ebbc	-0.016103618
132	0xbd2d99df	-0.04238307
133	0x3cc92a6e	0.024556365
134	0x3d25cac8	0.04047659
135	0xbc120ebc	-0.008914646
136	0x3ce2c31b	0.027680924
137	0x3c9d6e3f	0.019217608
138	0xbd7bd7c5	-0.06148507
139	0xbb37cfe0	-0.0028047487
140	0xbc194dff	-0.009356975
141	0xbd423f5e	-0.047423713
142	0xbd756306	-0.05990889
143	0x3d060eb1	0.032728855
144	0xbce832a1	-0.028344454
145	0x3cc6e6be	0.024279948
146	0xbd67a1bd	-0.05655073
147	0x3c25b15b	0.010113086
148	0xbd5d7407	-0.05406573
149	0x3c9998ae	0.018749561
